Models_Q1/Model-b7-e32-h32.pth (torch, 41885 bytes, 5 tensors)

emb.weight f4 [41, 32]
-1.9389434 -0.025029615 -0.84717834 0.4629147 1.166956 -3.1811635 -1.4699249 -0.2114017
-0.79515105 0.5148208 1.4146979 2.0641258 0.67176527 0.13192338 -2.0872912 1.5325102
1.1003666 -1.5627811 0.16512725 0.50387836 -2.0064235 1.0075107 2.7725418 0.36361268
1.5883374 0.14988297 -1.407754 -1.1771063 -0.12733716 -1.5851282 1.0215006 -0.41845685
-0.13360004 0.21245988 -1.0321195 -0.47607896 1.1956136 -0.22465585 1.2671069 0.8042826
-0.8749836 -2.0147285 -1.4600953 -0.014171855 1.4918308 0.36398235 -0.39929387 0.4854393
0.41272354 0.6219784 0.41165534 2.031654 1.0201262 1.6435002 0.7536232 0.83730227
-0.6240197 1.9506431 0.48711625 0.30965504 1.0137868 1.3932146 -0.55008894 0.72957766
-0.65793395 1.7524393 -0.02041875 2.6548874 2.1876774 -1.1808814 2.2089636 -3.1028726
0.7103681 0.055635724 -1.6151662 -0.116356485 0.31404856 -1.594948 -2.2992291 -0.87964416
2.0079584 2.078623 0.8129175 -1.1473433 0.04316505 1.721822 -0.90310615 -1.6454486
0.054293677 -0.9491251 0.48770633 0.28197774 -2.3962085 -1.690533 0.053330436 0.15805966
1.1262323 0.8393629 -2.0839283 0.3743756 -1.8015889 1.4616101 -0.83492696 0.87510896
0.18483563 -0.98006463 -1.1283222 0.94292045 0.6980447 -0.72165287 -1.4477895 -1.1946827
-0.733909 -1.8172169 0.76648766 -1.8680516 1.1818824 1.1554626 0.5201116 -2.899978
-1.8076713 1.3551254 -2.9451401 3.0395548e-05 -0.5629701 -0.29562992 -0.1690438 -1.0109444
-2.145623 2.0310502 1.6042204 0.85607284 1.2145902 0.2673328 -0.7111828 -0.08165045
1.806038 -0.7051299 2.6657398 -3.542054 -0.5342905 -0.39062017 -2.198094 -0.9268286
0.24721546 0.67181605 -0.57298654 2.2117445 -0.45912 1.9496247 0.92136806 0.9369204
3.2170086 1.7001332 3.0015912 2.1284256 -0.08854456 2.7584405 0.44227406 3.1230054
0.6475896 1.7872171 1.5587333 0.3132871 2.814847 -1.2497914 0.39596838 -0.5841816
-1.3139197 0.7578546 -3.4661052 3.6802216 -0.906065 1.9704722 -0.76554275 0.6558776
1.0822748 -0.7006177 2.2282295 -1.7039058 -4.1480255 -1.521619 -0.39145303 2.4669764
-1.651533 -0.6150923 -1.3390733 1.0425893 3.3904502 -0.57625186 -1.3807309 -1.1219898
-1.32939 0.06187004 -0.011287831 0.3771378 -0.9147513 -1.7996356 2.344584 0.94568807
0.1533607 1.1139947 -2.639053 -1.2606368 -2.85715 -0.11087755 -0.59413487 0.76196957
-1.1332183 -3.2025397 -1.2089173 1.1568322 2.7938032 -0.47744584 0.044923827 1.1506017
1.1406931 0.37593883 -0.041043945 0.753311 0.22328855 -2.4047482 -1.0561581 0.72763836
-4.491067 2.7957258 0.3368923 -0.7251943 -0.16387558 1.8946401 -3.4967139 1.6595323
2.248999 -0.7832459 -1.4896852 -0.4205395 -4.640411 -1.1139078 -1.6193398 -1.307548
2.116507 2.7190373 -2.6777618 2.9010117 -1.2772133 -2.9456325 -0.6058553 -1.7454392
-0.72691244 0.29137123 -0.6266711 -0.6445812 -3.4449162 -0.5733556 1.7078754 -0.32810265
00000000: 4c2f f8bf e80a cdbc aee0 58bf 2803 ed3e
00000010: d05e 953f 2f98 4bc0 8026 bcbf b079 58be
00000020: 058f 4bbf 4ccb 033f d214 b53f a31a 0440
00000030: cff8 2b3f ec16 073e 2e96 05c0 4b29 c43f
00000040: d0d8 8c3f 3609 c8bf 1e17 293e 2cfe 003f
00000050: 3e69 00c0 1cf6 803f 5371 3140 712b ba3e
00000060: a44e cb3f ec7a 193e 4831 b4bf 6bab 96bf
00000070: ac64 02be 7be5 cabf 88c0 823f fa3f d6be
00000080: 73ce 08be 158f 593e 7e1c 84bf 9fc0 f3be
00000090: de09 993f 2f0c 66be 8f30 a23f 77e5 4d3f
000000a0: edfe 5fbf 50f1 00c0 67e4 babf 1131 68bc
000000b0: 50f4 be3f e55b ba3e 3f70 ccbe 808b f83e
000000c0: 8050 d33e fa39 1f3f 7dc4 d23e 9e06 0240
000000d0: 7f93 823f 375e d23f 73ed 403f 7159 563f
000000e0: c1bf 1fbf acae f93f 4d67 f93e 1b8b 9e3e
000000f0: c4c3 813f db54 b23f a1d2 0cbf 9ac5 3a3f
00000100: 5c6e 28bf ee4f e03f 3945 a7bc ade9 2940
00000110: e802 0c40 1f27 97bf a95f 0d40 7795 46c0
00000120: afda 353f 49e2 633d c4bd cebf 4f4c eebd
00000130: f9ca a03e 4227 ccbf 9226 13c0 5c30 61bf
00000140: 6482 0040 2908 0540 5c1b 503f 25dc 92bf
00000150: d6cd 303d aa64 dc3f f731 67bf 0f9e d2bf
00000160: 0c63 5e3d ddf9 72bf a5b4 f93e 635f 903e
00000170: 7b5b 19c0 6363 d8bf 0471 5a3d 64da 213e
00000180: 6128 903f 7de0 563f 155f 05c0 29ae bf3e
00000190: 779a e6bf 0a16 bb3f c6bd 55bf 2407 603f
000001a0: 8d45 3d3e 84e5 7abf dd6c 90bf 3c63 713f
000001b0: 0fb3 323f 3ebe 38bf 2b51 b9bf 5deb 98bf
000001c0: 76e1 3bbf 909a e8bf 8938 443f 511c efbf
000001d0: ec47 973f 33e6 933f 0926 053f 3d99 39c0
000001e0: c661 e7bf c074 ad3f 2d7d 3cc0 f1f9 fe37
000001f0: cf1e 10bf ce5c 97be d119 2dbe a066 81bf
00000200: e351 09c0 bafc 0140 1857 cd3f 9727 5b3f
00000210: b177 9b3f d8df 883e 1310 36bf 5a38 a7bd
00000220: 412c e73f 6583 34bf 7b9b 2a40 03b1 62c0
00000230: 43c7 08bf 5eff c7be 92ad 0cc0 a444 6dbf
00000240: 0d26 7d3e 23fc 2b3f 3faf 12bf 398d 0d40
00000250: c711 ebbe 4d8d f93f c7de 6b3f 04da 6f3f
00000260: 78e3 4d40 f79d d93f 121a 4040 2038 0840
00000270: da56 b5bd 4a8a 3040 bf71 e23e 52df 4740
00000280: 6fc8 253f 88c3 e43f 9384 c73f 2b67 a03e
00000290: 7426 3440 2af9 9fbf 5ebc ca3e ed8c 15bf
000002a0: 852e a8bf c202 423f abd4 5dc0 c088 6b40
000002b0: e0f3 67bf 6f38 fc3f 9cfa 43bf 98e7 273f
000002c0: fb87 8a3f ae5b 33bf 509b 0e40 9619 dabf
000002d0: a0bc 84c0 69c4 c2bf 886c c8be f1e2 1d40
000002e0: 6f65 d3bf b076 1dbf c166 abbf 9173 853f
000002f0: 23fd 5840 3e85 13bf cabb b0bf 5d9d 8fbf
00000300: 7429 aabf 706b 7d3d 98f0 38bc 3518 c13e
00000310: 242d 6abf 765a e6bf aa0d 1640 9d18 723f
00000320: 960a 1d3e 6197 8e3f 3fe6 28c0 8c5c a1bf
00000330: 8cdb 36c0 c513 e3bd 3919 18bf 7010 433f
00000340: 4c0d 91bf 69f6 4cc0 cdbd 9abf 1413 943f
00000350: accd 3240 c873 f4be 0c02 383d eb46 933f
00000360: 3b02 923f 0e7b c03e b21d 28bd fdd8 403f
00000370: c1a5 643e 65e7 19c0 3030 87bf 8246 3a3f
00000380: d2b6 8fc0 2ced 3240 267d ac3e 55a6 39bf
00000390: 00cf 27be 9183 f23f 29ca 5fc0 8e6b d43f
000003a0: 9aef 0f40 ce82 48bf 01ae bebf f450 d7be
000003b0: 3f7e 94c0 8894 8ebf 8746 cfbf bc5d a7bf
000003c0: da74 0740 b504 2e40 7360 2bc0 2daa 3940
000003d0: ba7b a3bf 3e85 3cc0 5519 1bbf 8d6a dfbf
000003e0: ef16 3abf 9c2e 953e 846d 20bf 4603 25bf
000003f0: 8279 5cc0 6fc7 12bf a99b da3f 12fd a7be

lin1.weight f4 [32, 224]
0.1262206 0.14574234 -0.033831157 0.17825851 0.08075861 -0.07053529 -0.15413266 -0.11854574
-0.14670013 0.26851204 -0.17398924 -0.13229294 -0.24836598 0.008739154 -0.15473174 -0.16806515
0.0838332 -0.0069871596 0.24586113 -0.06551287 0.1929044 -0.086560056 0.042560793 0.05481059
-0.0015317957 0.24771245 0.0067987503 0.0076587945 -0.060286976 -0.058404543 -0.17005971 0.24231021
0.29396752 0.12701103 -0.11415212 -0.021694308 -0.19719088 -0.18151793 -0.22612706 0.23854347
-0.01846159 -0.10626896 0.051572412 -0.05514188 -0.028093113 -0.04108228 -0.024137914 0.19884391
0.06286714 -0.017040944 -0.1541324 -0.010566826 -0.054658163 0.14236906 -0.0563109 0.100130424
-0.16558036 0.02749096 0.062622085 -0.15195839 -0.019456541 0.3629472 0.30703828 0.12211849
0.06814303 -0.026844274 0.059749275 0.14862575 -0.104122594 -0.07236824 0.13632151 0.31163916
-0.38323036 0.011848593 -0.21022154 -0.11462015 -0.06804597 0.03181072 0.14028557 -0.18833923
-0.043905217 0.16576864 0.09057456 -0.18379982 0.14243674 0.027576772 -0.10669964 -0.19261208
-0.17636754 0.048848063 -0.08330761 -0.00764291 -0.07329119 -0.07324061 0.041078515 0.08509557
0.0031588918 0.019189432 0.15205543 0.08667757 -0.09302105 -0.0035396214 0.25955972 -0.06667531
0.14209439 -0.10194629 -0.018314205 0.0057969815 0.1214243 0.047238015 0.042781584 0.06216592
0.044064503 0.022464778 -0.42044073 0.09645786 -0.1329527 0.2449805 0.03900927 -0.19482526
0.031510927 0.01572478 -0.074722424 -0.07318758 0.17429195 0.0026115982 0.09698648 0.0072389655
0.12847501 -0.39819986 -0.00359466 -0.10403736 0.27050608 -0.11337005 0.1544574 -0.2637096
0.18128674 -0.13488172 -0.31364 -0.16167668 -0.055345085 -0.059542224 0.022452798 0.08510354
0.23697402 -0.04927828 0.05404275 -0.07885277 -0.22878364 -0.026087726 -0.0012770224 0.015350883
-0.19760078 0.0068857465 -0.16314977 -0.0878905 -0.09202282 0.06634748 0.09747034 -0.013777737
0.18959619 -0.09132896 0.28065798 -0.09941286 0.13530417 0.08226129 -0.06690247 0.06165911
-0.10849021 -0.06311059 0.00019482002 -0.10783419 0.17251645 -0.40541452 0.118013896 0.0008784602
0.107671894 -0.16434388 0.10953931 0.08794073 -0.1485928 -0.07542338 0.26843533 -0.25162336
-0.17695598 -0.25579482 -0.010867153 0.09793745 0.06340356 0.22521089 -0.3935969 -0.10970377
0.05623418 0.026219545 0.10764753 -0.28099674 -0.07059981 0.22788666 -0.10874914 0.05227907
0.2848739 -0.004939133 -0.028145237 0.12202273 0.081534654 0.04816918 0.49378207 0.4085644
-0.019479629 -0.1994789 0.23448047 -0.052215908 0.008818037 0.22228639 -0.036068078 0.32261813
-0.028288318 0.16373284 0.38434127 0.32586822 -0.13949443 -0.2209703 -0.031957928 -0.37151656
-0.051936015 -0.27139816 -0.17109063 0.15000772 -0.13059787 0.08220403 0.07610192 -0.17617026
-0.15762983 -0.09564225 0.021164963 0.08920249 0.11883058 0.087010846 -0.11070993 0.1686022
-0.26689678 0.1895903 0.0021262232 0.036541555 -0.18513222 0.0119248 0.018277377 0.20541887
-0.0555004 -0.20769224 0.034833618 0.12620226 -0.22708473 -0.109819725 0.035069477 -0.2965327
00000000: f93f 013e 7b3d 153e 8a92 0abd 6689 363e
00000010: c564 a53d ce74 90bd f4d4 1dbe 1cc8 f2bd
00000020: 8f38 16be 697a 893e 3c2a 32be cd77 07be
00000030: a753 7ebe ab2e 0f3c ff71 1ebe 4519 2cbe
00000040: beb0 ab3d 8bf4 e4bb 05c3 7b3e 9d2b 86bd
00000050: bb88 453e 6646 b1bd 3a54 2e3d 1281 603d
00000060: 89c6 c8ba 55a8 7d3e 0dc8 de3b a0f6 fa3b
00000070: 7aef 76bd 9a39 6fbd 2224 2ebe 2b20 783e
00000080: e982 963e 2e0f 023e 96c8 e9bd 43b8 b1bc
00000090: 68ec 49be d6df 39be da8d 67be bd44 743e
000000a0: c33c 97bc 8aa3 d9bd 983d 533d 74dc 61bd
000000b0: 8723 e6bc e545 28bd e0bc c5bc bd9d 4b3e
000000c0: 7dc0 803d 7399 8bbc e2d4 1dbe 7b20 2dbc
000000d0: 3de1 5fbd 32c9 113e 42a6 66bd 2e11 cd3d
000000e0: e68d 29be b934 e13c 0240 803d fb9a 1bbe
000000f0: 5363 9fbc 37d4 b93e 1f34 9d3e 4219 fa3d
00000100: 938e 8b3d 86e8 dbbc a8bb 743d 5931 183e
00000110: 3a3e d5bd cd35 94bd de97 0b3e 2b8f 9f3e
00000120: c536 c4be 9a20 423c 5144 57be f8bd eabd
00000130: af5b 8bbd f54b 023d 05a7 0f3e 00dc 40be
00000140: f5d5 33bd 41bf 293e 287f b93d 0536 3cbe
00000150: f0da 113e afe8 e13c 5785 dabd 1a3c 45be
00000160: b199 34be e814 483d 2e9d aabd 6071 fabb
00000170: b119 96bd 2cff 95bd f241 283d 9646 ae3d
00000180: 6905 4f3b 2833 9d3c 6bb4 1b3e 0384 b13d
00000190: d281 bebd fef8 67bb 03e5 843e 118d 88bd
000001a0: 3181 113e 37c9 d0bd ac07 96bc 9bf4 bd3b
000001b0: 4ead f83d a67c 413d be3b 2f3d b1a1 7e3d
000001c0: fb7c 343d 0e08 b83c 0244 d7be b38b c53d
000001d0: c124 08be 2bdc 7a3e 2fc8 1f3d 4680 47be
000001e0: 9a11 013d 41d1 803c 1208 99bd 5fe3 95bd
000001f0: 9779 323e 5927 2b3b d9a0 c63d d834 ed3b
00000200: f48e 033e dae0 cbbe 6394 6bbb 8a11 d5bd
00000210: c67f 8a3e 8f2e e8bd 152a 1e3e f204 87be
00000220: 3ba3 393e 6f1e 0abe 6c95 a0be 928e 25be
00000230: 87b1 62bd 8ce2 73bd eeee b73c c44a ae3d
00000240: 51a9 723e 06d8 49bd ee5b 5d3d 907d a1bd
00000250: 4246 6abe edb5 d5bc c361 a7ba 4582 7b3c
00000260: dc57 4abe d4a1 e13b bc10 27be efff b3bd
00000270: 7676 bcbd 30e1 873d 889e c73d 04bc 61bc
00000280: 8125 423e ae0a bbbd 67b2 8f3e f898 cbbd
00000290: 2d8d 0a3e 9b78 a83d 2a04 89bd 438e 7c3d
000002a0: 1d30 debd 2040 81bd 9a48 4c39 2cd8 dcbd
000002b0: 27a8 303e 7e92 cfbe 45b1 f13d 7748 663a
000002c0: 1583 dc3d c349 28be 2556 e03d 451a b43d
000002d0: b628 18be 9377 9abd 5b70 893e c7d4 80be
000002e0: f333 35be 8af7 82be 250c 32bc 6e93 c83d
000002f0: bad9 813d af9d 663e 8885 c9be 5fac e0bd
00000300: d055 663d 5fca d63c 4f76 dc3d cede 8fbe
00000310: a296 90bd 1f5b 693e deb7 debd 9422 563d
00000320: feda 913e 73d8 a1bb d790 e6bc 0ee7 f93d
00000330: a4fb a63d 0c4d 453d 01d1 fc3e 5a2f d13e
00000340: be93 9fbc 3244 4cbe a61b 703e 59e0 55bd
00000350: 8779 103c 0b9f 633e 1fbc 13bd 342e a53e
00000360: e7bc e7bc 95a9 273e 61c8 c43e 33d8 a63e
00000370: a1d7 0ebe 0a46 62be 51e6 02bd 6b37 bebe
00000380: dcba 54bd b3f4 8abe 6232 2fbe a09b 193e
00000390: 73bb 05be 965a a83d 53db 9b3d fa65 34be
000003a0: b769 21be 15e0 c3bd 2562 ad3c ccaf b63d
000003b0: 725d f33d be32 b23d e3bb e2bd 0ea6 2c3e
000003c0: b2a6 88be f623 423e 1b58 0b3b 99ac 153d
000003d0: 4d93 3dbe 3d60 433c 70ba 953c 5359 523e
000003e0: 6354 63bd 46ad 54be b2ad 0e3d 2a3b 013e
000003f0: e688 68be 2ae9 e0bd 03a5 0f3d 22d3 97be

lin1.bias f4 [32]
0.05589265 0.030559273 0.16295199 -0.17811275 -0.026786769 0.20560895 -0.0820823 0.19363944
0.023571407 -0.17121498 0.1506343 0.10527978 -0.24048422 -0.028747981 0.08514729 0.27370253
0.3642604 0.0055251117 -0.08794617 -0.024548607 0.24035376 0.0041756704 0.17467266 0.01227804
-0.22891407 0.18755214 0.026992865 0.07621652 0.02201898 -0.054443926 -0.023661938 0.17604092
00000000: b1ef 643d 7157 fa3c e3dc 263e 3063 36be
00000010: ed6f dbbc 278b 523e c41a a8bd 6b49 463e
00000020: d318 c13c fb52 2fbe e13f 1a3e ed9c d73d
00000030: 7f41 76be e380 ebbc b461 ae3d bd22 8c3e
00000040: 5780 ba3e ff0b b53b 1f1d b4bd 291a c9bc
00000050: 4c1f 763e 10d4 883b 64dd 323e d529 493c
00000060: 7368 6abe ab0d 403e 2420 dd3c 6817 9c3d
00000070: 2661 b43c 9800 5fbd aed6 c1bc 1244 343e

lin2.weight f4 [41, 32]
-2.8696187 1.1561519 -1.4160632 1.9442422 0.8226404 -0.5982478 1.1430581 -1.4274633
1.3948045 -2.2538002 0.29208907 -1.7114178 -4.191507 2.6901367 -3.0039108 -0.7331765
-2.342668 -1.0024031 -2.3665977 2.8280084 -0.3525396 -4.1386747 0.6539222 1.2623938
1.4854664 2.8882768 1.8064468 -0.21164335 -0.19301052 -0.7096879 -1.7735084 -0.2639478
-0.18805692 -0.11953519 -1.9126899 0.23050572 1.0835531 3.2984095 -1.7933704 1.6854355
4.401479 -3.396609 -1.8071733 0.22553813 -5.8146286 2.5735366 2.6678047 1.7056845
2.9998662 -2.5695434 -1.5961016 4.385861 2.7628753 -0.8662413 -2.5092466 4.505568
-1.3802415 3.838331 1.8464946 -2.8599849 3.1484368 -3.1078336 -3.9989033 2.5881062
-2.1683888 -0.104117334 1.0955311 -1.2145607 0.9709244 1.5682405 -1.5522653 0.5536397
1.5802777 1.0220059 1.1190262 2.5111334 0.85912675 1.1247839 0.059543226 2.086074
-2.2146513 -1.8693768 2.0207374 2.3096137 -2.4787943 -2.9985642 1.5966586 -3.87989
2.3689415 -0.3988028 -1.0664508 -0.049255364 2.947271 -0.553419 -0.7217597 2.7348993
-0.72588736 -0.34606645 -2.9835334 -1.0862509 2.392333 0.7574571 3.5717678 1.51961
1.0386672 3.1266193 -0.19869454 -2.8731024 -2.6492128 1.5603739 -0.99514055 -2.7552435
2.038789 -1.0035989 1.4025813 0.80569327 3.0105736 0.16278866 -3.7632122 1.6633892
1.5670402 3.62355 -1.888409 -0.5904035 -2.3676715 -0.43915886 0.9066311 -1.5113164
-1.1012099 0.11070473 0.53117234 0.9884886 -0.6815746 1.4626691 -0.44333893 0.6323751
-1.1466498 -0.58414394 0.9336308 0.7834445 0.14616738 -0.8658489 -0.59333783 0.4852191
-0.80881757 -0.7509266 -0.35585916 -0.6522233 -0.7290052 0.6778406 -0.60230076 -0.8228068
-0.48345226 0.8711447 0.099659905 0.25639203 0.6447999 0.4558746 -0.62317586 -0.48629954
-2.164546 2.6565073 -1.3987627 2.2009563 1.8974427 -0.67213845 2.7952945 0.47164288
-0.8153904 1.9782102 -1.6476287 -0.5595682 1.490681 -0.22101222 0.7602181 -0.8093664
-1.4241081 -0.11223701 -1.1338452 -0.18976985 2.9631355 -0.8388964 -1.6782125 0.03742715
-0.09293903 -1.3418696 1.9467406 -1.0538898 -0.0020362101 -1.3014199 1.537278 -1.9273398
0.004401803 3.1886175 -3.0524237 2.011529 3.2725568 1.7246621 0.9114076 0.16004378
4.229298 -0.523101 -0.8689171 -3.3559527 -4.016878 -2.9446568 -0.35787985 2.3408515
-2.0580444 -0.23336262 -0.7834301 5.381988 -1.3184029 -0.45631722 2.5577073 0.78544074
-0.7296249 -0.09246234 0.53341836 0.3694412 -0.12610073 -0.565503 -1.023189 -0.76707035
-1.6760223 -1.5465078 -0.24642536 -1.3353724 -0.22158745 -1.1803073 0.88003767 -1.1667159
-0.16546382 2.5023801 -2.5328186 0.11052303 -2.1518056 -0.5444168 -2.5273485 -1.6626494
-0.34890267 -2.0670977 0.59009635 0.6403188 -2.796144 -2.0454495 0.8907164 1.5893759
-2.7558017 2.1990836 0.9316724 0.74616826 -0.26095635 1.9357202 2.2002647 -0.8019058
00000000: d5a7 37c0 c9fc 933f 8f41 b5bf eedc f83f
00000010: 9098 523f c526 19bf ba4f 923f 1eb7 b6bf
00000020: f488 b23f 433e 10c0 b38c 953e bd0f dbbf
00000030: d320 86c0 332b 2c40 1340 40c0 75b1 3bbf
00000040: 46ee 15c0 bf4e 80bf 5676 17c0 17fe 3440
00000050: 1280 b4be 0670 84c0 7267 273f 1f96 a13f
00000060: c323 be3f 87d9 3840 a639 e73f 09b9 58be
00000070: 8da4 45be 1bae 35bf 5302 e3bf 2b24 87be
00000080: fe91 40be dece f4bd 06d3 f4bf b109 6c3e
00000090: deb1 8a3f 2419 5340 298d e5bf 5abc d73f
000000a0: ead8 8c40 0b62 59c0 7451 e7bf 78f3 663e
000000b0: 7011 bac0 d3b4 2440 50bd 2a40 df53 da3f
000000c0: cffd 3f40 6673 24c0 0f4d ccbf f958 8c40
000000d0: f3d2 3040 fdc1 5dbf 7f97 20c0 9d2d 9040
000000e0: c1ab b0bf 37a7 7540 ef59 ec3f fe09 37c0
000000f0: fd7f 4940 bfe6 46c0 08ee 7fc0 88a3 2540
00000100: e2c6 0ac0 783b d5bd 5d3a 8c3f ba76 9bbf
00000110: 808e 783f 1bbc c83f a1b0 c6bf 55bb 0d3f
00000120: 8a46 ca3f 17d1 823f 403c 8f3f 69b6 2040
00000130: bbef 5b3f ebf8 8f3f 99e3 733d 3d82 0540
00000140: d9bc 0dc0 bd47 efbf c353 0140 b6d0 1340
00000150: 91a4 1ec0 7ae8 3fc0 4f5f cc3f 1e50 78c0
00000160: bd9c 1740 e12f ccbe 7681 88bf febf 49bd
00000170: 17a0 3c40 deac 0dbf 3ec5 38bf 9708 2f40
00000180: c1d3 39bf 9f2f b1be 36f2 3ec0 450a 8bbf
00000190: fc1b 1940 b5e8 413f d897 6440 9582 c23f
000001a0: 0cf3 843f 881a 4840 9576 4bbe e9e0 37c0
000001b0: b48c 29c0 55ba c73f 88c1 7ebf e955 30c0
000001c0: 857b 0240 ee75 80bf c987 b33f ea41 4e3f
000001d0: 3dad 4040 12b2 263e 78d8 70c0 f0e9 d43f
000001e0: c694 c83f 3ee8 6740 63b7 f1bf af24 17bf
000001f0: ee87 17c0 6ed9 e0be fa18 683f d172 c1bf
00000200: 72f4 8cbf 29b9 e23d e9fa 073f 970d 7d3f
00000210: ac7b 2ebf be38 bb3f 52fd e2be 56e3 213f
00000220: 6cc5 92bf 758a 15bf 6e02 6f3f d28f 483f
00000230: e7ac 153e 46a8 5dbf fde4 17bf a36e f83e
00000240: ab0e 4fbf ba3c 40bf 2c33 b6be 1bf8 26bf
00000250: 16a0 3abf f686 2d3f 6230 1abf 77a3 52bf
00000260: 0e87 f7be 5703 5f3f 7e1a cc3d d145 833e
00000270: 9b11 253f 6568 e93e 7488 1fbf 41fc f8be
00000280: ec87 0ac0 3704 2a40 a80a b3bf 78dc 0c40
00000290: 67df f23f 4411 2cbf 1be6 3240 2d7b f13e
000002a0: 6dbd 50bf fe35 fd3f 7fe5 d2bf dd3f 0fbf
000002b0: a3ce be3f 0751 62be a79d 423f a332 4fbf
000002c0: 2d49 b6bf 84dc e5bd d721 91bf 0753 42be
000002d0: 03a4 3d40 eac1 56bf abcf d6bf 364d 193d
000002e0: d156 bebd 62c2 abbf cc2e f93f dce5 86bf
000002f0: f071 05bb ed94 a6bf 87c5 c43f 12b3 f6bf
00000300: 003d 903b 4f12 4c40 e95a 43c0 e4bc 0040
00000310: 9271 5140 bac1 dc3f 0252 693f 84e2 233e
00000320: 6956 8740 f2e9 05bf 5a71 5ebf eec7 56c0
00000330: 448a 80c0 4275 3cc0 073c b7be 83d0 1540
00000340: 00b7 03c0 9cf6 6ebe e08e 48bf 3f39 ac40
00000350: 6dc1 a8bf 69a2 e9be 7ab1 2340 a512 493f
00000360: b3c8 3abf e55c bdbd 1b8e 083f 6627 bd3e
00000370: 8d20 01be cec4 10bf dbf7 82bf b95e 44bf
00000380: e687 d6bf f8f3 c5bf ee56 7cbe 7ced aabf
00000390: d2e7 62be 4f14 97bf 264a 613f f256 95bf
000003a0: 596f 29be ff26 2040 b319 22c0 e659 e23d
000003b0: 2fb7 09c0 e65e 0bbf 14c0 21c0 b2d1 d4bf
000003c0: 5fa3 b2be 544b 04c0 8e10 173f efeb 233f
000003d0: 06f4 32c0 a5e8 02c0 fd05 643f ab70 cb3f
000003e0: 0e5f 30c0 c9bd 0c40 1582 6e3f e204 3f3f
000003f0: 129c 85be aec5 f73f 23d1 0c40 b349 4dbf

lin2.bias f4 [41]
-0.27760595 1.3836441 -2.5473526 -1.0324861 -0.4635378 -4.013935 -1.7552767 -4.5194435
-0.9464953 -2.1574156 -3.4659932 -0.80823606 -3.6150084 -0.3895627 0.6995746 -0.4156001
-0.1720772 -1.9291974 2.262593 -0.52599955 -0.999027 -0.32525638 0.9210866 -0.66567767
-8.117805 -2.220366 -2.6024218 0.20319462 1.0968359 -3.1945922 -0.7741062 0.32798082
0.89329123 0.65811586 -0.73712593 -4.4369555 -0.5281238 -8.04771 -2.752463 -3.13436
-0.10235651
00000000: 5e22 8ebe 401b b13f d307 23c0 8128 84bf
00000010: d454 edbe 2872 80c0 e8ac e0bf 489f 90c0
00000020: 844d 72bf 1913 0ac0 d5d2 5dc0 8fe8 4ebf
00000030: 4c5c 67c0 c374 c7be 5217 333f 89c9 d4be
00000040: 0135 30be f1ef f6bf 53ce 1040 e8a7 06bf
00000050: 3cc0 7fbf 0188 a6be 55cc 6b3f da69 2abf
00000060: 87e2 01c1 7a1a 0ec0 148e 26c0 4012 503e
00000070: 1e65 8c3f 3374 4cc0 d32b 46bf 1aed a73e
00000080: bcae 643f 487a 283f 49b4 3cbf 8afb 8dc0
00000090: 1f33 07bf 6cc3 00c1 5b28 30c0 5b99 48c0
000000a0: 4aa0 d1bd
