Models_Q1/Model-b3-e32-h64.pth (torch, 43165 bytes, 5 tensors)

emb.weight f4 [41, 32]
00000000: 3684 bbbf 5cb8 48c0 854a 43be f58e 603f
00000010: 19d1 d8bf b702 4fbf 0738 55bf 87bf f13e
00000020: 5dc1 b4bf 0faf 43bf bd04 de3e 89b5 263f
00000030: 3bf3 03bf 7b24 cb3f 088e 45bf 0f8d c0bf
00000040: c44e d23f 8d73 0fc0 4b9f 98bd 471d d53e
00000050: 347c 0a40 1e65 33be 776c 9abf 4aba bdbf
00000060: c9ae 01bf 3bc3 2fbf eff5 103f 3e14 1e40
00000070: a0e4 6c3f fc72 6bbe fd33 9e3f 580c 9f3e
00000080: 0bd0 11bf 7352 89bd d671 13be 96ab 6e3f
00000090: 85cc 713f 4367 0ec0 5fd7 bd3f 4746 bfbe
000000a0: 5e84 74bf 524c 19c0 e96c d73c a434 833e
000000b0: e679 3ebe 109c 9a3e cc65 813e 0a30 0340
000000c0: 9e4e 91bf 0e0a cf3e a3a1 f5bd ea0f c13e
000000d0: 6ec2 c83e 5b31 533f 2ec8 9a3f 3ead fbbd
000000e0: d526 a83f bfa9 513f a025 bc3e 6d0a b03f
000000f0: 2995 17be 9321 b1bf c491 ed3f c127 46bf
00000100: f0c4 3f3f 5dd2 9e3e 7567 8a3f 523f e13f
00000110: 5411 2fbe 45c0 a3bf a90d 8ebf eabe 56bf
00000120: fbf4 803e bc7d 0fc0 9e37 87bf 65ac dd3f
00000130: c1bc 4c40 b4fa ba3f 5d50 803f 3c25 0dc0
00000140: 6873 643f 899a b53e b299 4dbf af3d 54bf
00000150: 1c2b 07bf bcb5 2b40 a47e 2ec0 91ab 96bd
00000160: 4e5a 653f 42ac 413f a89d 0940 bb39 0440
00000170: 6aaf a53d 0822 75be ce83 933e 2945 0d40
00000180: a85f dabf 2071 b6bf 4da3 75bf 9ed6 903f
00000190: 71cd d93f 8f0f c63f 6b64 ae3f ae97 89bf
000001a0: 5dd3 10c0 9782 99bd 6cc6 1cbf 226d 933f
000001b0: a4e1 17c0 71ab eabf c4af 863e f362 7ebe
000001c0: b3f9 3c3f d326 1cbd fda2 863f bad1 02c0
000001d0: cb2a 89be 2d5d 883f dfc7 403e 309c 3ebf
000001e0: 88ed 783f 36b6 4fbf 9756 193f f835 dfbf
000001f0: 31bb c1bf 1880 1dc0 4b58 7cbe 2fd0 f6be
00000200: cbc1 7abf ceee d93f 3d79 1a3f d3a9 1dbf
00000210: 83cf e8bf a6e7 a33f e2c4 93bd a38c eb3f
00000220: fd5a d5bd cbda 8bbf cc29 94bf 5796 8e3e
00000230: 3172 e8be b14e 03bf 4582 e1be 7143 78be
00000240: 31b7 82bf ca1c c2bf e8e7 eabf 5d93 913f
00000250: 98fa c4bf 9bac 8bbf a8e3 3ac0 c082 ec3e
00000260: 2703 bb3f 2daa b5bf fe56 fc3f 32d5 9bbe
00000270: 1a77 8e3f fda4 61bf 5de9 f93f 376e 043f
00000280: b047 3dc0 e992 6b3e 9843 bcbe 6a4f 2540
00000290: 73c6 f3bf c31e 89bf ed54 cfbf 4f5a ee3f
000002a0: 639f 183f e2ae 2440 2397 0bbf 1eaf d7be
000002b0: c216 ecbd 4667 64bf 6639 3340 a930 12bf
000002c0: 7da3 fb3f 5062 f53c cd64 40c0 fd05 2d3f
000002d0: ef2a df3f 11d9 a43f 621d 77bf e49c 4cbe
000002e0: f6a9 a7bf 529d bbbf 53fe cc3f b7c0 0740
000002f0: 5e13 eabf 6f4e abbe c75d 9c3f 34b9 2fbd
00000300: 165c 5b40 53d9 fdbf 295f 983d 8129 713f
00000310: 050f 09c0 5a4b f9bd e048 8c3f 9ad3 be3e
00000320: 2891 ffbd 826e 223f cc9d 37bf ea91 0d40
00000330: 0368 a5bf ce26 5b3f e648 903f 6aab 43bf
00000340: 7b0c 043d 75bb 7a3e d25f 82bf 5a2c 153e
00000350: 864c fabf e62c 23be 0889 373f e001 f5be
00000360: 4538 b33e fd4b 89bf 4625 9c3e 2106 be3e
00000370: d764 c6bd 9cd7 a83e 87f0 973f d57c 5cbe
00000380: ad19 f13f 0326 723e 67e6 0fc0 12de 5340
00000390: bc0f 4140 44e3 76c0 8d6b 66bf 1866 b43f
000003a0: b8e7 2cbf 6947 3cc0 163b a33e 0ab1 b1bf
000003b0: 6022 41c0 fccf a6be 347d f7be 5439 2d40
000003c0: fba9 8b3f a053 02bf fd52 2140 addb 99bf
000003d0: 3007 d43d d6fd 3d3f 7e73 023f c8f7 843e
000003e0: d03a b5bf 7919 99be 0ca9 25c0 f7eb cb3e
000003f0: bd59 edbf a01f 743e 2db3 a6bf d49e 903f
-1.4649723 -3.1362524 -0.19071396 0.87718135 -1.6938812 -0.8086352 -0.83288616 0.47216436
-1.412151 -0.76438993 0.4336299 0.6512075 -0.51543015 1.5870508 -0.7716985 -1.5043048
1.6430287 -2.2414277 -0.07452258 0.416239 2.1638308 -0.17519042 -1.2064351 -1.4822476
-0.50657326 -0.68657273 0.56625265 2.4699855 0.92536354 -0.22993082 1.2359616 0.31064105
-0.56958073 -0.06705179 -0.14398894 0.9323057 0.944527 -2.2250526 1.4831351 -0.37358305
-0.95514476 -2.3952832 0.02629705 0.256261 -0.18601188 0.3019719 0.25272977 2.049807
-1.1352117 0.4043736 -0.119937204 0.37707454 0.39210838 0.82497185 1.209234 -0.12288903
1.313685 0.81899637 0.36747456 1.3753182 -0.14802994 -1.3838371 1.8560109 -0.7740441
0.7490988 0.3101987 1.0812823 1.7597449 -0.17096454 -1.2793051 -1.1097919 -0.8388506
0.25186905 -2.2420492 -1.0563848 1.7318236 3.1990206 1.4607759 1.0024525 -2.2053976
0.89238596 0.35469463 -0.80312645 -0.8290662 -0.52800155 2.6829672 -2.7264795 -0.073569424
0.8959092 0.7565347 2.1502476 2.0660236 0.08090098 -0.23938763 0.28811496 2.2073462
-1.7060442 -1.4253273 -0.959523 1.1315496 1.7015821 1.5473498 1.3624395 -1.0749414
-2.2629006 -0.07495611 -0.6124027 1.151768 -2.373147 -1.833357 0.26305974 -0.24842434
0.7381851 -0.038122963 1.051849 -2.0440507 -0.2679046 1.0653435 0.18826245 -0.74457073
0.97237444 -0.81137407 0.5989775 -1.7438345 -1.5135251 -2.4609432 -0.24643056 -0.48205706
-0.97951955 1.7026002 0.60341245 -0.61587256 -1.8188328 1.2805068 -0.07215287 1.8402294
-0.10417745 -1.0926145 -1.1575255 0.27849075 -0.4539962 -0.5129195 -0.440447 -0.24244477
-1.0212156 -1.5165036 -1.8352022 1.1373097 -1.5388975 -1.091205 -2.920145 0.46193504
1.4610337 -1.4192559 1.9714048 -0.30436093 1.1130097 -0.8814238 1.9524342 0.51730675
-2.9575005 0.2300526 -0.3677032 2.582972 -1.9044937 -1.0712513 -1.6197792 1.862131
0.59618205 2.573174 -0.5452749 -0.4212579 -0.11527778 -0.8922008 2.8003783 -0.571055
1.9659268 0.029954106 -3.0061524 0.6758726 1.7434977 1.2878743 -0.9652921 -0.19981724
-1.3098743 -1.4657385 1.6015114 2.1211374 -1.828716 -0.33458278 1.2216119 -0.042901233
3.4274955 -1.9831947 0.07440025 0.94203955 -2.1415417 -0.12172575 1.095974 0.37270814
-0.12478858 0.6344987 -0.71725154 2.212031 -1.2922367 0.85606086 1.1272247 -0.7643343
0.032238465 0.24485572 -1.0185492 0.145677 -1.9554603 -0.15935096 0.7169347 -0.47852993
0.35003868 -1.0726315 0.30497187 0.3711405 -0.096872024 0.32976997 1.1870278 -0.21531995
1.8835961 0.23647313 -2.2484376 3.310429 3.0165854 -3.8576212 -0.9000786 1.4093657
-0.67541075 -2.9418585 0.31881016 -1.3882153 -3.017723 -0.32580554 -0.4833771 2.706624
1.0911249 -0.5090885 2.5206902 -1.2020165 0.103529334 0.7421545 0.5095748 0.25970292
-1.4158573 -0.29902247 -2.5884428 0.39828464 -1.8543011 0.23840189 -1.302343 1.129847

lin1.weight f4 [64, 96]
00000000: 7424 1f3d e35b e0bd da1d 0d3e ffec 5c3e
00000010: e9b6 51bc 3a6e 363d b8e1 48ba 18b2 a8be
00000020: 682f 19be d9a1 4e3e edda 423e 62bb 53be
00000030: e73b b73c c652 bb3e 648b 833e e055 a73d
00000040: c09e 343c 0911 26be 3901 383e 0c97 91bc
00000050: 1e68 ab3e edfd 563e 3e2e 1d3e b507 5fbe
00000060: e610 1c3d 0230 413e b10f 073d 7506 17be
00000070: 6f3c 15bd f02f 08be 555e 203e dad8 54be
00000080: ced9 e13d 701f b8bd bb86 13be 69f8 bb3d
00000090: a449 d93c 1614 483e 8b75 c93d fd21 1b3e
000000a0: 89c4 0bbe 1eec 64bc 8e17 cb3d 9dc2 0ebe
000000b0: 75f8 25be 7367 613c fd24 bf3d d3ef ecbe
000000c0: f75e a43d 14cc ca3e 0d74 863e bfa8 2bbe
000000d0: 52e6 843e 39d1 1f3e 978d b9bd 8240 84bd
000000e0: 6766 103e 3606 10be c768 cf3d 0be2 90bd
000000f0: 9cbd e0be 0da3 c23d cd75 553e 2499 7fbd
00000100: 2c5c 88bd e82e 5abe 6a73 a1bd bc13 b4bd
00000110: ab83 6ebe 7fa8 bc3d fd49 cc3d ef15 d4bc
00000120: 7f9c f93e 54ec 5abd b7b7 4dbd 2255 c5be
00000130: e071 ac3e f810 5abe 881d 893c 2148 5fbe
00000140: c67f edbd 5f9e 723d 495e 833d 1653 ba3d
00000150: 6638 163e a86c c8bd a8f0 d0bc af7f 82bd
00000160: de27 503e 6ea6 173e 8beb e23e f173 bebe
00000170: 70be 63be 5a5e a23e a9c5 debd 7b75 19be
00000180: e937 34be 51bf 163d 0a78 8fbe fa7f 9cbd
00000190: c692 bbbc 64ae 313b 0b98 2abe 202d 313e
000001a0: fc45 323d 4844 22be 8602 52bd dbfe d33c
000001b0: ae3f c13d bcda 87bd 2167 833e af76 bf3d
000001c0: a1ac b33b 7ad7 11be 55a7 08be 3890 d73d
000001d0: 36b8 583e 9c42 12be 7166 b3bd 4be9 cd3e
000001e0: 932e f2bc b57c 3dbd c144 0d3d cee4 38be
000001f0: 5fe0 473d 4659 7ebe de57 9d3d 2561 033e
00000200: 98b5 bd3b c74b 203e 0c3c 6d3e 2067 943d
00000210: 1ece 463d c0dc 4b3e 6d77 d83c dc89 6d3d
00000220: cab1 8d3e be4c a53d ead2 903d a753 813e
00000230: e823 383d cb81 69bd 92b1 113e 8fc7 b23e
00000240: d79e c53d 4edd 61be fcf8 c83d 59b0 2e3e
00000250: d9c3 b3bc a4d1 16be 7c10 b13d e635 9d3d
00000260: 94ee c83d 60fa 90be 58a6 6cbe 509f b03d
00000270: a286 33be ac2c 99be 1252 b73d 2a86 ebbd
00000280: 6f57 303e 34c0 34be a3c5 3a3e 47f8 b43d
00000290: 297f 82be 5683 2bbe d7d9 023d 78fc ce3e
000002a0: d584 973c fdb7 ce3e 44f6 a73d 536d da3d
000002b0: 84f7 fb3d 515b 90be 1b99 76bd 2408 e4bd
000002c0: d78a 333e 3242 eebe 6f6e 82be fb45 443e
000002d0: e073 313d 227f 65be 36e7 443e 77fb c43e
000002e0: 6903 01bd 29e3 563d 5cc4 25be da76 aa3d
000002f0: ef1e 12bb 5d2d 8c3e 73a5 3ebe abf8 b43d
00000300: 4a61 363d bc7e 643e a7d9 b9be 36ea 543d
00000310: df90 223e 20c5 60bd 9931 073e 07a8 14be
00000320: 1de2 993e 8949 9a3d 7259 f93d 36ff 703e
00000330: 9121 493e 4157 923e e069 b9be 2a81 4c3e
00000340: 5d71 4a3d acbf f23c 0319 41bc 5514 3f3e
00000350: 791c ffbd 0a5d 73be 4b49 413c 105c c03d
00000360: 4fe6 473d f733 74bd e41a d63c 25a2 e2bd
00000370: 1e41 f63d 06f0 5abe afcb eebd 1083 193e
00000380: 3116 01be 67a7 ac3e 114d 29be 0041 e03d
00000390: 388a 3bbd dd99 f83c 07d0 e93d cfb7 59bd
000003a0: 4ee1 2cbe 575d 683e 7120 353e 4a50 f53e
000003b0: 37e8 f03d 84f3 62be fa41 173e e26a 023d
000003c0: c8b6 5ebe aad3 183d 5cfb e4bd 7a5f 753e
000003d0: f352 89be 8c6f 3c3e dc47 b9bd 3de6 bf3e
000003e0: f9b4 debb 188b 7c3d 4a94 0bbe 05a9 133a
000003f0: 231c 8a3c 7344 0f3e 2431 543c a91c 383d
0.038853124 -0.10955026 0.13780919 0.21574782 -0.012799957 0.044538714 -0.0007663029 -0.32948375
-0.1495949 0.20178927 0.19028826 -0.2067695 0.02236743 0.3658659 0.25692284 0.08170676
0.011024177 -0.16217436 0.17969216 -0.01777222 0.33477873 0.20995302 0.15349671 -0.21780284
0.038102053 0.1886597 0.03297395 -0.14748557 -0.036434587 -0.13299537 0.15660985 -0.20785847
0.11027871 -0.08990371 -0.14406864 0.0917824 0.026524372 0.19538912 0.09836873 0.15149684
-0.13649191 -0.01397231 0.09916602 -0.13941427 -0.1620806 0.013757574 0.09333227 -0.4627672
0.080259256 0.39608824 0.26260415 -0.1676359 0.2595697 0.15607156 -0.09060209 -0.064576164
0.14101563 -0.1406487 0.101274066 -0.07074364 -0.4389466 0.09503756 0.20845719 -0.062401906
-0.066582054 -0.21306956 -0.078833416 -0.087928265 -0.23292415 0.092118256 0.0997505 -0.025889365
0.4875221 -0.053448036 -0.050224032 -0.38541514 0.3368063 -0.21295536 0.016737714 -0.21804859
-0.115966365 0.059233066 0.06414468 0.09097879 0.14669952 -0.097863495 -0.025505379 -0.0637201
0.20327708 0.14809582 0.4432033 -0.3719783 -0.22240615 0.3171261 -0.108775444 -0.14986221
-0.17599453 0.036803547 -0.2802127 -0.07641597 -0.022897135 0.0027112002 -0.16659562 0.1730237
0.043523774 -0.1584636 -0.051271938 0.02587836 0.09435974 -0.06633517 0.2566462 0.09348809
0.0054832255 -0.14242354 -0.13345082 0.105255544 0.21164021 -0.14283222 -0.087597735 0.4021705
-0.029563224 -0.046261508 0.034489397 -0.18056032 0.04879796 -0.24838743 0.07682775 0.12830026
0.00578947 0.15653907 0.23167437 0.07246232 0.048536412 0.19908428 0.026424134 0.0579928
0.27674705 0.08071278 0.07071479 0.25259134 0.044956118 -0.057008546 0.14227894 0.34917876
0.09649437 -0.22057077 0.09813115 0.17059459 -0.021943973 -0.14728409 0.08645722 0.07676296
0.0981113 -0.2831602 -0.2311033 0.086241364 -0.17531827 -0.29916894 0.089512005 -0.11500199
0.17220853 -0.17651445 0.18239455 0.08836418 -0.2548764 -0.1674932 0.03194603 0.40426993
0.018495956 0.40374747 0.08201268 0.10665383 0.12303069 -0.2819467 -0.060204607 -0.11134365
0.17533432 -0.46534878 -0.2547488 0.1916732 0.043323398 -0.22411779 0.19228825 0.38473102
-0.031497393 0.05246273 -0.16188186 0.083234504 -0.002229627 0.2737836 -0.18617801 0.08836492
0.044526376 0.2231397 -0.36298868 0.051981173 0.15875576 -0.054875493 0.13202514 -0.14517222
0.30055323 0.07533557 0.121752635 0.23534855 0.19641711 0.28582194 -0.3621359 0.19971147
0.049424518 0.029632412 -0.011785748 0.186601 -0.124566026 -0.2376596 0.01179726 0.093925595
0.048803624 -0.05961987 0.02613587 -0.11066083 0.12024139 -0.21380624 -0.11659943 0.14991403
-0.12606122 0.33721468 -0.16533305 0.10949898 -0.045786113 0.030346805 0.11416631 -0.05315381
-0.16882822 0.22691856 0.17688157 0.47912818 0.117630415 -0.22163206 0.14771262 0.031840213
-0.21749413 0.037311234 -0.111807555 0.23962203 -0.26821098 0.18401927 -0.09046909 0.37480345
-0.006796476 0.061656088 -0.13630787 0.0005632791 0.01685912 0.13990955 0.012951169 0.044949207

lin1.bias f4 [64]
00000000: d7ef 51be bcd1 923d 4c0c 2d3e 3552 9139
00000010: 2c76 50be 797e 32be 45e5 713e 29d3 1d3e
00000020: 94f0 2fbe c6bf bfbd 3285 dabd 92d4 3ebe
00000030: 3062 42be 31bc b63d c257 5dbc f1e5 04be
00000040: 57c0 d53d dbae dbbb 3a4a 3fbe ad90 b1bd
00000050: a808 753d 3328 7f3e 3d99 cf3d f6de 943e
00000060: 680a 23be 37b8 2cbe e6ea 83bd 7a98 ff3d
00000070: 5f06 f03d 467e 013e cd9a 1f3d e6d5 e1bd
00000080: aba7 7bbe 84ac 3e3e 885f 37be 1081 dfbd
00000090: be34 a8be 124c e53d 2dde c8bd 9f82 9f3b
000000a0: cc7c cebd f31e 783e e270 7abe 2ae9 5abc
000000b0: 69c5 5abd 5a88 64bd 1a38 483d 8e45 9f3d
000000c0: 5060 47be 49bf 553e b4db afbc 3a7a b93d
000000d0: 7dc6 01bd a6e5 35be cfc4 ab3c ba78 e8bd
000000e0: 6518 453e 62ba 0cbd 94ac f23b 9b56 66bc
000000f0: 8e2d 82bd c8a2 1e3e e472 febc 98ee 2ebe
-0.20501648 0.0716891 0.16899222 0.00027717804 -0.20357579 -0.17431058 0.23622616 0.15412582
-0.17181617 -0.0936275 -0.10669936 -0.18635777 -0.18982768 0.089226134 -0.013509693 -0.1297834
0.104370765 -0.006704194 -0.18680659 -0.08670173 0.05982271 0.24917679 0.1013665 0.29076356
-0.15921938 -0.16867147 -0.06441288 0.124802545 0.11719965 0.12645826 0.03896599 -0.11027126
-0.24575679 0.18620497 -0.17907536 -0.109132886 -0.3285274 0.1119615 -0.09808002 0.004867866
-0.10082397 0.24230556 -0.24457124 -0.013361255 -0.05341092 -0.055794097 0.048881628 0.077769384
-0.19470334 0.20873751 -0.021467067 0.09056516 -0.031683434 -0.17763385 0.02096787 -0.11351152
0.19247587 -0.034357436 0.007405827 -0.014058734 -0.06356345 0.15491784 -0.031060643 -0.17083204

lin2.weight f4 [41, 64]
00000000: e7d9 b73f b386 4fbf 9a27 063e 28f8 9d3f
00000010: 9e83 ce3e ca49 423f 36db 803e b4ea b23e
00000020: 148b 9cbe 06ec 15bf 59b8 0d40 686f 4fbf
00000030: a89b 3abf d709 2cbf 1bbe 843e 91cf a8bf
00000040: ea37 3fbf 3ec2 9e3f a215 583f 18b1 213f
00000050: 02c3 993f 5de9 1a3f 7049 85bf 61c1 6abf
00000060: cbdd 7a3f e3a1 15bf 1b22 873e 8d50 04be
00000070: 3fd6 7bbf 5dba 813e 14ae 1d3f c75a 633f
00000080: f64f 763e ba96 a7be 04b8 743f bba7 b23f
00000090: 9635 f0be 5968 f93e 82bf 933f d540 933f
000000a0: 2ed5 133f 04eb 11bf e00f 88bf b179 10bf
000000b0: a421 283f 2b97 cebe ff4e dabe 2cd0 8f3e
000000c0: 11ff 493e 4cdb 16c0 2cde b43f a8d5 5bbe
000000d0: 23cf 1a40 02f8 84bf dbef 20bf 114d 493f
000000e0: bdd3 23bf a84d bfbe cba6 21bd aa82 883e
000000f0: c591 323f f3f4 383f 2a74 0f40 eb9c a63e
00000100: 94e6 863f 1dba 413f fdd4 023e 99ae 6e3f
00000110: b3e5 6d3e c8d4 98be 2a25 c73e 5383 89bf
00000120: d154 1cbf 85b7 953f 2cbf 05bf ec93 ebbe
00000130: 1dcd 91bf 1df4 5a3f 69dd 0cbe c095 89bf
00000140: b083 783f 3cae 823f ca93 5e3f efe5 88bf
00000150: cd7d a13f 0c25 b53f 9269 743f 371b 2b3f
00000160: 48c1 133f 4860 25bf 1a4f 51bf e7c9 fdbe
00000170: 39f0 a83e 157e f63f 027b fa3e de46 e13f
00000180: f691 5dbd e079 8f3f a261 533e e6e9 07bf
00000190: 5fd0 9c3f 3a2d 02be 0124 82bf f3b5 bb3f
000001a0: e79d 8b3f 2618 073e a805 30c0 d9a6 5fbf
000001b0: 3fbb 01bf 69aa 8fbf 745c a03e 9008 783f
000001c0: fae3 05bf 834c 6cbf ad11 3b3f 06fd a5bf
000001d0: 13f9 eabe 54f9 68bf 5078 0e40 c67a 03bf
000001e0: 5d2b c63f 34e3 f7be 3954 90bf 5e29 5d40
000001f0: 9169 1dbc 7d89 613f 415e 0540 b595 12bf
00000200: dab7 d0be e72f 1cbf 38a1 c53e 86df fdbd
00000210: fe22 02bf 76a1 d63e 1f90 11be d5e7 ca3e
00000220: e4ed 9bbf 277c 273f 0d6d 41bf d342 083f
00000230: f97f a43e 8bda cf3f 9608 573d 0ab6 0cbe
00000240: 42ac bf3f f60d 4f3f 9fd2 1f3f 2097 00bf
00000250: 7f2c 87bf 6fb9 093f bcf1 7cbf 57db bdbf
00000260: f226 543f 9818 823f 7776 47bf f85a fd3e
00000270: 97b7 f6be 1438 2e3f a57e 113f 93ed c23d
00000280: 0941 703f 8839 d33e c9b3 cb3f c17e 613f
00000290: 110c 0b3f 8a8f 82bf 0925 7d3f f499 12bf
000002a0: 609f 433f 570d 603d dac6 3abf faaf 173f
000002b0: a818 c6be 8c7f 4b3f c102 bfbe 65b0 97bf
000002c0: 5325 07be 56df 9ebf 4def ba3e 5fc5 c03d
000002d0: f15a fe3e 4f80 88be 1663 86be 39d6 1e3f
000002e0: d5a3 71bf 2565 afbe 948d abbe 5a18 85bf
000002f0: ea79 f0bf d939 8fbf e4f9 833f 6db7 dc3e
00000300: 54f8 a93e ddf8 df3d 0028 f93d 6a9b 043f
00000310: 4a4d ecbd 4463 26be f0e2 83bf 352a bcbe
00000320: f879 27bf 2fc4 14bf 234b 883f f3e7 b93e
00000330: dfaa cc3e a335 0bbe 1395 6cbf 28bf dabd
00000340: ca7d 133f 95e9 0cbf 6c69 c0bf 51b5 e6be
00000350: 90a2 a53e 1df0 433d e5e7 f3bd a997 4abf
00000360: b088 8a3f 1e60 f93e 6921 fabd a85d 10bf
00000370: b2ba d4bf 9405 00bf 525d 90bf f948 0a3f
00000380: 50cd c93e 45d5 7ebf 750e 9c3e 6e76 dc3c
00000390: cc8f a83e 7d69 9a3e e27f 4bbf 214a 763f
000003a0: 4c21 0e3f dd38 163f 254c 27bf 375f 0f3f
000003b0: 75b6 1cbf bab6 9d3f 63e5 1cbf 1797 123f
000003c0: 4e2b b9be 6179 24bf 1d2c b93f 43ae 13bf
000003d0: bc15 1a3f f104 fabe f4a8 213f 8014 1abf
000003e0: 1b73 2abf dc27 b23e 1cfb 33bf cf16 483f
000003f0: 795d 8bbe 63b9 eabd 0cad 893e ffd2 b4bd
1.4363374 -0.8106491 0.13101044 1.2341356 0.4033479 0.75893843 0.25167245 0.3494469
-0.30574858 -0.5856327 2.2143767 -0.8102937 -0.7289376 -0.67202514 0.2592629 -1.3188344
-0.74694693 1.2403028 0.8440801 0.6316085 1.2012637 0.60512334 -1.0413036 -0.9170132
0.9799468 -0.58450145 0.26393208 -0.12921353 -0.9837379 0.25337496 0.6159375 0.8881039
0.2405394 -0.32732183 0.95593286 1.3957437 -0.46915883 0.48712423 1.1542819 1.150416
0.5774716 -0.5699923 -1.0629845 -0.56435686 0.6567633 -0.40349707 -0.42638394 0.2808851
0.19726206 -2.3571348 1.4130301 -0.21468222 2.4188926 -1.0388186 -0.6286599 0.7863322
-0.6399496 -0.37363935 -0.039465707 0.2666219 0.69753677 0.7224876 2.241465 0.32541594
1.0539117 0.7567461 0.12776561 0.93235165 0.23232155 -0.2984984 0.3889554 -1.0743202
-0.6106692 1.1696631 -0.5224483 -0.46011293 -1.1390721 0.8552874 -0.13756336 -1.0748825
0.9707594 1.0209422 0.8694426 -1.069517 1.2616516 1.4151931 0.9547359 0.668384
0.577168 -0.6460004 -0.81761324 -0.49568102 0.32995775 1.9257227 0.48921973 1.7599752
-0.054094277 1.1209068 0.20642713 -0.53091276 1.225109 -0.12712565 -1.0167238 1.4664901
1.0907563 0.13192806 -2.7503452 -0.87363964 -0.5067634 -1.122388 0.31320536 0.96888065
-0.5230099 -0.9230425 0.73073846 -1.2967842 -0.45893154 -0.91005445 2.2260933 -0.5135921
1.5481983 -0.4841553 -1.1275703 3.4556499 -0.0096076885 0.88100415 2.0838778 -0.57259685
-0.40765268 -0.61010593 0.38599563 -0.12396149 -0.50834644 0.4192006 -0.14215134 0.3963
-1.2181973 0.65423816 -0.75557023 0.53226966 0.32128885 1.6238569 0.052498423 -0.13741317
1.4974444 0.8088068 0.6243076 -0.502306 -1.0560454 0.53798574 -0.9880636 -1.4832562
0.82871926 1.0163755 -0.7791514 0.49483466 -0.48186943 0.6805432 0.5683387 0.0951797
0.93849236 0.4125483 1.5914241 0.88084036 0.54315287 -1.0200055 0.98884636 -0.57266164
0.7641506 0.054700222 -0.72959673 0.59252894 -0.38690686 0.79491496 -0.3730679 -1.1850706
-0.13197832 -1.2411907 0.36510697 0.094126455 0.49678758 -0.26660392 -0.26247472 0.6204563
-0.9439061 -0.34256855 -0.33506453 -1.0398057 -1.8787205 -1.1189529 1.0310636 0.43108693
0.33197272 0.10936139 0.121658325 0.51799643 -0.11538179 -0.16248804 -1.0303631 -0.3675095
-0.65420485 -0.5811185 1.064793 0.36309776 0.39974114 -0.1359468 -0.9241497 -0.106809914
0.57613814 -0.5504392 -1.5032172 -0.45060208 0.32350588 0.04783641 -0.11909465 -0.79137665
1.0822964 0.48706144 -0.12213404 -0.5639291 -1.6619475 -0.5000851 -1.1278479 0.540176
0.39414454 -0.99544173 0.3047978 0.02691194 0.32922208 0.30158606 -0.7949201 0.9620686
0.55519557 0.58680516 -0.6535056 0.5600466 -0.6121591 1.2321389 -0.61287516 0.57261795
-0.3616585 -0.6424771 1.4466587 -0.5768778 0.60189414 -0.48831895 0.63148427 -0.6018753
-0.66581887 0.34796035 -0.7030504 0.78159803 -0.2721975 -0.11461141 0.26889837 -0.08829307

lin2.bias f4 [41]
00000000: d09e 49be 1187 923e 837d 18bf 53cb 10be
00000010: f834 4fbf f500 8ec0 4ded 5ebf 737d 39bf
00000020: b821 2dc0 62e3 35c0 7e38 78bf 72ae 24bf
00000030: 5fa9 64c0 8739 d2be 631d ac3e 47ef 81be
00000040: ca7a 16be 0699 9dbe f95d e43e b74a f3bd
00000050: 21d7 3dbe 00e7 333d ea35 1b3f 7549 e0bf
00000060: b254 b4be 01cd ef3e 06f4 08bd 2251 19bd
00000070: eb63 c13e dd68 acbe 7d5a 14c0 b4c5 8b3e
00000080: 1894 b03e ab92 a23e 569e 3dbe c3e6 cabd
00000090: 96eb 75bd 2671 98bf 83ae cbbe 6b64 3dbf
000000a0: bd23 4dbf
-0.19689488 0.28618672 -0.59566516 -0.14140062 -0.809402 -4.437617 -0.8708084 -0.72457045
-2.705183 -2.8420033 -0.969612 -0.6432868 -3.5728376 -0.41059515 0.3361617 -0.25377867
-0.14695278 -0.3078081 0.44602945 -0.11879485 -0.18539096 0.04392147 0.6062914 -1.7522417
-0.35220867 0.46836093 -0.033435844 -0.03743089 0.37771544 -0.33673754 -2.318023 0.27299273
0.34487987 0.31752524 -0.18517432 -0.099072956 -0.060039125 -1.190953 -0.3978158 -0.7398135
-0.8013266
