Models_Q1/Model-b3-e5-h6.pth (torch, 4619 bytes, 5 tensors)

emb.weight f4 [41, 5]
-0.25779504 -0.83756816 -0.19273084 -0.40892544 0.82641995 -0.3102254 1.3991514 -0.4902799
-2.441798 1.4873478 0.8568459 -0.8395509 -0.500188 -0.17951372 1.0413063 -0.09378541
-0.041123807 1.1409453 1.5920329 0.9858755 0.06985844 1.1300598 -0.10967257 -2.756987
0.29389396 -0.28831446 0.33391154 0.35354707 0.3305124 -0.4908977 0.14936748 -1.4286348
0.17004739 0.07407623 0.36004582 2.8009536 0.68214405 -1.8721873 0.3641156 0.8075373
-0.8540164 -0.568543 0.008273157 0.5925243 0.6831572 -0.11290761 -1.0468262 -0.25305694
2.0489142 -1.0191389 -0.045443505 -4.914048 -1.5730628 -1.9210407 -2.2416034 -0.47843307
-1.0177934 0.22721764 -0.10547015 0.19943276 0.5413184 -2.1762185 0.08518141 0.0756019
0.8526633 0.2801407 -1.5642785 0.8624872 -0.608432 0.26989684 0.15027899 -0.11780599
2.5728605 0.8830496 0.573983 0.98432446 -0.44946122 1.4506987 -1.5956721 -1.8127466
0.24297202 -0.28342977 0.47154886 -1.3891606 -0.7858829 0.6188927 -0.42827293 -1.1022657
1.4629712 -0.49419332 0.79199666 -2.1864712 0.3577518 -0.16336909 -0.8256314 0.36651683
-0.24932273 0.6634644 -0.38366252 1.1667149 0.67737734 -1.3184931 -0.89221793 0.23758698
-0.8602873 0.6423078 0.02825266 -0.6193482 -1.0230337 0.024061384 3.4748008 -1.1210295
0.9282075 -1.4138176 0.77128327 -1.1515068 1.3467636 -2.1512215 0.98573714 -3.4079611
-0.7940743 -0.63428164 0.29671815 -0.33863696 1.121091 -0.3155886 -0.78550804 1.5478878
-0.58060426 1.7369616 -0.8491776 -0.9390025 -0.45038342 -0.28752849 -0.1026118 0.8191594
0.7200998 0.06653357 -0.181394 0.22709854 1.5967396 1.386319 0.47465864 0.29932758
0.69524604 1.8323747 -1.094916 -1.6271958 0.9128731 -1.1652677 -0.85146594 5.337428
3.8408377 1.2091094 -1.0655473 0.60380614 -0.7058398 -0.28199622 -0.7332281 -0.32873484
0.06088541 -0.5933054 0.0026983335 -0.5605885 0.9452694 1.6661441 -0.68449783 -1.8204291
1.8200861 -0.25291786 -0.08968817 -0.24975926 2.5997899 0.86590314 0.6726965 0.72620726
-1.2828976 -1.3557861 0.12807189 -1.2661077 0.94876945 -0.48705497 0.9565853 -0.56294113
-0.8576725 -1.0620462 -2.3036277 -0.6996281 -0.101919286 0.75775814 0.6778119 -0.61872226
-0.20499456 -0.38328075 0.5273153 0.383254 -1.5595814 -2.2166672 0.14269517 -0.5221405
0.27298766 0.449735 -1.2479424 -2.0559642 1.7075158
00000000: b6fd 83be de6a 56bf 3c5b 45be ad5e d1be
00000010: 4290 533f ddd5 9ebe 6517 b33f f805 fbbe
00000020: 6b46 1cc0 6a61 be3f 415a 5b3f cfec 56bf
00000030: 520c 00bf 72d2 37be 8649 853f 9112 c0bd
00000040: 7071 28bd 7f0a 923f bcc7 cb3f 5662 7c3f
00000050: f111 8f3d cda5 903f 039c e0bd 7a72 30c0
00000060: 4579 963e f49d 93be 74f6 aa3e 1f04 b53e
00000070: ec38 a93e f156 fbbe caf3 183e 81dd b6bf
00000080: e720 2e3e 47b5 973d ed57 b83e d342 3340
00000090: fea0 2e3f d5a3 efbf 5c6d ba3e c4ba 4e3f
000000a0: d2a0 5abf 098c 11bf 238c 073c acaf 173f
000000b0: 64e3 2e3f 1b3c e7bd 67fe 85bf ae90 81be
000000c0: 6921 0340 2573 82bf f822 3abd e23f 9dc0
000000d0: 1f5a c9bf a9e4 f5bf 6e76 0fc0 2ef5 f4be
000000e0: 0e47 82bf beab 683e bc00 d8bd 1a38 4c3e
000000f0: d893 0a3f 2a47 0bc0 9773 ae3d 2bd5 9a3d
00000100: 2448 5a3f 9a6e 8f3e 473a c8bf f6cb 5c3f
00000110: 33c2 1bbf eb2f 8a3e bce2 193e 4444 f1bd
00000120: bfa9 2440 8a0f 623f 8df0 123f b0fc 7b3f
00000130: c81f e6be 7fb0 b93f fc3e ccbf 1508 e8bf
00000140: a8cd 783e b51d 91be da6e f13e 04d0 b1bf
00000150: 9f2f 49bf c16f 1e3f 9746 dbbe 0b17 8dbf
00000160: a442 bb3f e806 fdbe 4bc0 4a3f 25ef 0bc0
00000170: 3e2b b73e 3a4a 27be 945c 53bf 18a8 bb3e
00000180: 754e 7fbe ced8 293f 6a6f c4be ea56 953f
00000190: 9a68 2d3f 62c4 a8bf 6568 64bf 004a 733e
000001a0: ca3b 5cbf 496e 243f 1f72 e73c 9b8d 1ebf
000001b0: c5f2 82bf 611c c53c 2363 5e40 e57d 8fbf
000001c0: 029f 6d3f faf7 b4bf d272 453f 9364 93bf
000001d0: c062 ac3f 9dad 09c0 4559 7c3f 091c 5ac0
000001e0: 7448 4bbf 4860 22bf 71eb 973e d361 adbe
000001f0: e97f 8f3f d494 a1be 0e17 49bf 3021 c63f
00000200: 7ba2 14bf c254 de3f b463 59bf 7862 70bf
00000210: a898 e6be ef36 93be 2326 d2bd 6eb4 513f
00000220: 7658 383f c142 883d 59bf 39be 858c 683e
00000230: f761 cc3f e772 b13f 7506 f33e 7741 993e
00000240: a5fb 313f 418b ea3f 3526 8cbf f447 d0bf
00000250: 0db2 693f 7e27 95bf acf9 59bf 36cc aa40
00000260: 49d0 7540 19c4 9a3f db63 88bf 0a93 1a3f
00000270: ebb1 34bf cf61 90be d6b4 3bbf ef4f a8be
00000280: fb62 793d dde2 17bf 86d6 303b ba82 0fbf
00000290: 2dfd 713f 3644 d53f 403b 2fbf d203 e9bf
000002a0: 95f8 e83f 737e 81be 6eae b7bd e4c0 7fbe
000002b0: f562 2640 d4ab 5d3f d635 2c3f b8e8 393f
000002c0: fd35 a4bf 668a adbf 4725 033e d10f a2bf
000002d0: 8ee2 723f 455f f9be c6e2 743f e91c 10bf
000002e0: 6d90 5bbf 21f1 87bf a36e 13c0 d41a 33bf
000002f0: 0fbb d0bd 70fc 413f 1585 2d3f 9564 1ebf
00000300: 18ea 51be 603d c4be 23fe 063f de39 c43e
00000310: 5da0 c7bf e0dd 0dc0 af1e 123e 00ab 05bf
00000320: 0ac5 8b3e aa43 e63e 94bc 9fbf eb94 03c0
00000330: e18f da3f

lin1.weight f4 [6, 15]
0.022722198 -0.06031999 0.15223671 0.17589265 -0.38396108 0.27894992 0.3521015 0.7379162
-0.44512346 -0.99627066 0.8319956 0.60019696 0.0045776097 -0.49128574 0.5459237 0.038173947
-0.08749057 0.11675305 -0.079351276 -0.053799562 -0.008814896 0.16803192 -0.07953035 0.17889272
-0.075157516 0.94865406 -0.86507154 -0.3561651 -0.9056576 -0.12995692 0.021009117 0.10084703
0.102120355 0.11341411 -0.29543626 0.5444561 -0.17085522 0.03479963 0.3965385 0.0015639472
0.22316696 -1.0291197 0.5337517 -0.014018955 -0.2962431 0.25271592 -0.08890316 0.13055004
0.13105667 0.014921913 0.26378974 0.02616659 0.25913695 0.0617573 -0.40861782 0.7933345
0.24048331 0.78747886 0.8943196 0.1627968 -0.1441329 0.017926326 -0.21035315 -0.06156619
0.115541 -0.13996263 -0.052694615 -0.2858384 -0.04747922 0.26978815 -0.09741735 0.48497564
-0.61957544 -0.27945554 -1.8004678 -0.043005373 0.025429588 0.0045434027 0.1263613 -0.030573718
-0.1192045 0.07279781 -0.2939466 -0.01193912 0.1498947 -0.48069033 -0.68938166 0.45872894
0.7563769 -0.010224073
00000000: e723 ba3c 1812 77bd f1e3 1b3e 341d 343e
00000010: 8c96 c4be 86d2 8e3e a646 b43e 13e8 3c3f
00000020: 39e7 e3be 980b 7fbf aafd 543f 82a6 193f
00000030: c6ff 953b ce89 fbbe a8c1 0b3f 495c 1c3d
00000040: 422e b3bd 391c ef3d ec82 a2bd ee5c 5cbd
00000050: 5b6c 10bc 8f10 2c3e cfe0 a2bd a72f 373e
00000060: 2fec 99bd feda 723f 5475 5dbf 465b b6be
00000070: 2dd9 67bf 6d13 05be 501b ac3c e388 ce3d
00000080: 7a24 d13d a845 e83d 6c43 97be 7a61 0b3f
00000090: acf4 2ebe 0f8a 0e3d 1807 cb3e 5cfd cc3a
000000a0: e185 643e 32ba 83bf f4a3 083f c2af 65bc
000000b0: 2dad 97be fb63 813e dc12 b6bd e9ae 053e
000000c0: b833 063e 0a7b 743c 730f 873e 515b d63c
000000d0: 99ad 843e 39f5 7c3d 5b36 d1be f817 4b3f
000000e0: 4241 763e 3798 493f 21f2 643f 34b4 263e
000000f0: 9397 13be 3bda 923c d166 57be d42c 7cbd
00000100: c3a0 ec3d 5d52 0fbe 4fd6 57bd 6959 92be
00000110: 9279 42bd ac21 8a3e bf82 c7bd ba4e f83e
00000120: 7f9c 1ebf cc14 8fbe bb75 e6bf 6726 30bd
00000130: b651 d03c d3e0 943b db64 013e bc75 fabc
00000140: 7d21 f4bd 0517 953d 2b80 96be 4c9c 43bc
00000150: ff7d 193e 0b1d f6be 517b 30bf 85de ea3e
00000160: eba1 413f df82 27bc

lin1.bias f4 [6]
-0.6885452 0.53877103 0.2668809 0.55222225 -0.31484464 -1.1105105
00000000: 8044 30bf e6ec 093f 9da4 883e 705e 0d3f
00000010: 5133 a1be 3525 8ebf

lin2.weight f4 [41, 6]
-2.2030532 0.28524038 0.92483014 2.7981477 -2.756212 -0.82793576 -2.45364 1.8034406
1.9014288 3.6917248 -3.0026155 0.94447494 -0.906471 0.86411524 0.8977293 0.67322034
-1.9354374 0.6116704 -1.717923 1.4414979 1.341844 4.6411004 -3.029008 -1.0566022
-0.84848344 0.048686326 -0.62690806 -0.7504595 0.831237 2.9067268 1.5174322 -1.9509802
0.2064191 -3.3783326 -2.2417364 -4.034215 -2.2305837 0.6300302 1.6631099 3.1588144
-2.3017724 -0.55812323 1.3704664 0.35762176 -0.7661218 2.3571436 2.488634 -0.17705166
0.2754796 -0.95639485 -0.72298026 0.30541256 1.53937 0.3153517 4.0002365 -0.0783569
-0.073889054 4.2707644 4.441559 7.8700967 0.69057876 -0.17675978 -0.51861197 -0.85830617
0.37188822 0.30243963 -1.0714129 -0.033809397 1.1949462 3.2710311 -0.23365177 -0.5208341
-0.37261862 2.0031579 1.2840039 2.0940948 -0.047543805 -0.043809485 -1.1617507 1.8596236
2.5026872 1.8165739 -0.6175906 1.8737634 0.581102 1.5343534 -0.5990692 -1.6917299
2.1955152 -1.2148088 -0.25854287 -1.3059795 0.22802374 -0.8734097 -2.1372468 -0.30095243
1.1962677 -0.8012562 0.5318376 0.9335122 -0.74421465 0.7876622 0.6041388 0.5652516
-0.047236774 2.6771436 -0.058560796 1.8685682 -0.67990863 1.1951914 -0.13665202 -0.7861302
1.5350308 -2.0273075 2.4312596 -1.4618571 -0.6471797 0.9391951 -0.3954788 -0.81669295
3.5767198 -0.37128276 4.591843 1.1946621 -1.0309805 3.8765879 -0.70234215 8.898381
-1.3451813 0.4250047 2.2525034 -0.6499924 -0.15814596 2.2983344 -0.3211812 -0.15460874
1.4498409 -0.5894002 1.5467852 -0.14406821 -3.1169047 -2.1005228 2.0451136 -0.018176014
2.1188147 -2.3595397 0.87188566 -0.68222225 -1.6199445 0.3180836 1.2883228 -1.2888778
-0.5983084 1.0406414 2.3419676 0.45737 -1.1454728 -1.6562867 -0.3167263 -0.61372197
-2.9119205 -1.1912981 -0.5837101 -3.509832 -0.626942 -0.56197965 -2.54854 -1.6947851
-0.33150584 1.0848113 -2.1303642 -0.57357144 1.9356496 -1.7059536 -0.30158392 -0.59769005
1.077032 -1.6615448 -1.9505161 -0.92438453 0.8353864 0.25404996 -0.27062565 1.1871216
1.0794685 2.7273672 -1.2137749 -1.3128141 -0.87244713 0.17834549 0.34214562 -0.19573183
-0.04576857 -1.1713977 0.4950757 0.0879827 -0.8030036 -0.14741288 1.3496327 -0.8107162
1.6016444 -0.17618532 -0.85241896 0.77417845 0.55995697 -0.3570277 -1.1134489 -1.5922983
1.1597371 -3.7090197 -0.46751618 -0.88432705 1.3461882 1.0401943 -1.7797312 0.745591
0.5683806 1.41409 -1.2870424 -0.21393672 -0.35340685 -1.1390307 -1.1962072 1.4955103
2.8400505 1.0402623 0.3625835 3.6248174 -0.74162024 1.6119808 1.5119222 1.8381175
0.3582618 2.1114697 3.160794 -3.5925562 0.5426686 1.9669914 1.6129466 0.8327313
-2.2252688 0.5758287 0.7645539 1.2118822 -1.0585623 -1.2718667
00000000: d3fe 0cc0 070b 923e abc1 6c3f da14 3340
00000010: c765 30c0 99f3 53bf 7008 1dc0 24d7 e63f
00000020: 0562 f33f 3845 6c40 da2a 40c0 1cc9 713f
00000030: 7c0e 68bf a836 5d3f 96d1 653f 2b58 2c3f
00000040: 6abc f7bf 6e96 1c3f e7e4 dbbf 0183 b83f
00000050: 8bc1 ab3f e583 9440 44db 41c0 be3e 87bf
00000060: 3636 59bf 506b 473d 0c7d 20bf 1d1e 40bf
00000070: f3cb 543f d007 3a40 383b c23f b8b9 f9bf
00000080: 875f 533e 9a36 58c0 9c78 0fc0 4a18 81c0
00000090: e2c1 0ec0 a949 213f c9e0 d43f 042a 4a40
000000a0: 3d50 13c0 2ae1 0ebf 716b af3f 331a b73e
000000b0: 8f20 44bf 71db 1640 c845 1f40 084d 35be
000000c0: aa0b 8d3e 4bd6 74bf 3c15 39bf 095f 9c3e
000000d0: 130a c53f c775 a13e f001 8040 9579 a0bd
000000e0: 2553 97bd 1aaa 8840 4021 8e40 d5d7 fb40
000000f0: c5c9 303f 8400 35be c1c3 04bf f4b9 5bbf
00000100: 2268 be3e 5ed9 9a3e 0f24 89bf b97b 0abd
00000110: fff3 983f 9358 5140 6942 6fbe 6255 05bf
00000120: dec7 bebe bd33 0040 3d5a a43f a605 0640
00000130: 4bbd 42bd 9371 33bd 3fb4 94bf 2508 ee3f
00000140: 072c 2040 7e85 e83f 6b1a 1ebf 7bd7 ef3f
00000150: 1ac3 143f b165 c43f 995c 19bf 9b8a d8bf
00000160: 5283 0c40 db7e 9bbf bb5f 84be 562a a7bf
00000170: 0e7f 693e c797 5fbf a7c8 08c0 7016 9abe
00000180: 4d1f 993f 201f 4dbf 8226 083f a8fa 6e3f
00000190: da84 3ebf 3ba4 493f d7a8 1a3f 54b4 103f
000001a0: 597b 41bd 5256 2b40 72dd 6fbd 3e2d ef3f
000001b0: 7e0e 2ebf 08fc 983f 82ee 0bbe d43f 49bf
000001c0: e47b c43f 68bf 01c0 c299 1b40 221e bbbf
000001d0: 92ad 25bf 176f 703f 337c cabe ca12 51bf
000001e0: fae8 6440 c618 bebe 61f0 9240 b0ea 983f
000001f0: 2bf7 83bf 041a 7840 b2cc 33bf c55f 0e41
00000200: e72e acbf 379a d93e 0429 1040 e765 26bf
00000210: 04f1 21be e917 1340 dd71 a4be c151 1ebe
00000220: 6394 b93f eee2 16bf 0ffd c53f 9e86 13be
00000230: 5e7b 47c0 f76e 06c0 24e3 0240 dde5 94bc
00000240: a99a 0740 b302 17c0 e633 5f3f 1ea6 2ebf
00000250: 575a cfbf dbdb a23e c3e7 a43f f3f9 a4bf
00000260: bd2a 19bf bd33 853f cce2 1540 672c ea3e
00000270: da9e 92bf 3401 d4bf f329 a2be e21c 1dbf
00000280: e85c 3ac0 757c 98bf 066e 15bf 16a1 60c0
00000290: 457f 20bf e6dd 0fbf 481b 23c0 b8ee d8bf
000002a0: 22bb a9be 19db 8a3f e357 08c0 94d5 12bf
000002b0: 5ec3 f73f b05c dabf 3569 9abe 3702 19bf
000002c0: 2fdc 893f 80ad d4bf 83aa f9bf 77a4 6cbf
000002d0: e2db 553f d612 823e 728f 8abe 9af3 973f
000002e0: 062c 8a3f 2f8d 2e40 fa5c 9bbf 4b0a a8bf
000002f0: b258 5fbf 33a0 363e b62d af3e ed6d 48be
00000300: d377 3bbd 5cf0 95bf 907a fd3e 4630 b43d
00000310: a591 4dbf 67f3 16be c4c0 ac3f 198b 4fbf
00000320: af02 cd3f ed69 34be 2138 5abf 8f30 463f
00000330: 5759 0f3f 56cc b6be 7e85 8ebf 6ed0 cbbf
00000340: 4472 943f 9460 6dc0 485e efbe 4263 62bf
00000350: e54f ac3f 1625 853f 3bce e3bf 0ddf 3e3f
00000360: 6481 113f e700 b53f cebd a4bf 3a12 5bbe
00000370: bef1 b4be c2cb 91bf 511d 99bf e26c bf3f
00000380: 63c3 3540 5127 853f 8ba4 b93e 02fd 6740
00000390: d3da 3dbf 6355 ce3f ab86 c13f 6f47 eb3f
000003a0: 176e b73e 5222 0740 734a 4a40 71ec 65c0
000003b0: 54ec 0a3f 60c6 fb3f 0975 ce3f e12d 553f
000003c0: ce6a 0ec0 8269 133f ceb9 433f f51e 9b3f
000003d0: f87e 87bf 87cc a2bf

lin2.bias f4 [41]
-2.6107209 -0.6649238 -1.4007517 -5.448833 -5.4583664 -6.1236744 -3.2374194 -4.381541
-7.7587357 -6.901824 -3.8712485 -3.8535457 -5.9283447 -3.8887694 1.4368987 -0.0045310208
0.97388846 0.62455064 1.8843608 -0.7467466 -2.5305233 -5.3836594 1.3358322 -4.8577557
-1.6059368 1.7077967 0.4157156 1.3528069 1.5531332 -0.07997432 -2.4522247 2.2043808
2.360398 1.9303895 0.3045679 -0.3166825 -0.75255525 -2.4856725 -0.26542896 -4.7748656
-4.9862614
00000000: 0d16 27c0 7238 2abf d54b b3bf d75c aec0
00000010: f0aa aec0 24f5 c3c0 e131 4fc0 9535 8cc0
00000020: 9047 f8c0 bedb dcc0 89c2 77c0 7ea0 76c0
00000030: 00b5 bdc0 99e1 78c0 4cec b73f f578 94bb
00000040: c150 793f 8de2 1f3f bc32 f13f c92a 3fbf
00000050: 18f4 21c0 f046 acc0 8dfc aa3f bc72 9bc0
00000060: 568f cdbf 1599 da3f add8 d43e c728 ad3f
00000070: 12cd c63f 94c9 a3bd 40f1 1cc0 9314 0d40
00000080: c310 1740 0117 f73f 53f0 9b3e 3524 a2be
00000090: 76a7 40bf 4215 1fc0 4ee6 87be b3cb 98c0
000000a0: 748f 9fc0
