Models_Q1/Model-b1-e10-h5.pth (torch, 5140 bytes, 5 tensors)

emb.weight f4 [41, 10]
000000 b1 bd 9e 3e 61 0d 6f bf 02 27 d0 be 61 66 23 bf
       0.31004098 -0.9337979 -0.4065476 -0.6382809
000010 a7 bf ab 3f 16 d7 e2 bf 80 72 99 bf 54 fb 1a 3f
       1.3417863 -1.7721889 -1.1988068 0.60539746
000020 45 62 2b bf 2f 6d ca 3e 95 fd 1c 3f c7 26 03 40
       -0.6694682 0.39536425 0.61324435 2.0492418
000030 60 62 d0 3e f8 72 8c 3f 1d 7f a7 be 18 47 fa 3d
       0.40700054 1.0972586 -0.32714167 0.12220591
000040 e9 3c c1 3f 4d 50 95 3f 71 a2 de bf b4 4a 3a 3f
       1.5096713 1.1665131 -1.7393323 0.7277024
000050 d7 13 99 bf d0 50 12 3f 91 55 66 bf d7 3d 3f 3f
       -1.195918 0.5715456 -0.89974314 0.74703735
000060 2a 5e 00 3f 44 81 fc bf a5 41 4d 3f 05 84 ee 3f
       0.5014368 -1.9726949 0.8017829 1.8634039
000070 35 31 59 c0 1d 75 f4 3f 19 68 0f bf 71 c5 1b 3e
       -3.3936284 1.909824 -0.56018215 0.15212037
000080 bb 42 94 bf b8 36 48 c0 06 ec d8 3e 5e 35 54 3f
       -1.1582865 -3.1283398 0.42367572 0.8289393
000090 40 ad eb 3e 10 ed b8 3f 69 94 e7 bf b7 49 8b 3f
       0.46030617 1.4447346 -1.8092166 1.0881871
0000a0 1d 3d 0c c0 6d d7 fc 3e 95 2b b8 bf 12 3f c3 be
       -2.19123 0.49383107 -1.43883 -0.38134056
0000b0 77 6c 41 3e 34 65 ae bf 20 60 4e 3f db be d6 bf
       0.18889032 -1.3624635 0.80615425 -1.6776994
0000c0 18 eb 1b c0 21 e7 30 3f 0a e2 96 bf 2e f3 05 c0
       -2.436224 0.69102675 -1.1787732 -2.0929675
0000d0 af d1 a4 bf e7 9c a3 bf 64 56 58 bf 04 58 13 c0
       -1.287649 -1.2782258 -0.8450682 -2.302247
0000e0 76 28 e4 3e b3 0e 92 bf 79 db ea be 0b 27 4a be
       0.4456212 -1.1410736 -0.4587057 -0.19741456
0000f0 04 b3 e1 bf 06 2b 50 be 5f 5d f9 3e a8 91 a9 3e
       -1.7632756 -0.20328912 0.4870405 0.3311894
000100 ca d6 4e 3f ff 1b b3 be 85 58 a1 bf 13 f7 8d 3f
       0.8079649 -0.34982297 -1.2605139 1.1091026
000110 ef 7e 81 3f 96 9a 03 3e db 54 91 be 98 8e 1b c0
       1.0116862 0.12851939 -0.28385052 -2.4305782
000120 0f 21 96 3f fb 61 8d bf e9 d2 91 3f e9 4c 68 bf
       1.1728839 -1.1045526 1.139249 -0.90742356
000130 97 e0 5d be 2a ea 82 3f ea bf 20 bf bd 4d 35 3f
       -0.21667705 1.0227711 -0.6279284 0.70821744
000140 62 cb 2d 3e b5 b8 b6 bf 73 0c 51 3e d4 01 bd 3f
       0.16972116 -1.4275118 0.20414905 1.4766183
000150 51 df a6 bd f6 88 bd 3e 41 e0 72 bd 75 15 6e bf
       -0.08148063 0.37018555 -0.059295896 -0.9300149
000160 a9 22 6d be 68 62 2f 3f 09 30 ba 3f 42 1b 37 bd
       -0.23157753 0.6850953 1.4545909 -0.04470373
000170 19 10 0f 3f 50 99 27 40 67 61 27 3e 04 fb 28 bf
       0.5588394 2.6187325 0.1634575 -0.6600802
000180 c7 1a 25 3f 6c 9d 1f c0 ff c3 35 3f 9f 3b 88 3f
       0.64493984 -2.4939833 0.7100219 1.0643195
000190 f9 44 91 3f 1f 0c 52 3f d7 1f c1 be 03 56 84 bf
       1.1349174 0.82049745 -0.37719604 -1.0338749
0001a0 72 af 96 3e a2 89 3d bf 3f e0 8a be 9b 7b 56 bc
       0.2943073 -0.74038136 -0.2712421 -0.013090993
0001b0 d3 65 27 40 6b fa f7 bf c4 53 4f bf 51 51 0b 3f
       2.6155899 -1.9373296 -0.8098719 0.54420954
0001c0 82 1c eb 3f 37 03 c8 be 79 c9 5c 3f b8 11 31 bf
       1.8368075 -0.39064953 0.8624492 -0.6916766
0001d0 88 90 d4 bf 6a ac 2d 3f 8b 20 c5 3e 93 79 0d 3e
       -1.6606607 0.6784121 0.3850139 0.13815908
0001e0 cb a7 42 bf a0 51 13 3e ab 9c 26 be 5d 7d e3 3d
       -0.7603728 0.14386606 -0.16270702 0.111078955
0001f0 31 ab 42 3f 37 0e 26 bf c9 52 41 c0 dc 0c 9b 3f
       0.7604247 -0.6486544 -3.0206778 1.2113299
000200 b1 e4 cf be 2b ae 84 3f ae dc da be eb 57 9d 3f
       -0.40604165 1.0365652 -0.4274649 1.2292455
000210 9f 8b 56 3e dc 9a 11 c0 ec e4 04 bf 8c 8b 88 3f
       0.20951699 -2.2750769 -0.5191181 1.0667586
000220 37 58 1b 40 cb 18 39 3f 8f ab 8f bf 17 af 2e 3e
       2.4272592 0.72303456 -1.122423 0.17058979
000230 41 69 bf bf 15 3b 52 3e 95 e8 18 bf ad a0 db 3f
       -1.4953996 0.2053035 -0.5972989 1.7158409
000240 06 07 5b 3f 63 f2 c8 bf 5a a7 95 be a1 94 8e bf
       0.8555759 -1.569897 -0.29229242 -1.1139108
000250 36 24 0e 3f 87 9d 11 be e3 ad 1c c0 0a f9 da 3e
       0.55524004 -0.14220248 -2.4481132 0.42768127
000260 43 ff 99 bf 6e 80 c5 bf 28 56 b2 3f 28 56 6f bf
       -1.2031025 -1.5429819 1.3932543 -0.9349084
000270 d2 14 27 3f 68 7f 09 3e e5 66 07 3f d4 ec 50 bf
       0.65266144 0.13427508 0.5289138 -0.8161137
000280 c7 2c 1c bf 7f 10 f8 3e b4 42 a5 3e fa 98 b0 bf
       -0.61005825 0.48450086 0.32277453 -1.3796685
000290 4d 25 c1 3f da 36 8f bf f5 5f 2e be 52 dd ab 3f
       1.5089508 -1.1188614 -0.17028792 1.3426917
0002a0 e8 18 dd bf fe b3 b6 3e 46 27 e0 bf e1 e8 f8 bd
       -1.7273226 0.35684198 -1.7511985 -0.12153793
0002b0 2f cb 4f be 60 97 8a bf 94 b1 4c 3f 9d e3 fd be
       -0.20292352 -1.0827446 0.7995846 -0.49587718
0002c0 d3 0e 89 bf c5 7e 62 3f 8c 5c 73 bf f9 f9 61 be
       -1.0707649 0.88474685 -0.9506309 -0.22068013
0002d0 fe 6e 0e bd d8 35 eb 3f ca f1 46 bf 58 b0 58 3f
       -0.03477382 1.8375807 -0.7771269 0.8464408
0002e0 01 71 c4 3f 25 c2 64 bf ca 6a cd be 2f 71 41 3f
       1.5346986 -0.8935874 -0.40120536 0.7556333
0002f0 e1 d4 5c 3f 2b 78 83 3c fc 07 3c 3f 18 79 42 3d
       0.8626233 0.016048511 0.73449683 0.047478765
000300 c0 aa 26 3e 74 fc 68 3e d3 5b de 3e 15 31 8d 3f
       0.16276073 0.22752553 0.4342943 1.1030604
000310 ed 55 eb bf 15 fd 52 3f 68 1f e4 bf 95 fd d9 be
       -1.8385597 0.8241742 -1.7822084 -0.4257628
000320 d4 ac 70 bf a1 af f6 be 6e 8c c7 3e 4a 72 33 3e
       -0.94013715 -0.4818087 0.38974327 0.17524067
000330 45 da b4 3f 2b ec 85 be 0f 77 41 3f b3 e5 79 3f
       1.412911 -0.26156744 0.75572294 0.9761612
000340 4b e5 e0 bf 10 36 b8 3f 60 72 63 bf e4 7e 5f bf
       -1.7569975 1.4391499 -0.888464 -0.87302995
000350 b1 de d9 3f df 33 18 3d 1f a2 b6 3e 2f 2f 41 3e
       1.7021085 0.037158843 0.35670564 0.18865655
000360 2c 86 d9 be 99 1d 08 40 38 15 2a 3e 63 c3 27 3f
       -0.42485178 2.1268065 0.16609657 0.6553251
000370 a1 c1 77 bf f1 08 1c bf 35 33 2b 3f 33 d4 8b 3d
       -0.9677983 -0.60951144 0.6687501 0.06827583
000380 2a c4 06 3f f8 73 18 bf f3 a5 ed 3c a0 a1 ec bf
       0.5264307 -0.59551954 0.029009795 -1.8486824
000390 24 48 a8 bf e0 c5 a0 3f cd ee 12 c0 80 5d 60 3f
       -1.3147016 1.2560387 -2.2958252 0.8764267
0003a0 e3 06 81 bf ed 9d 40 c0 5f 3f e3 bf 59 bf 61 bf
       -1.0080227 -3.009639 -1.7753714 -0.881826
0003b0 bc 2d ed bd 69 ed 55 bf da 9f d9 3f cb df 6a c0
       -0.11580989 -0.83565384 1.7001908 -3.6699092
0003c0 e9 0e b3 bf d1 04 8b bf b1 8c e2 3f 3b 6a cd 3e
       -1.3988925 -1.0860845 1.7699186 0.4012011
0003d0 53 69 2d 3d e2 32 83 3f 7b d9 fa be 83 53 f6 be
       0.042336773 1.0249903 -0.4899405 -0.4811059
0003e0 62 33 39 bf c0 84 dd bf 1c cc 25 bd 11 22 2d 3f
       -0.7234403 -1.7306137 -0.040477857 0.67630106
0003f0 ef 46 d6 3f 20 65 a3 bf 34 eb f1 bf ca c5 8b bf
       1.6740397 -1.2765236 -1.8899903 -1.0919735

lin1.weight f4 [5, 10]
000000 20 d4 1a 3f 85 c7 b7 be 1c 0d aa 3e e5 08 fc 3e
       0.6047993 -0.3589441 0.33213127 0.49225536
000010 ec a6 cc bf 6b 9f 6d 3d a5 0f 0c be a8 eb 08 3f
       -1.598844 0.05801336 -0.13677843 0.5348458
000020 0b ae 40 3e 63 58 8b be a6 ca 44 bf 3e cc b1 be
       0.18816392 -0.2721587 -0.76871717 -0.34726137
000030 1a 48 c8 3e b9 41 20 3e 13 e0 48 3f 66 aa 41 bf
       0.3911751 0.15650071 0.7846691 -0.7565063
000040 7c 96 81 be bf 00 ec 3e ad fd 02 be c3 ae dd 3c
       -0.25310123 0.4609432 -0.12792082 0.027060872
000050 ce a6 66 3d 68 f3 36 bf b1 52 9c 3c 02 07 93 bf
       0.05631142 -0.7146516 0.0190824 -1.1486514
000060 e9 53 23 3f c0 0e 3e bd d1 f2 aa bd af f4 58 3f
       0.6379991 -0.046400785 -0.08347095 0.8474836
000070 d3 fb 0b 3e 29 b0 92 bd c6 a1 35 bd b1 c5 99 3e
       0.13670282 -0.07162506 -0.044343732 0.3003364
000080 a5 68 20 3e ab 41 a0 3e 0b 67 83 3e d1 d3 ae bd
       0.15664919 0.313001 0.25664553 -0.085364945
000090 db 78 51 bf 22 2e f5 be d5 3a 12 3f 37 c0 dd bd
       -0.81825036 -0.4788676 0.5712102 -0.10827678
0000a0 a7 aa ea be 53 16 cb 3e f9 3c 1d be 99 d3 09 bf
       -0.45833322 0.3966547 -0.1535529 -0.538385
0000b0 37 32 c6 bd 76 19 f7 be aa 05 3a bd 47 58 1a 3f
       -0.096775465 -0.48261613 -0.045415558 0.6029095
0000c0 6b c1 97 bd 38 5a a3 be
       -0.074099384 -0.3190477

lin1.bias f4 [5]
000000 a3 4e 02 bf 15 04 18 3e b0 4b 3b 3e 10 81 a0 be
       -0.5090124 0.14845307 0.18290591 -0.31348467
000010 e2 4b c9 3e
       0.39315706

lin2.weight f4 [41, 5]
000000 e8 8a 0d c0 58 4d 9e 3f f6 27 20 40 f2 55 6b 3f
       -2.2116032 1.2367353 2.502439 0.9192802
000010 8e 9c 63 3f 63 50 2a c0 92 21 5b 3f c0 0b 21 40
       0.8891076 -2.6611564 0.855981 2.5163422
000020 d8 81 60 3f 04 42 ae 3f 89 00 df bf 3f f1 e4 bf
       0.87698126 1.3613896 -1.7422038 -1.7886122
000030 7e cc 08 bf 2a b5 30 3f 6f d3 9b 40 4b d7 f8 bf
       -0.5343703 0.69026434 4.86956 -1.9440702
000040 dd 09 19 40 cd 6d 36 40 99 fc 87 be c3 e1 fb be
       2.391227 2.8504517 -0.26559904 -0.4919568
000050 22 2d f9 3f 66 f8 45 c0 c5 be c2 bf e3 c9 00 3f
       1.9466898 -3.093286 -1.5214468 0.50308055
000060 0a e0 ee bf aa 04 60 3d 20 25 fe bf cd d3 d5 3d
       -1.8662121 0.054691948 -1.985508 0.104407884
000070 fe 8a 09 40 a0 4b 33 c0 67 44 00 c0 db 0e 34 40
       2.1491084 -2.8014908 -2.004175 2.8134067
000080 67 5c 32 40 49 d1 26 bf 9f f6 56 40 1d 2d ac 3f
       2.7868898 -0.65163094 3.3588026 1.3451267
000090 a2 e0 ec 3f d1 db 72 40 67 6c 9f 3f 29 ea 38 c0
       1.8506052 3.7946665 1.2454957 -2.889292
0000a0 88 31 e2 3f f3 68 94 bf 9c b0 0c 3f 59 5c 8f 3f
       1.7671366 -1.1594528 0.54956985 1.1200057
0000b0 90 95 37 c0 e4 9b 3a 40 23 87 a7 c0 42 db 46 40
       -2.8685036 2.9157648 -5.235246 3.1071324
0000c0 d3 e6 cf 40 b9 c7 08 40 29 4f c1 3f 57 e7 2e c0
       6.496927 2.13719 1.5102283 -2.7328699
0000d0 99 dc c6 bf 08 52 82 3e 8d 37 b0 bf e1 25 11 bf
       -1.5536071 0.2545321 -1.3766953 -0.56698424
0000e0 4f f3 05 40 a2 4a 64 40 85 c1 d1 3e 96 35 94 3f
       2.0929754 3.5670552 0.40967956 1.1578853
0000f0 8b 4f 0d c0 67 a5 ab bf 48 e6 82 3f 18 78 ab bf
       -2.20798 -1.3409852 1.0226526 -1.3396025
000100 6f e8 9c bf 4a ae 1d be 40 cc 7f bf c0 0f 26 40
       -1.2258433 -0.15398517 -0.99921036 2.5947113
000110 32 f2 cf 3f a4 6b 19 3f 55 1f d2 3f 47 a4 3e 40
       1.6245787 0.5992987 1.6415812 2.9787767
000120 f7 75 ee bf 9e f0 29 c0 09 e0 83 40 3a 0a 07 c0
       -1.862975 -2.655311 4.121098 -2.1099992
000130 6c d4 7e bf 7d 2b 47 c0 c7 a2 db bd a0 ae 06 be
       -0.9954288 -3.1120293 -0.10724407 -0.13152552
000140 1c f1 db bf ac 65 c8 3f 97 8c 5d c0 61 23 7c bf
       -1.7182956 1.5656028 -3.461706 -0.98491484
000150 1d bf a2 3f 3a 74 c6 bf 44 70 70 3f 3b 18 dd bf
       1.2714573 -1.550422 0.93921304 -1.727302
000160 5d 95 16 bf 6f 98 7f 3f 14 56 c7 3f 0f d1 23 40
       -0.5882166 0.9984197 1.5573144 2.559635
000170 75 db 84 3f ed af d3 bf 2f 83 4e 3f 7c 6c ce be
       1.0379473 -1.6538063 0.8066892 -0.40317142
000180 6b 99 4e bf 89 de 42 bf 2e b5 7e 3e 9f 88 1c c0
       -0.8070285 -0.7612081 0.24873802 -2.4458387
000190 ab 3e 05 c0 d2 8e da 3f ae 2e 43 c0 62 fb 56 bf
       -2.08195 1.7074835 -3.049724 -0.8397733
0001a0 8f 17 ba be 70 8b 20 3f 14 d1 b9 c0 af f6 30 40
       -0.363461 0.62712765 -5.806772 2.7650564
0001b0 f6 ad 8e c0 92 a4 fb bf c5 9d f9 3e 56 06 a2 bf
       -4.4587355 -1.9659598 0.4875318 -1.2658184
0001c0 24 4e 42 3f bd da 73 3e eb 47 31 3f e7 4e d5 3f
       0.75900483 0.23813911 0.69250363 1.6664704
0001d0 96 41 72 c0 aa 0e 16 c0 f4 0e 57 3d af 03 b2 bf
       -3.785253 -2.344645 0.052504495 -1.3907374
0001e0 24 0f b0 bf dd 35 4f 3c b0 25 42 c0 83 4b 76 bd
       -1.375462 0.012647119 -3.0335503 -0.060130607
0001f0 31 b8 49 bf 29 54 17 40 a0 81 ac bc 99 72 8c 3d
       -0.7879668 2.3645117 -0.021057904 0.06857795
000200 a2 a0 05 40 63 24 36 bf fe ad 82 bf f8 16 2b bf
       2.0879292 -0.7114927 -1.0209348 -0.6683192
000210 46 f4 b7 bf d7 c0 26 3f cd 3c 03 bf 7a 77 a6 be
       -1.4371421 0.65138 -0.5126465 -0.32513028
000220 55 e4 7e 3f 22 c8 7d bf 80 92 a2 3f 49 fd bb bf
       0.9956716 -0.99133503 1.2700958 -1.4686671
000230 c7 33 ea 3e 81 57 cf bd eb 94 98 3e 74 44 3b bf
       0.45742628 -0.10124112 0.29801115 -0.73151326
000240 b7 11 83 bf 82 92 eb bf 83 f5 8e bf 0d 65 98 bf
       -1.0239781 -1.8404086 -1.1168674 -1.1905838
000250 98 d5 3f 3a 56 b1 5e 3f b5 e7 be 3d 57 cc 04 bf
       0.00073179 0.86989343 0.09321538 -0.518743
000260 53 4f 11 c0 43 ff f8 3e 05 ed 49 40 5f 75 72 3f
       -2.2704666 0.4863225 3.1550915 0.94710344
000270 c1 6d ec be d7 43 df be a6 e1 01 40 0e a2 58 3d
       -0.46177486 -0.43606445 2.0293975 0.052888922
000280 16 45 40 3e 51 3f e8 3e 46 00 a2 bf c3 e3 ae 3e
       0.18776354 0.45360807 -1.2656333 0.34158143
000290 c2 0d 2e bf 29 fa 9e bf f8 a3 93 3e 17 40 28 c0
       -0.6798974 -1.2420093 0.28836036 -2.6289117
0002a0 09 0c 9c be b1 7f bc bd 93 06 80 bd e3 3b ac bf
       -0.30477932 -0.09204043 -0.06251254 -1.3455776
0002b0 52 ba a2 3f 8b 86 12 bf 60 74 43 c0 d2 cb 6f bf
       1.271311 -0.57236546 -3.053978 -0.9367038
0002c0 9b ff 54 3f 20 5b d9 bf d4 93 f3 3e 7f 0a c3 be
       0.83202523 -1.6980934 0.4757372 -0.38093945
0002d0 a8 f9 b3 bf 68 7c 82 c0 64 6a 0f bf 25 0e 65 3f
       -1.4060564 -4.0776863 -0.56021714 0.8947471
0002e0 f9 09 cf 3f cd 4e 54 3f 8b 50 fa 3f b1 25 6b bf
       1.6174918 0.8293274 1.955583 -0.9185439
0002f0 b3 0b df 3f b2 8e 0f be f1 20 06 3f e5 de f9 3e
       1.7425445 -0.14019278 0.52394015 0.48802868
000300 a2 a4 c4 3e 7c 05 03 3f a3 7a 3c 3f 03 04 e6 3f
       0.38406855 0.51180243 0.7362463 1.7969974
000310 fa c7 5a 3e 73 69 9d bf 8e 3e 11 3f c4 24 87 c0
       0.21365348 -1.2297806 0.56736076 -4.223238
000320 f2 d6 5b bf 7f bf bb 3e e6 6e 4f 40 f8 36 65 bf
       -0.85874856 0.36669537 3.2411437 -0.89537
000330 bb a6 82 bf
       -1.0207132

lin2.bias f4 [41]
000000 2d e7 7a bf 0c ed c9 3f a6 a4 69 c0 c3 85 d8 bf
       -0.98008996 1.5775466 -3.6506743 -1.6915821
000010 80 7e 8e c0 c3 d3 89 c0 f7 c6 70 c0 a8 3a 4f c0
       -4.452942 -4.3071 -3.7621439 -3.237955
000020 21 0d f5 c0 90 4e 0b c1 65 e2 7f c0 d7 11 55 c0
       -7.6578526 -8.70668 -3.998193 -3.3292139
000030 7d 66 9b c0 3e 5c 21 c0 ce 5a 14 c0 ed 16 89 bf
       -4.856261 -2.521255 -2.3180423 -1.0710121
000040 a4 82 cb bf e3 16 a0 be 96 04 82 3f bc 59 64 3f
       -1.5899243 -0.3126746 1.015765 0.89199424
000050 4b 3b b6 bf 12 87 0e c0 2e 7d ea 3f 11 81 83 c0
       -1.4236845 -2.226994 1.8319452 -4.109505
000060 fd 84 df bf 3e b4 e2 3f d6 07 81 3f 0d 3b f1 3f
       -1.746246 1.7711256 1.0080516 1.8846146
000070 36 b5 13 40 85 35 97 be b9 16 9c c0 52 eb e0 3f
       2.3079352 -0.2953302 -4.877774 1.7571814
000080 9e 1e 05 40 78 af 94 3f df 37 ea 3f 9e 2e e8 be
       2.0799937 1.1616049 1.82983 -0.45348066
000090 da 9e 63 bf d8 c2 0d c0 1e fe 85 3e 27 dd 63 c0
       -0.88914263 -2.2150173 0.2617044 -3.560373
0000a0 da 9f 85 c0
       -4.175763
