Models_Q1/Model-b3-e3-h9.pth (torch, 4811 bytes, 5 tensors)

emb.weight f4 [41, 3]
-0.97007644 0.93474066 0.42935747 -1.2796972 -1.8022768 -0.917855 -0.057417028 1.6789633
1.4033923 -0.3746278 -0.3855397 0.6129184 -2.9915853 -2.2990468 1.7109591 2.7859473
-0.9565416 -1.5662228 -0.75788474 1.367237 0.73885286 2.0091538 -1.2702899 0.7355681
-0.5512185 0.53429645 -0.6603457 3.5633037 -0.16579795 -5.4192104 0.6872369 2.1772478
1.7693665 0.3483929 0.9230993 1.042579 0.5668668 1.5806429 1.6281376 -2.1590097
1.9778172 0.888619 -1.771608 -0.8510084 1.917051 0.17196552 -0.81994534 -0.21912454
1.0525794 -1.2353195 -0.17445348 -0.6519015 0.99763507 0.23714694 0.93623793 0.29481447
1.2174462 -0.7336705 1.1772257 0.24758159 0.4032799 0.5426245 0.27832443 0.7834819
0.6268576 0.509456 0.038056083 -1.7326573 1.3931861 0.47800565 0.87110424 -1.3001784
0.6239655 -0.33356687 0.58030033 1.2833362 1.4124081 -0.099622175 -0.31530374 0.6055993
0.015961424 -0.5734873 0.5310467 0.44642293 -2.4268441 0.087855324 2.372236 2.3201962
0.23805983 -1.2726716 1.0041418 0.72259414 -1.0847366 0.26105824 0.05663328 0.27357483
-0.16774724 0.7138276 0.48856497 -0.5063682 1.8894175 -0.11262364 0.675248 -1.0264399
2.628963 1.5077311 -0.587042 -0.67189246 0.47039807 1.6327149 0.1138398 1.1276957
-1.3456397 -0.08480409 -1.1808615 1.2269233 0.63999087 0.2737122 1.1908014 -0.022403996
-1.6114614 -1.7771733 -0.6372046
00000000: ee56 78bf 2a4b 6f3f bed4 db3e 1ecd a3bf
00000010: 02b1 e6bf 8cf8 6abf 1e2e 6bbd 45e8 d63f
00000020: 5ca2 b33f 37cf bfbe 7665 c5be 38e8 1c3f
00000030: 2276 3fc0 9523 13c0 b500 db3f f64c 3240
00000040: e9df 74bf fd79 c8bf bc04 42bf 9f01 af3f
00000050: 7625 3d3f fa95 0040 dc98 a2bf 314e 3c3f
00000060: a81c 0dbf a7c7 083f 6a0c 29bf 2b0d 6440
00000070: f0c6 29be 2c6a adc0 c2ee 2f3f 0758 0b40
00000080: 9a7a e23f 8e60 b23e 3c50 6c3f 3b73 853f
00000090: 2f1e 113f 8252 ca3f d066 d03f 372d 0ac0
000000a0: 1d29 fd3f 897c 633f 0dc4 e2bf b0db 59bf
000000b0: ed61 f53f bb17 303e f0e7 51bf 2f62 60be
000000c0: ecba 863f f31e 9ebf efa3 32be 04e3 26bf
000000d0: 0365 7f3f a6d6 723e 4aad 6f3f ecf1 963e
000000e0: 47d5 9b3f d4d1 3bbf 55af 963f 0786 7d3e
000000f0: b47a ce3e 70e9 0a3f 8a80 8e3e 4592 483f
00000100: bd79 203f b56b 023f b2e0 1b3d b7c7 ddbf
00000110: ec53 b23f 28bd f43e b000 5f3f 3f6c a6bf
00000120: 34bc 1f3f 47c9 aabe 908e 143f 5c44 a43f
00000130: cac9 b43f b606 ccbd 7e6f a1be 8e08 1b3f
00000140: 88c1 823c 10d0 12bf adf2 073f 8c91 e43e
00000150: 6a51 1bc0 7eed b33d b7d2 1740 187e 1440
00000160: f5c5 733e e7e6 a2bf b887 803f eefb 383f
00000170: a6d8 8abf 6da9 853e 4cf8 673d 0012 8c3e
00000180: efc5 2bbe 68bd 363f 3025 fa3e 59a1 01bf
00000190: 6fd8 f13f 39a7 e6bd 0edd 2c3f 6262 83bf
000001a0: ee40 2840 55fd c03f 6248 16bf 2501 2cbf
000001b0: 04d8 f03e cdfc d03f d724 e93d 5558 903f
000001c0: ec3d acbf c4ad adbd 7826 97bf d30b 9d3f
000001d0: 71d6 233f 0124 8c3e 2e6c 983f 9688 b7bc
000001e0: 5e44 cebf 6a7a e3bf d71f 23bf

lin1.weight f4 [9, 9]
0.061536495 -0.017662155 0.040150687 0.47762817 0.25473428 0.22728874 -0.80752695 -0.38645372
-0.8407837 0.1815418 -0.0646615 0.10181719 0.015281181 -0.3638891 0.67375946 -0.43457386
0.62468535 -0.086811386 0.035783883 -0.082280256 0.044583365 0.20840324 -0.046912417 0.1431999
-0.32868338 -0.22609396 1.129739 0.13138191 -0.036476452 -0.035938125 0.0395956 0.040948275
-0.102488 -0.5156141 0.56092834 -0.026280882 0.4797035 -0.13665469 0.41221634 0.036209203
-0.39496478 0.45739293 -0.2818485 0.0505583 -0.013548352 0.027610565 -0.03700722 0.04932426
-0.05198799 0.11730442 -0.06426296 -0.26599872 -0.85110617 1.1355976 0.054777466 0.0605993
0.12808378 0.09257906 -0.13735598 0.59356266 -0.0933382 0.39857337 0.3439666 0.109327875
0.14830706 0.05747494 0.11796516 -0.7718935 0.012227137 -0.16708748 -1.0603733 -0.061073404
-0.02611021 -0.15355712 -0.4859303 0.4684102 1.1077812 0.36755773 1.3960829 0.560267
0.50931615
00000000: b10d 7c3d 39b0 90bc 0c75 243d ae8b f43e
00000010: 886c 823e 61be 683e 16ba 4ebf 43dd c5be
00000020: 9a3d 57bf 18e6 393e 406d 84bd 8885 d03d
00000030: eb5d 7a3c ac4f babe 807b 2c3f 7780 debe
00000040: 61eb 1f3f 2bca b1bd 1f92 123d 8d82 a8bd
00000050: 0c9d 363d a967 553e 3c27 40bd ffa2 123e
00000060: 3049 a8be 2d85 67be 4a9b 903f fb88 063e
00000070: 5568 15bd db33 13bd ff2e 223d 61b9 273d
00000080: 3be5 d1bd 49ff 03bf 0099 0f3f 014b d7bc
00000090: b29b f53e 35ef 0bbe 050e d33e 1a50 143d
000000a0: d338 cabe 682f ea3e 724e 90be 3816 4f3d
000000b0: e8f9 5dbc 8d2f e23c e294 17bd 3c08 4a3d
000000c0: 5cf1 54bd 4d3d f03d 4c9c 83bd fc30 88be
000000d0: 18e2 59bf 435b 913f 565e 603d f936 783d
000000e0: 6528 033e 179a bd3d 0ca7 0cbe b9f3 173f
000000f0: 1928 bfbd cf11 cc3e 641c b03e 4be7 df3d
00000100: cedd 173e d86a 6b3d b897 f13d d09a 45bf
00000110: 5454 483c fb18 2bbe 50ba 87bf 1b28 7abd
00000120: 14e5 d5bc 143e 1dbe dbcb f8be 76d3 ef3e
00000130: c6cb 8d3f 8730 bc3e d8b2 b23f a86d 0f3f
00000140: 8b62 023f

lin1.bias f4 [9]
-0.5293131 -0.8328656 -0.16304359 -0.9318473 1.3811616 -0.76784694 -0.6368551 0.29713288
1.2537689
00000000: 1081 07bf ae36 55bf e6f4 26be 8b8d 6ebf
00000010: e7c9 b03f 9e91 44bf f008 23bf cd21 983e
00000020: 807b a03f

lin2.weight f4 [41, 9]
-1.2088044 -3.2437901 1.6177745 0.98214436 1.1739298 -1.3548917 2.5194323 -1.3553663
1.1321644 -1.91053 -3.1363552 1.8353153 1.276976 0.15762928 -1.8001126 3.092274
-1.2060432 1.079648 1.3472892 -0.31470212 -0.105234936 -0.70363057 3.749542 0.36237127
-0.3520449 -1.350457 -0.010772643 -1.0481149 0.7765164 2.883315 1.7388922 -0.296717
2.0227742 1.7303915 -1.8787093 0.9986325 2.6458817 2.268223 1.952978 1.8567247
-2.4529662 -0.24025437 -3.7632105 1.4931906 -0.25909773 -0.5435991 5.065552 2.5526047
0.6148772 2.1806397 4.967748 -0.15711166 -1.0739102 -2.6749024 -1.3768952 -2.8549728
1.1306791 0.7806941 2.1358347 -2.4170816 1.7400821 -0.5427661 0.8637954 1.662426
-1.9755965 -0.5167638 2.2312872 -0.8640868 -3.3175607 0.34379485 0.70579785 0.262257
2.5951502 0.31935897 0.6757023 4.382622 -4.0514402 1.3252814 -2.173514 -0.55155516
-0.9516612 8.023921 -4.329111 -1.7791567 -1.5105525 -3.542055 -1.5484706 3.8226886
-5.302761 -0.8248679 3.7790723 1.3052014 -2.6277354 0.58930516 -0.11676063 -0.22696021
-0.7885845 0.5442778 0.5742716 0.7991537 0.58778036 -0.15333256 -1.6657084 0.013953336
-0.18516888 -1.2146213 -3.7652054 0.8179184 1.3338783 -0.3676365 2.2173498 -0.37865627
-1.684885 -0.86450976 1.0099984 -1.9426796 0.23205544 0.5375921 -2.2521582 -2.1112034
-1.3801905 -1.69791 -1.1489339 1.8059734 -0.25313106 2.3125238 0.6721466 -0.39039817
-0.2717415 -1.550125 -0.8213718 -2.0705385 -1.5513828 -0.5368341 -0.38294935 1.6726599
1.9183058 0.5207213 0.69240636 0.5923076 1.088133 -1.4297658 2.760506 0.5694041
1.6704674 0.5718644 2.0963767 -1.2116317 0.15810938 0.5997822 -0.5160754 -0.0801699
0.07343669 -0.17144291 3.0117283 0.54429704 -3.4968383 2.1572425 2.2080762 -0.41726866
-0.19686136 -1.0538735 -1.1783345 -0.9822364 -1.5658917 -0.98463416 -1.182369 -2.033159
-0.95880085 0.18755534 0.9957392 -0.45122746 2.3682668 0.7634606 0.8023549 0.99125665
2.4557548 -1.8520505 1.4239438 -0.347813 2.4140697 1.3412137 5.9121566 1.8725555
0.54607123 1.3638351 -0.30480176 3.8196886 -1.8142432 0.2437537 1.3814037 -3.6772797
0.94779587 1.2437125 -0.74343836 -0.49897125 1.193612 -0.5965305 0.86412674 -1.7006686
-1.7920078 0.4228297 -0.695014 -1.9685804 0.5766526 0.052907 -0.05155593 3.5052092
0.4935806 0.53397137 0.48290223 0.8682736 0.23356612 -0.23074509 0.6451129 -0.93922657
1.465616 3.0433574 0.8465192 -1.3404481 -0.18951494 3.1071067 -1.2572836 1.755673
0.18037255 -1.4819992 -0.52790904 -2.8498378 -3.1651535 -0.7592658 3.7551353 1.6046704
-0.36522427 -0.38337216 -0.028888319 -0.12759657 0.011562296 0.27862084 1.228713 2.1034768
0.87784797 0.24926987 -1.4049726 -1.2346772 1.0949097 0.8003831 -1.809876 2.316781
4.178883 1.0648661 0.9070848 -0.70066756 -0.1477571 1.5285499 0.4450417 0.7098228
00000000: 1aba 9abf 429a 4fc0 3c13 cf3f d06d 7b3f
00000010: 5543 963f 176d adbf 613e 2140 a57c adbf
00000020: c3ea 903f 3f8c f4bf 0bba 48c0 9deb ea3f
00000030: f373 a33f 9269 213e 176a e6bf d1e7 4540
00000040: a05f 9abf e831 8a3f f973 ac3f a320 a1be
00000050: 6a85 d7bd 2221 34bf 7ff8 6f40 ba88 b93e
00000060: 3b3f b4be c6db acbf bd7f 30bc a128 86bf
00000070: c7c9 463f 3c88 3840 0594 de3f 4aeb 97be
00000080: 2275 0140 787d dd3f 8c79 f0bf 61a6 7f3f
00000090: 2056 2940 912a 1140 2ffb f93f 28a9 ed3f
000000a0: 66fd 1cc0 3e05 76be 71d8 70c0 df20 bf3f
000000b0: 75a8 84be 5029 0bbf 0119 a240 e05d 2340
000000c0: 9868 1d3f 9a8f 0b40 cbf7 9e40 e1e1 20be
000000d0: e475 89bf 9a31 2bc0 1a3e b0bf e0b7 36c0
000000e0: 18ba 903f 92db 473f 84b1 0840 77b1 1ac0
000000f0: 03bb de3f b8f2 0abf b221 5d3f 60ca d43f
00000100: 59e0 fcbf a24a 04bf 69cd 0e40 cb34 5dbf
00000110: ea52 54c0 e105 b03e 2baf 343f 8d46 863e
00000120: f116 2640 0583 a33e d3fa 2c3f 703e 8c40
00000130: 66a5 81c0 d2a2 a93f da1a 0bc0 b832 0dbf
00000140: 12a0 73bf fb61 0041 1488 8ac0 68bb e3bf
00000150: c959 c1bf 07b1 62c0 4934 c6bf eea6 7440
00000160: 38b0 a9c0 8b2a 53bf 52dc 7140 d710 a73f
00000170: d12c 28c0 b4dc 163f 3220 efbd 4268 68be
00000180: ace0 49bf ca55 0b3f 7703 133f 5695 4c3f
00000190: c678 163f 3603 1dbe ef35 d5bf 889c 643c
000001a0: e99c 3dbe b678 9bbf 20f9 70c0 1a63 513f
000001b0: 86bc aa3f da3a bcbe 0fe9 0d40 3cdf c1be
000001c0: 50aa d7bf 8350 5dbf a147 813f baa9 f8bf
000001d0: f19f 6d3e a39f 093f 5c23 10c0 f51d 07c0
000001e0: 15aa b0bf 1d55 d9bf 4410 93bf 232a e73f
000001f0: 659a 81be 6400 1440 cd11 2c3f 45e2 c7be
00000200: b421 8bbe 7f6a c6bf 6c45 52bf b483 04c0
00000210: b693 c6bf f66d 09bf f011 c4be b819 d63f
00000220: 0b8b f53f fe4d 053f 8b41 313f 79a1 173f
00000230: f147 8b3f 9102 b7bf 21ac 3040 78c4 113f
00000240: e0d1 d53f b565 123f 092b 0640 bf16 9bbf
00000250: 6de7 213e 548b 193f 841d 04bf 1e30 a4bd
00000260: fa65 963d bb8e 2fbe 28c0 4040 0d57 0b3f
00000270: 33cc 5fc0 4310 0a40 1f51 0d40 3da4 d5be
00000280: 0696 49be 54e5 86bf aad3 96bf d873 7bbf
00000290: 246f c8bf fc10 7cbf de57 97bf 471f 02c0
000002a0: f973 75bf 820e 403e c4e8 7e3f 4907 e7be
000002b0: af91 1740 2772 433f 2167 4d3f ffc2 7d3f
000002c0: 162b 1d40 fe0f edbf ca43 b63f 8c14 b2be
000002d0: 1e80 1a40 e4ac ab3f 6330 bd40 e6af ef3f
000002e0: 53cb 0b3f 2692 ae3f fa0e 9cbe c775 7440
000002f0: 1f39 e8bf 929a 793e d6d1 b03f 8d58 6bc0
00000300: c0a2 723f f931 9f3f fa51 3ebf 2979 ffbe
00000310: 47c8 983f 39b6 18bf 6937 5d3f 82af d9bf
00000320: 8360 e5bf 227d d83e 70ec 31bf 71fa fbbf
00000330: 819f 133f 03b5 583d 502c 53bd 5955 6040
00000340: 99b6 fc3e 59b2 083f f63e f73e 2e47 5e3f
00000350: f52b 6f3e 7148 6cbe 1e26 253f 2771 70bf
00000360: 4e99 bb3f 5ec6 4240 7bb5 583f ce93 abbf
00000370: 3410 42be d6da 4640 abee a0bf e5b9 e03f
00000380: 95b3 383e 26b2 bdbf 0c25 07bf be63 36c0
00000390: e091 4ac0 3e5f 42bf 2354 7040 d765 cd3f
000003a0: adfe babe 5b49 c4be 32a7 ecbc ada8 02be
000003b0: c96f 3d3c 64a7 8e3e 7846 9d3f 5d9f 0640
000003c0: a5ba 603f 9a40 7f3e 24d6 b3bf e709 9ebf
000003d0: 0026 8c3f e8e5 4c3f 04aa e7bf 2446 1440
000003e0: 69b9 8540 884d 883f b636 683f f35e 33bf
000003f0: a34d 17be 86a7 c33f 81dc e33e f2b6 353f

lin2.bias f4 [41]
-2.6805146 0.41708753 -3.0150452 -1.9653944 -2.6871479 -7.2433486 -3.490941 -2.5033274
-5.7116575 -6.211585 -3.9482553 -3.59544 -4.4234505 -3.1474183 1.0069165 -0.055321068
0.6778921 -1.9658965 1.392663 -0.19705743 -1.5876814 -0.29624352 2.4286876 -3.3961866
-1.4768189 -0.4055057 0.73883456 -1.3924457 0.18369196 1.2491343 -6.527556 1.1050351
2.0734742 0.9157653 0.24501164 0.17905495 1.1376761 -3.6499758 0.18698555 -4.0232153
-5.770296
00000000: 8d8d 2bc0 7f8c d53e 80f6 40c0 0b92 fbbf
00000010: 3bfa 2bc0 83c9 e7c0 946b 5fc0 8436 20c0
00000020: e6c5 b6c0 4ec5 c6c0 37b0 7cc0 b01b 66c0
00000030: e88c 8dc0 4d6f 49c0 a4e2 803f 5898 62bd
00000040: 568a 2d3f 7fa2 fbbf c842 b23f 6cc9 49be
00000050: 2539 cbbf 3bad 97be 9e6f 1b40 1f5b 59c0
00000060: 6708 bdbf 719e cfbe 4324 3d3f a93b b2bf
00000070: bf19 3c3e a2e3 9f3f bde1 d0c0 ca71 8d3f
00000080: cdb3 0440 986f 6a3f 55e4 7a3e 2e5a 373e
00000090: 5f9f 913f 3499 69c0 2479 3f3e 2ebe 80c0
000000a0: 44a6 b8c0
