Models_Q1/Model-b1-e7-h3.pth (torch, 4235 bytes, 5 tensors)

emb.weight f4 [41, 7]
00000000: d3f9 cf3e e4fd df3e 6179 3dc0 31b3 89be
00000010: 10af d93f 4457 58bf 0299 2cc0 04b9 08bf
00000020: 9fa6 87be 7692 8d3f 5831 0340 f6c1 9abf
00000030: 129d 823f f143 06bf f4ba c53e 5fac 2040
00000040: a9c2 533f 01de 483f 3b77 8ebf 4901 b5be
00000050: 78c6 c9be 5ce5 783f 822e 283d 86b8 b5be
00000060: cfe1 9ebf 3c6c 863d 3f52 ad3f f7b8 b63f
00000070: 282e 1dc0 4a88 443f cb81 6dbf 3548 89bf
00000080: 2e0d f7be f050 d9be cc81 593f 4583 4bbf
00000090: be5e f1be 09f5 7d3f 9806 8dbf 5fb5 9a3f
000000a0: d944 27c0 839a ff3f 8772 64bf 849f b03f
000000b0: a278 29bb 4b12 4f3f 300d 5abf 2d2a 4e3f
000000c0: 47e0 ffbf 3608 353f 786b 7c3e d6d3 a43e
000000d0: 73ce 483f 4143 52bf aec7 7b3f e3e8 973e
000000e0: bf60 b03f 72f8 89bd e384 313f 0983 0040
000000f0: f632 f5bd 128f 043f 4443 8bbe edac 2ec0
00000100: 2640 f03f be70 183d 06d0 563f 4607 b3bf
00000110: af3a babf 8462 2dc0 cce8 993e 6595 72bf
00000120: 2176 883f 7cdf 48be feab 893f 2856 bfbf
00000130: fffa 0dbf 30d3 ffbf ce4b 2d40 aa90 9d3e
00000140: ba63 c13e 4fde f4be 4e66 fe3e dab8 95bf
00000150: ed23 02c0 834d 1a40 392b 63b8 23a4 263f
00000160: 8d1b cfbe a02e d33e f69b c2bf 0546 06bf
00000170: 1a2d b0bf 6457 93be d165 1c3f bd1c b53e
00000180: d362 7bbf 0809 473f 5d8e 963f 02f2 bfbe
00000190: 409f 063e 3d3f 6ebf ecf0 7fbf f31b a03e
000001a0: e7b9 3e3f a424 c83e 1989 0c3f 35a2 0f3d
000001b0: 255d 62be 9d5c e8bf 61f3 333f db94 6bbd
000001c0: 1b70 d0bf c2b2 e7be 9c93 4ec0 25d3 a43e
000001d0: 33ff 57bf 2b25 53ba 6997 1abf 07c5 c43d
000001e0: 314c ef3d 17bf ac3d b68a b6be 048d 103e
000001f0: 5614 18bf 5c7a ee3e 8b66 383e 8643 78bf
00000200: ed0a 0abf 3ec7 cdbe 44c8 da3c d926 6a3e
00000210: b25a d0be 9c60 79bf 9497 d5be 3844 61be
00000220: eabc 88be 0300 8b3e b19b e53e d6f2 4a3f
00000230: 38d8 c83e 6526 b73f 242d 92bb 08cb c2bf
00000240: 133e 863e 3e4f c1be f445 cfbf 3167 8ebf
00000250: 19ac 18bf 2030 bbbf 70ef c7be 4628 8fbf
00000260: edc9 03bf d8d3 363f 5c8b 7f3f 8623 54bf
00000270: 0fae 843d ace1 25bf 44d9 b6bf 13e7 4c3f
00000280: 7b92 053f 4475 25c0 ecc7 cc3d 43a9 3ebf
00000290: 6c94 cfbe 9ce9 833f 6394 05c0 6b8d ad3e
000002a0: 0b53 39c0 1542 c03f dc38 8fbf 83aa 5d3d
000002b0: 1276 6e3e 7110 56be 26dc 3bbd 11e3 12bb
000002c0: 9a23 ab3f d9d0 bcbf ba43 92bf 452c cebe
000002d0: 8147 24bf f5aa c9bc 4f8d 70be e1dd 9c3f
000002e0: 9ef4 a53e 0db0 643f 3088 abbf e809 43bf
000002f0: 31d6 f6be 5074 3d3f b2c0 b6be 8ee6 7fbf
00000300: 37ba aebf 64a9 8e3f 4f13 293f 18fd cebf
00000310: 3586 2fbd b89c 40bc 8c4c 1b3f 1c7a 40bf
00000320: 085d 383f 70ae d43e 2261 563f ff58 afbf
00000330: 9419 e53f 93fa 07bf fbff 3fbf fe5c a83e
00000340: 2f16 5abf 35de 37bf a519 9d3f aca5 fb3e
00000350: 9a2c 7e3d 7dbb 053e 8294 14c0 ff0f 5c3f
00000360: b98b 83bf 8366 9e3f 5dd9 9e3d 06f6 2bbf
00000370: 9665 e3bd 3580 54bf 15df 8bbe e7c6 b4bf
00000380: 8c06 f1bd 22b7 f83f d831 8abf 99b4 eabf
00000390: ad3c 063f ddbc 633d a049 d0bd 2469 41bf
000003a0: 0305 6dbf a03d c73e 7e79 d9bf ea17 2abf
000003b0: add3 a5bf e668 22bf 5be0 043f c721 51bf
000003c0: 6a41 ba3f 3ac2 c7bf c6ec 5cbe 06ac 773f
000003d0: f4f4 9fbf 84d7 d8bd 8b1e 06be f35d cebd
000003e0: 43e9 dfbd 9c08 8fbf 9c4e 8abf 3d80 8ebf
000003f0: e640 39bd cae3 e73e 27ae 21be 7ab7 693d
0.40620288 0.4374839 -2.9605334 -0.26894525 1.700655 -0.84508157 -2.6968389 -0.5340731
-0.2649431 1.1060321 2.0498867 -1.2090442 1.0204184 -0.5244742 0.38619196 2.5105207
0.827189 0.7846375 -1.1130136 -0.35352543 -0.39409232 0.97224975 0.04105998 -0.35492343
-1.2412661 0.06563613 1.3540725 1.4275197 -2.4559422 0.7677046 -0.92776173 -1.0725161
-0.48252243 -0.42444563 0.8496368 -0.79497176 -0.47142595 0.9920202 -1.1017637 1.20866
-2.6135771 1.9969028 -0.89237255 1.379868 -0.0025859256 0.8088729 -0.8517637 0.80533105
-1.9990319 0.70715654 0.24650371 0.32192868 0.78440017 -0.8213387 0.9835156 0.29669866
1.3779525 -0.0673684 0.69343394 2.0079978 -0.11972611 0.5178081 -0.27199757 -2.7293046
1.8769577 0.037216894 0.8391117 -1.3986595 -1.4549159 -2.709138 0.30060422 -0.9475921
1.066105 -0.19616503 1.0755613 -1.4948168 -0.55461115 -1.9986324 2.7077518 0.30774432
0.37771398 -0.47825858 0.49687427 -1.1697037 -2.0334427 2.410981 -5.416127e-05 0.650942
-0.40450707 0.4124651 -1.5203846 -0.5245059 -1.3763764 -0.2877761 0.6109286 0.35373488
-0.9819767 0.77748156 1.1762196 -0.37489325 0.13146687 -0.93065244 -0.9997699 0.31271324
0.74502414 0.39090455 0.54896694 0.035066802 -0.22105844 -1.8153263 0.7029324 -0.057515007
-1.6284212 -0.4525357 -3.2277594 0.3219234 -0.8437378 -0.00080545497 -0.60387284 0.096078925
0.11684454 0.08434885 -0.35652703 0.14116293 -0.5940603 0.46577728 0.18007867 -0.9697803
-0.5392292 -0.40191072 0.026706822 0.22866382 -0.40694195 -0.9741304 -0.41717207 -0.2199868
-0.2670663 0.27148446 0.44845346 0.7927679 0.39227462 1.4308592 -0.0044609476 -1.521821
0.26219234 -0.3775577 -1.6193223 -1.1125242 -0.596376 -1.4624062 -0.39049864 -1.1184165
-0.5147999 0.71417 0.9982202 -0.82866704 0.064785115 -0.6479747 -1.4285054 0.8004009
0.52176636 -2.5852823 0.099990696 -0.7447702 -0.40542924 1.0305667 -2.0871818 0.33896956
-2.8956935 1.5020167 -1.1189227 0.05411769 0.23287228 -0.2090471 -0.045864247 -0.0022413174
1.337024 -1.4751235 -1.1426919 -0.4026815 -0.64171606 -0.024617651 -0.23491405 1.2255212
0.3241319 0.8933113 -1.3400936 -0.7618699 -0.4821029 0.74005604 -0.3569389 -0.99961174
-1.3650578 1.1145444 0.6604509 -1.6170988 -0.0428526 -0.011756115 0.60663676 -0.75186324
0.72016954 0.41539335 0.8374196 -1.3699034 1.7898431 -0.5311672 -0.7499997 0.32883447
-0.851901 -0.71823436 1.2273451 0.49149835 0.062054254 0.13059802 -2.3215642 0.8596191
-1.0277015 1.2375034 0.077563025 -0.67172277 -0.1110336 -0.8300813 -0.27318636 -1.41232
-0.11768827 1.9430888 -1.0796461 -1.8336364 0.52436334 0.055600036 -0.10170293 -0.75551057
-0.9258577 0.38914204 -1.6990201 -0.6644274 -1.2955223 -0.6344131 0.5190484 -0.81692165
1.4551213 -1.5606148 -0.21574697 0.9674686 -1.2496629 -0.10587981 -0.13097589 -0.10076513
-0.10933163 -1.1174502 -1.080524 -1.1132885 -0.045227908 0.45290977 -0.1578909 0.057059743

lin1.weight f4 [3, 7]
00000000: 9b04 763f 1a56 19bf 34a8 00bf 755c f2be
00000010: 5b59 943e b62c d43e 10c5 e33e 9308 013f
00000020: c19e 48be 4a2d fc3e 2660 3d3f efb1 8a3e
00000030: b765 ff3e 3e4d 493e 356b 37bd c7d5 803f
00000040: b97c e5be 6094 073d 2ca9 0fbf d282 df3e
00000050: b4bc 26bf
0.9610078 -0.59897006 -0.5025666 -0.47336164 0.28974423 0.41440362 0.44486284 0.5040371
-0.1959181 0.49253303 0.73974836 0.27088878 0.4988229 0.19658372 -0.044779975 1.006524
-0.44821718 0.033100486 -0.5611751 0.43654495 -0.6513169

lin1.bias f4 [3]
00000000: 993d c4be b25e b4be 8c91 463f
-0.38328245 -0.35228497 0.77565837

lin2.weight f4 [41, 3]
00000000: e4d9 683f 56fc 8ac0 a549 45c0 2ba8 983f
00000010: 6177 b7c0 454f 6ec0 6914 22bf 8ba2 d93f
00000020: 3d37 98bd 5ef4 703e b3aa 89c0 79fa 12c0
00000030: f804 97bf e0a5 7540 1b48 91bf ce39 d83f
00000040: 53cc 9440 2ffa 9cc0 f4fe 943e 5df0 aec0
00000050: 1be7 0ac0 451c abbf a765 f4be 8b92 0bbf
00000060: 0e33 8abe a9aa 4440 e575 3fc0 10f1 74c0
00000070: 9073 cc40 fc75 05c1 f895 91bf 1c21 6d40
00000080: cb0e 3fbf 44cd cbbe 5a7a a8c0 09b0 aebf
00000090: 7ea6 ecbe bc72 12bf 1864 b2bf 3d56 3bbf
000000a0: 78ab 54bc 43db 0fc0 f6b4 b5bf def3 ecbd
000000b0: 0d17 5040 e1bc 1f3f aa2c 2540 83d9 4c3f
000000c0: 840e 6f3f 992d 9b3f f439 4f40 66d0 bc3e
000000d0: e84c 0e3f bb36 2f40 6ba8 febf 5ec7 ddbf
000000e0: fe66 1a40 5f26 a33f 9b24 4640 bbfb b0bf
000000f0: 9483 1640 e8d5 c43f d3b6 7f40 0c5e b6c0
00000100: 572c 903f 11c7 d9bf 007b ecbf 6607 923e
00000110: 69f7 883f 6a9d bbbf eb73 8d40 4a9c 07bf
00000120: cec8 ca3f 8ac4 2940 94b3 a73f 89fd 493e
00000130: e7e3 2b3f ae00 7c3e f7aa 3e3f 39e5 2d40
00000140: bdc7 89bf 82af 1b40 9796 2840 7e21 3ebf
00000150: 1f07 95bf 2961 b13e b89e 553f ccc4 d5be
00000160: 7975 ed3f b983 41be 269f 9e3e 07b5 1740
00000170: d19b bf3f c95f 563f b5b6 a83f bd63 0dbf
00000180: eb58 653f 532b e93f c321 093f 0fc5 523f
00000190: 2819 dc3f a370 0040 f068 24bf 71b4 3d3f
000001a0: de21 9abf 95d2 bf3f f3ed a73f 9ffe a03f
000001b0: d2fb c9bf efc1 8440 1472 33c0 35f6 1440
000001c0: 0aba 863e b263 16bf c46a d0be b5b2 083e
000001d0: eb93 623f 24c3 7440 8ba7 9840 28b8 8fbd
000001e0: 35ac cbbf 16d4 debf 000d 4bbf
0.90957475 -4.3433027 -3.08262 1.1926321 -5.7333226 -3.7235882 -0.63312393 1.7002729
-0.07432411 0.23530719 -4.3020873 -2.2965376 -1.1798391 3.8382492 -1.135013 1.689264
4.649942 -4.90554 0.29100764 -5.466841 -2.1703556 -1.3368002 -0.47733805 -0.5452048
-0.26992077 3.0729163 -2.9915707 -3.8272133 6.3891068 -8.341305 -1.1373892 3.7051458
-0.7463195 -0.39805043 -5.2649355 -1.3647472 -0.46220773 -0.5720632 -1.3936796 -0.73178464
-0.012980334 -2.2477577 -1.419585 -0.115699515 3.251407 0.6239758 2.580851 0.80019397
0.93381524 1.212329 3.2379122 0.36877745 0.555861 2.7377155 -1.9895147 -1.7326467
2.4125361 1.2746085 3.0959842 -1.3826822 2.351781 1.5377779 3.9955337 -5.6989803
1.1263531 -1.7013875 -1.8475037 0.2852127 1.0700504 -1.4657414 4.4204 -0.52972853
1.5842531 2.6526208 1.3101678 0.19725622 0.67144626 0.24609634 0.7447962 2.7171156
-1.076408 2.4325871 2.6341913 -0.74269855 -1.1642798 0.3464444 0.8344531 -0.41751707
1.8551475 -0.18897904 0.30980796 2.370424 1.4969426 0.83739907 1.3180758 -0.55230314
0.89588803 1.8216347 0.5356714 0.8233194 1.7195177 2.0068748 -0.6422262 0.74103457
-1.2041585 1.498614 1.3119491 1.2577704 -1.5779974 4.1486735 -2.8038378 2.3275273
0.26313812 -0.5874587 -0.40706456 0.13349421 0.88506955 3.8244104 4.770452 -0.07017547
-1.5911928 -1.7408473 -0.7931671

lin2.bias f4 [41]
00000000: af50 b1bf dfe7 4e3f b7c6 8bbd 95c0 06c0
00000010: 9dd5 8cc0 cd34 5fc0 f96d 20c0 7377 67c0
00000020: 0dd4 eac0 a649 89c0 6bc1 7bc0 b1d6 8cc0
00000030: 59e8 7ec0 6097 06c0 c440 553e 4787 883e
00000040: b540 24bf 1a55 15be d20b 063f 5004 833f
00000050: 439f 0ec0 9503 f6be abfc b33f 75f4 6ec0
00000060: f979 aabf 6b7b ae3f 2df2 f83f 2438 ff3f
00000070: e7ed dc3f e55b 943f e61d 32c0 a3a1 0740
00000080: e5e4 0040 5dd9 b73f 48a6 bc3f 98e3 13bf
00000090: ae85 b43f 6bb3 dabf fa07 0b3e 443b 8dc0
000000a0: db73 89c0
-1.3852748 0.8082256 -0.06825011 -2.1055043 -4.401076 -3.4875977 -2.5067122 -3.6166656
-7.338385 -4.2902403 -3.9336803 -4.4012074 -3.9829314 -2.1029892 0.20825487 0.26665708
-0.64161235 -0.14583245 0.52361786 1.0235691 -2.2284706 -0.48049608 1.4061483 -3.7336705
-1.3318473 1.3631414 1.9448906 1.9939008 1.7260102 1.1590544 -2.7830749 2.1192405
2.0139706 1.4363209 1.4738245 -0.57769156 1.4103296 -1.7086004 0.13577262 -4.4134846
-4.2953925
