Models_Q1/Model-b6-e32-h64.pth (torch, 67741 bytes, 5 tensors)

emb.weight f4 [41, 32]
00000000: 6edc 49bd d3d1 033f e0e9 0240 e593 17be
00000010: 3316 27be 3ae4 ce3f 1d24 303f e9c5 1bc0
00000020: 3f06 1a3e 8601 d03d f74c 123f 67d4 b53f
00000030: dd0a 963f 3044 8dbf ffa2 c03f cb9c 3a3f
00000040: 6156 93bf ac3f 4c3f f2b7 b0bf 025b 123f
00000050: c38e 80be bd8f eb3f 2b7a be3f a29a 243f
00000060: 7c01 f43d 1d79 e43f 788a 8abf fb75 4040
00000070: 6e31 1b3e f959 44bf ff18 f73f 5498 a9bf
00000080: 646e f83e 10e1 c23e 3069 20bf ab64 6abf
00000090: e8f3 63bf fcba 203f e0ff 293f cc84 343e
000000a0: 30f0 213f e3f6 89be 319e e1be d26f c33f
000000b0: 4d81 933e d13f 14bd 4cfe 713f 1e1e b03e
000000c0: 01dc 243f 293b 41bf ecdd 7e3f 5f8c d73d
000000d0: 10bc b9bf 2b8f e0be c693 27c0 e766 8b3f
000000e0: a8dd d0bf 953f 043f eee8 3e3f 1151 473f
000000f0: bc28 523f 54a2 c73f 7d6e 48be b1ee 53bf
00000100: 9e3d 91be 42e2 1a40 e1db d93f d88c 80bf
00000110: f31a c8bf 08f0 943d 196c 72bf 22cc 08c0
00000120: 716d c1be c648 0f3f ff1d 2cc0 e9a6 623f
00000130: f080 463f 45c6 3abf f0cb d73e 9e67 7a3f
00000140: 2d47 d0bf abd2 f5bf 7295 463f b9c2 f73f
00000150: d252 0dbf d919 0dbf 5259 973f 2a35 cabe
00000160: 4b9f 893f 24e6 cfbf 4808 cbbe fc7f d9bf
00000170: 7bda 9e3f 92ed 163f d486 afbf 30db 54bf
00000180: f46d 863f 4c60 d33e d895 8bbd fb2c 9a3f
00000190: f273 1f40 f17e 173f 049c 833b a692 2c3f
000001a0: 9d22 533f 2992 cbbe 6feb 00c0 ec77 f5be
000001b0: e766 fcbf 1420 e63c 372d 9c3e 0da4 69bf
000001c0: 614c 99bf 70af 4f3f c795 3640 d7df e9bf
000001d0: fc22 543f 6c6a 9c3e 9d10 f23e 6c5d b53d
000001e0: 47cc f43f 7d3e b3be 2753 14c0 b7f1 4b3f
000001f0: 946f c1bd ad70 b1bd 9008 bc3f 21e8 c0bf
00000200: b174 c23d 0ad7 0e3c b38e 5cc0 2889 9abf
00000210: d8e6 f13f 6a50 88bf 404e 16c0 d550 713e
00000220: cde7 5bbf 778c abbf 84a7 3f3f 907f f43e
00000230: 2f55 46c0 9620 75be 8823 12c0 6e1f 043e
00000240: e185 3ec0 c7df 4f40 22c6 cf3d 3ecc b03e
00000250: 2f91 d33d bf05 a13f 035e c5bf 72bf 013f
00000260: ea90 04bf 89f1 e2bf 4ac9 debf 1e15 3540
00000270: b92e 1040 ba1d 4d40 0280 4940 6747 75b8
00000280: 7e78 44c0 6aa6 6440 35e6 cc3f 75fa 133d
00000290: 239d a83f 0641 073f 4671 c5bf cd74 c23f
000002a0: 34d0 693f 8da0 4d3f c30b e7bf 0426 0b3f
000002b0: 177d c73f 0633 31c0 5a00 373e 04c7 dcbf
000002c0: 7605 b0bf 3b10 c7bf 694f 143f e5e2 84bf
000002d0: 976f 263f 3908 a7be cc1b c83f 38bc 58bf
000002e0: cc48 e2bf 9646 633d f08d ebbf b1ea 963f
000002f0: 77f7 0d40 760e 2040 4130 ef3f 3d77 8f3f
00000300: 9d53 13c0 6f58 de3f d7cd 283f a718 04bf
00000310: 0eab 9e3f b80a 9bbf eab5 bb3e f882 6d3e
00000320: 31ee 10bf fcf5 a0be 4092 d6bd 6343 6cbf
00000330: 72eb 2d3f 55d6 57bf b3a6 923f adc8 3740
00000340: c1f7 0440 233e 8abf 8c4d 943f 68c1 503f
00000350: 96d9 4240 ae64 2840 ab30 d03f 1c40 1cbf
00000360: 2189 933f 4160 603f 663e 293f 4c8d 803e
00000370: f172 40bf ff80 f4be 1b7e 293f cd93 ff3e
00000380: 1065 c63e 0d6a c8bf 35ab 9940 4aaa a7bf
00000390: baa5 8940 068b 18bf 6b54 95bf b342 1ec0
000003a0: cca7 2640 4079 2640 dfb0 27c0 9a5e 8640
000003b0: 5163 e5bf f9b8 42bf bc55 b83f 7cba 69c0
000003c0: 619f 4fc0 0d03 b2bf f195 983e 7196 ddbf
000003d0: e48b 58c0 8b50 3440 be90 babf 5677 dabd
000003e0: 3a08 a0bf dac7 dabf d0b6 6dbe 2295 36c0
000003f0: fa4e f0bf 9c31 98c0 61a3 80c0 cf3f 743e
-0.049282484 0.5149204 2.0455246 -0.14802511 -0.16317062 1.6163399 0.68805104 -2.4339545
0.15041445 0.101565406 0.5714869 1.4205445 1.1722065 -1.1036434 1.5049742 0.728955
-1.1510736 0.79784656 -1.3806136 0.57170117 -0.2510892 1.840324 1.4881033 0.6429845
0.119143456 1.7849461 -1.0823507 3.007201 0.15155575 -0.7669979 1.9304503 -1.3249612
0.4852172 0.38062334 -0.62660503 -0.9155986 -0.89044046 0.62785316 0.6640606 0.17628783
0.6325712 -0.26946172 -0.44066003 1.52685 0.28809586 -0.036193673 0.9452865 0.34397978
0.643982 -0.75480896 0.99557376 0.105248205 -1.4510517 -0.43859228 -2.6183944 1.0890778
-1.6317644 0.5165952 0.7457417 0.7785807 0.82093406 1.5596414 -0.19573398 -0.8278609
-0.28367323 2.4200597 1.7020227 -1.0042982 -1.5633224 0.07272345 -0.94696194 -2.1374593
-0.3777881 0.5597042 -2.6893308 0.88535935 0.77540493 -0.72958785 0.4214778 0.9781436
-1.6271721 -1.9204916 0.77571785 1.93563 -0.552045 -0.55117565 1.1824133 -0.39493686
1.0751737 -1.6242108 -0.39654756 -1.6992183 1.2410425 0.58956254 -1.3713021 -0.83146954
1.0502305 0.41284406 -0.0681569 1.2044977 2.4914517 0.5917807 0.0040164012 0.6741127
0.8247469 -0.3975995 -2.0143697 -0.47943056 -1.9718903 0.028091468 0.30503246 -0.91265947
-1.1976434 0.8112707 2.8528917 -1.8271435 0.8286588 0.30549943 0.472783 0.088557094
1.912484 -0.35008612 -2.3175752 0.796657 -0.0944511 -0.08664069 1.4690113 -1.507084
0.09494913 0.0087182615 -3.4462097 -1.2073107 1.8898573 -1.064954 -2.348526 0.23565991
-0.85900575 -1.3402241 0.74864984 0.47753572 -3.0989492 -0.23938212 -2.2834187 0.12902614
-2.9769213 3.2480333 0.10145213 0.34530824 0.10330426 1.2579879 -1.5419315 0.5068275
-0.5178362 -1.7729961 -1.7405179 2.829414 2.2528517 3.2049394 3.148438 -5.847905e-05
-3.0698543 3.572657 1.6007754 0.036127526 1.3172954 0.5283359 -1.5425193 1.5191895
0.9133332 0.80323106 -1.8050464 0.5435488 1.5585049 -2.7687392 0.17871228 -1.7248235
-1.3751667 -1.5551828 0.5793367 -1.0381743 0.6501402 -0.3262346 1.5633483 -0.846622
-1.7678466 0.055487238 -1.8402691 1.1790372 2.218229 2.5008826 1.8686601 1.1208264
-2.3019783 1.7370738 0.65939087 -0.51600116 1.2395952 -1.2112646 0.36662227 0.23194492
-0.5661345 -0.3143767 -0.10477114 -0.92290324 0.67937386 -0.8431142 1.1457123 2.8716233
2.0776217 -1.0800213 1.1586165 0.81545115 3.0445304 2.631145 1.6264852 -0.61035323
1.1526223 0.8764687 0.6611084 0.251078 -0.75175387 -0.47754666 0.66208047 0.4991745
0.3874898 -1.5657364 4.8021493 -1.3098843 4.3014803 -0.5958713 -1.1666387 -2.472821
2.6039915 2.6011505 -2.6201704 4.199048 -1.7920934 -0.76063496 1.4401164 -3.652007
-3.2441027 -1.3907181 0.29801896 -1.7311536 -3.3835382 2.817416 -1.4575422 -0.10667293
-1.250251 -1.709224 -0.23214269 -2.8528523 -1.8774102 -4.756056 -4.0199437 0.23852466

lin1.weight f4 [64, 192]
00000000: e214 00bd f435 c1bd 87b6 3f3d 2d4e 35bd
00000010: 6f89 9abc 156a ab3c 17a4 99bd aa7f 303c
00000020: ed27 edbd cd73 103e cc84 abbd 8d68 af3d
00000030: ecbd 9c3d 621c cebd 592f 433e ed53 a83d
00000040: e675 133c 3d00 f83c 9652 0a3b 96a0 9cbd
00000050: e2b6 89bd 8384 0e3c 3f95 45bd 7f56 17bd
00000060: 3c4c bdbc 6776 11be 4630 4fbd d40f 8f3d
00000070: 0fb8 08bd 280a 253d cc36 b83d 8011 b73d
00000080: 838a 213e d77b 80be 7cdd 69bd 2887 463e
00000090: 09fb 983b bae8 bfbd d731 f9bc ea9c 8a3d
000000a0: 4612 9c3d 6b4f 94bd 9355 353d 0fb7 d73d
000000b0: 0200 61bd d7c9 1cbe af0c 683d 9bae 8cbd
000000c0: a5fa 243e 5e59 bfbd 4c6c 0dbe 7ca7 333d
000000d0: bd33 cd3d 36e6 853c d11c 74bb 1a93 d43d
000000e0: 9c6a 12bd afad 2abd 7c58 a0bd af28 e8bd
000000f0: b947 22bb 7017 043e 4271 c93d 6551 c33d
00000100: bb4c eabd 8a3e a93d 00f8 fd3c f9a2 123d
00000110: 7a82 233e b473 e9bd d59b a0bb 3806 ea3c
00000120: d425 153e 1229 a4bd 19d8 42bd bd87 403e
00000130: e4f3 8a3d 0c1c 23bd 0769 163d c602 63bd
00000140: 4354 15bd 6e8d 98bd 3d6f 133e e17f cf3d
00000150: dbd7 f33a 9035 123d 1b27 97bd 5f54 0a3d
00000160: 79bc 9bbe 4d03 72bd aeab 173e 6373 603e
00000170: 0748 09bd 11e1 02bc ebf2 373e 74e4 68bd
00000180: 278a 1c3e 0f29 dbbd 831e 1bbe 786f 55bd
00000190: e715 803d 6705 36be 38e7 9ebe 2304 143e
000001a0: fc39 7bbc 5b72 62be 34c2 c63c 4e02 e93d
000001b0: f745 033d 3a13 173e a075 59bc c703 56be
000001c0: c203 64be 362b 353e 50ec 4bbe 7960 67be
000001d0: fba1 a73e c65d 873d f3ed e0bd 05e0 65bd
000001e0: 3e3b 543e 4010 983e ceb0 903d d768 723d
000001f0: e081 57bd dd9b b53d cf28 263e cd93 04be
00000200: 11ba d5bd 4bed 7abe 8ba0 2abd ad57 fd3c
00000210: cade 83be daba 0b3a cd76 663d 62da a83c
00000220: af24 64bd 0ce5 633e 5de7 d7bd 09ea a4bc
00000230: 3236 1dbe bd27 c8bd 5636 28be 96b3 60be
00000240: c656 efbe fdb3 43bb f458 a43d 10a4 723d
00000250: 667e e7bd fddc 873e 61e5 1dbe 1ba3 8d3e
00000260: c5e0 2abd 8ca0 45be e647 8b3e 6ade 1e3e
00000270: 9e9e 9c3e 4e75 4d3d 3c5f a1bd e7c5 0cbe
00000280: 6362 07bd e9e0 6e3e b349 9a3e 072f 753e
00000290: 47bb 01bd bc91 453e 4390 503e ff5c 2bbe
000002a0: 65d3 9d3d 8c1b 1cbd c9c4 1a3e 5c0e c93d
000002b0: a337 86be d9e6 723d 55d9 e83d 457b 46be
000002c0: e185 063e ff74 993c ff1f b73d e51e 61be
000002d0: 1e77 683e 80d2 a43d 8911 ff3b 47bc cbbe
000002e0: 5829 993e 9c57 3ebe 74d9 9dbe 2a6d d6bd
000002f0: 5d43 83bd 3934 63bd 9e30 bc3d 29cc ffbd
00000300: 8098 0e3b bc16 39bd 629a 3fbd 53f9 c43d
00000310: 05fc c63d efc9 9ebe 1ebf 27bc 95d6 09be
00000320: debf cd3d ecc1 813d 25f1 723e 0558 233e
00000330: 51af 173e 4ee1 e13d fb84 233c 5709 f6bd
00000340: 3959 5a3d f93c 93bd d4fc 5a3e c655 d63c
00000350: 850c aabb 258e 91bc 896f 5a3d ea7b c4bd
00000360: aff6 013e 1dcb cabd 3382 193e e7a3 98bc
00000370: ddf4 013e 1f58 e7bd b673 113d 2f2f db3e
00000380: efd2 bdbc e9ad 2abc 65f1 80be d8b3 263e
00000390: 965d 30bc 3faa 083e 9a5d ab3d 0e13 313e
000003a0: 5157 9ebe a23e 283e b791 543e de32 033e
000003b0: 533c 27be a5d6 f13d 973d fb3d 3f32 8bbd
000003c0: cb83 f4bd c391 54be ed9a 3bbe 1859 2a3e
000003d0: 1c49 c93d caa5 e1bc 4cf4 18be ce0c 13bd
000003e0: 3f2e edbc f780 3a3e a5ab 5abd 502f b23d
000003f0: 6b43 f23d d545 943b dd31 56bd e38c 493d
-0.031269915 -0.09434119 0.04680493 -0.044264007 -0.018864362 0.020924607 -0.07502001 0.010772625
-0.11579881 0.14106674 -0.08374938 0.08564863 0.07653412 -0.10064007 0.1906103 0.082191326
0.009000277 0.030273551 0.0021106354 -0.07647817 -0.06724335 0.008698585 -0.048238035 -0.036947723
-0.02310764 -0.14205323 -0.050583147 0.06985441 -0.033378657 0.04029289 0.08994827 0.08938885
0.15775494 -0.25094482 -0.05709599 0.19387496 0.0046685976 -0.09370561 -0.030419273 0.0676821
0.07620673 -0.0724171 0.044271063 0.105329625 -0.054931648 -0.15311371 0.05665272 -0.06869241
0.16111238 -0.09343217 -0.13810843 0.043860897 0.10019634 0.016345125 -0.0037248621 0.1037962
-0.035746202 -0.041669544 -0.07829377 -0.11335885 -0.0024761988 0.12899566 0.09836055 0.09537009
-0.114404164 0.082638815 0.031002045 0.035799954 0.15967742 -0.11399022 -0.004901389 0.028567418
0.14565212 -0.08015646 -0.047569368 0.1880178 0.067848 -0.03982167 0.036721256 -0.055422567
-0.03645731 -0.074488506 0.14397903 0.10131813 0.0018603759 0.035695612 -0.07380506 0.03377187
-0.3041723 -0.05908518 0.14811584 0.21919017 -0.033515956 -0.00798823 0.1796376 -0.056858495
0.15287076 -0.10701191 -0.15148358 -0.052108258 0.062541775 -0.17775498 -0.3103578 0.14454703
-0.015333649 -0.22113936 0.024262525 0.11377393 0.032049146 0.14753428 -0.013272673 -0.20899878
-0.22267058 0.17692265 -0.19914365 -0.22595395 0.3274077 0.06609683 -0.10982885 -0.056121845
0.20725724 0.29699898 0.07064973 0.059182014 -0.052614093 0.08867619 0.16226505 -0.12947007
-0.1043588 -0.24504583 -0.041657012 0.030925596 -0.25755912 0.0005330272 0.05626564 0.020611946
-0.055699047 0.22255343 -0.10542176 -0.020131128 -0.15352705 -0.097732045 -0.16426978 -0.21943507
-0.4674589 -0.002986192 0.08024779 0.059238493 -0.113034055 0.26535788 -0.15419532 0.27663502
-0.041718263 -0.19299525 0.27203292 0.15514532 0.30589765 0.0501607 -0.07879493 -0.13747369
-0.033052813 0.23327984 0.30134353 0.23943721 -0.031672742 0.19293875 0.20367531 -0.16734694
0.07706336 -0.03811221 0.1511413 0.09817192 -0.26214322 0.059302185 0.11369578 -0.19382961
0.13137008 0.018732546 0.0894165 -0.21984442 0.2270169 0.08047962 0.007784073 -0.39792082
0.29914355 -0.18588108 -0.30829966 -0.1047004 -0.06409333 -0.055469725 0.091889605 -0.12490112
0.0021758378 -0.045187697 -0.04677809 0.09617867 0.09716038 -0.31013438 -0.010238437 -0.13460763
0.100463614 0.06335816 0.23724802 0.15951546 0.14812972 0.110293016 0.0099804355 -0.120135
0.053307746 -0.07189364 0.21385509 0.026163947 -0.0051894807 -0.017767975 0.053329024 -0.09593947
0.12691759 -0.09902022 0.14991073 -0.018632842 0.12691064 -0.11296105 0.03551074 0.42809436
-0.02317187 -0.01041744 -0.2518417 0.16279542 -0.0107645 0.13346194 0.083674625 0.17292425
-0.30925992 0.16430143 0.20758711 0.12812373 -0.16331606 0.11808518 0.12267607 -0.06796693
-0.119392 -0.20758729 -0.18320818 0.16635549 0.09828398 -0.027544875 -0.14936942 -0.035900883
-0.028952716 0.18213259 -0.05338635 0.087004304 0.11829265 0.004524926 -0.052293647 0.049206626

lin1.bias f4 [64]
00000000: 9831 903e 8b5c 1bbd 75fb 31be 534f cebc
00000010: 5c12 5dbe cfb5 693d fc66 303d 030a 02bd
00000020: f61c 29ba d43f a1be 0618 103d a79c aabd
00000030: b911 623e 31df 463d f49c 0c3e db34 e53d
00000040: 844e 943d 74eb b1bd 71db 4ebe 3a59 d5bd
00000050: 8a24 d6bd e927 5fbc 63a6 963d 5eaf a6bd
00000060: fad1 f2bc 07b2 faba d6e2 cabd 4ae9 9a3e
00000070: ad57 ad3c 8778 ebbd 0be4 083e b6b7 8dbe
00000080: d84c 2bbd 1789 3f3d 8f52 933d 5a63 fbbd
00000090: bd47 01be bd94 943d 14e0 babc 5828 47be
000000a0: beea 393d 67f1 17bd 058f 78be c7c7 b1bd
000000b0: 1407 8b3d c6cf fcbd 86f4 dfbd 127d 273e
000000c0: d838 69bd 87d8 833d 86f2 0d3e a385 17be
000000d0: 7808 15be 9be4 5f3e f1e4 363e be89 1fbe
000000e0: cfde a8bd 690d f83d e009 e33d 7c35 37bc
000000f0: f030 ba3d 5e0b 7b3d 8b17 b13d 146b 2bbd
0.28162837 -0.037930053 -0.1738108 -0.02518431 -0.21589035 0.05705815 0.043066964 -0.03174783
-0.0006451154 -0.3149401 0.03517916 -0.0833066 0.22077073 0.048552696 0.13731748 0.11191722
0.07241538 -0.08687487 -0.20200898 -0.10417409 -0.10456188 -0.013620355 0.073559545 -0.081389174
-0.02964114 -0.0019126543 -0.09906547 0.3025611 0.021159971 -0.11497598 0.13368241 -0.27679223
-0.04182133 0.0467616 0.07193481 -0.12274809 -0.12625022 0.07254932 -0.022811927 -0.19448984
0.045389883 -0.037095454 -0.24273308 -0.08680683 0.067884594 -0.12344317 -0.10935311 0.16356304
-0.056938976 0.06437784 0.13862047 -0.14797072 -0.14554012 0.2186455 0.17860772 -0.15579888
-0.08245622 0.12111933 0.11085868 -0.011182185 0.09091365 0.061290137 0.086470686 -0.041850165

lin2.weight f4 [41, 64]
00000000: 3482 fb3e 4255 93bf 9421 cdbf 2fab 713f
00000010: d6ff 903f 26ae 313e 69b0 5fbe e1f9 c03f
00000020: 8a46 0dbe 79d3 553f 3db0 bf3f a81b ae3e
00000030: 63a5 b83e c8f7 e93d 6ba1 85be 9f36 ea3f
00000040: b418 943e 09c8 6ebd c09a 1e3f 32f0 3f3f
00000050: cc17 3dbf 592e 423f 3eff b5bf af17 fbbe
00000060: 54f7 7dbf 4131 a0bf 1b7e 3d3f 56cf bc3e
00000070: 17b3 8b3f d972 49bf 13d0 e83e e376 44bd
00000080: b2ad 7c3f b5dd 72bc 05b2 af3e 9354 0ebf
00000090: c901 98be 397e 923f 6ec3 a03f 74e4 d3bf
000000a0: 0018 993d 0761 b6bf c84f a43f 7646 75be
000000b0: 1362 4bbf 4fdf 62bf 01fe 50bf a0ab 85bf
000000c0: 1a2d 1d3f 7c3d 4fbf af1c 813f aba2 3bbf
000000d0: 59a5 a0bd 4da1 d73e e060 723f 544b 87bf
000000e0: e066 513f bf78 193f d4fc 12bf 85fd 893b
000000f0: c018 5f3f 2827 1fbf af94 48bf 6a80 21be
00000100: cf75 a83f 54db bf3d 517f 6cbf d8fd a43f
00000110: 0339 97bf bb7f da3e 8b59 c53f 8baa 87bf
00000120: 903e 113f 2c4a 4dbf 13f6 b63f c83d a3bf
00000130: b750 ae3f f25e b2bf 4105 673f 57de 9d3f
00000140: d8bc b8bf 238f 55bf 7386 193d 0aa6 82bf
00000150: 4594 8cbf a279 d63e 2f62 823f 5809 c73e
00000160: 67b8 81bf 7e79 1bc0 84fb dabe 9f94 823f
00000170: 7f92 95bf 092a 9bbf 634d f33e 6aa9 98bf
00000180: 0894 fbbc 4de7 cabf b91e 7d3f 314f 9fbe
00000190: bebf 8cbf 7971 a43f 0ad0 563f 516a dcbf
000001a0: db10 253f 7d41 d4bf fb9a 84bf b640 c03f
000001b0: 3abe 78bf 2ab1 76be 3df2 93bf 431d 093f
000001c0: b95d 063f 3a99 8cbf c2b5 0240 057d 293e
000001d0: c25f aebf 649f 0cbf 7bd5 2b40 f40d ef3d
000001e0: b48c 6cbf 5574 603f 440d 3a3f 1778 bbbd
000001f0: f244 903f dad5 87be 6e90 493f 2463 62bf
00000200: 2976 0ebd fac8 69bf 4409 8abe c060 023f
00000210: bba6 87bd a1d2 bdbe 594b 82bd 90c3 9ebe
00000220: b5ac 213f b62f cd3b 8a5a 873f e26f 5dbf
00000230: aaa3 8abf 5466 2a3f f23d b1be 37c6 b33f
00000240: 2cd6 69bf b6e7 163c 7d56 6f3e 622e 693e
00000250: a867 743f 45c1 41bf 210f a93c 532e 553e
00000260: fe26 05bf f484 d03e 94a5 9f3f 59cc c73e
00000270: c942 133f 7991 8fbe 6100 bd3e bd7c a73f
00000280: 108c d23f f7db 3dbf 547e 2abf 00cb 9cbf
00000290: d6e1 f6be 2de7 75bf 3d83 11bf aa9f b9bf
000002a0: 9e05 813f f3b0 23bf 19c2 173f 944f d23e
000002b0: e243 51bf a5e1 8d3f 5b49 0d3f f05e 5abf
000002c0: 9ffd ce3d f0a9 3fbf 96e3 733f 3e4e 423e
000002d0: 4d9a c33c feb9 91bf 461c 043f 7279 4d3e
000002e0: 59e6 aa3f b9f4 a4be c854 a7bc d8cc 85bf
000002f0: c309 063f 5da0 c13f 2fa5 11be 744f 8b3f
00000300: 63a3 c93e 3be2 09be a81a bd3d 48dc b5be
00000310: e08c ea3d 88f7 873f 1617 9ebe 4c1a 3abf
00000320: 72aa b2bf 5853 483c 9efb c23f 265b 9abe
00000330: a9f6 1a3f 414d 6cbf c6c8 bbbf 0598 633f
00000340: a95f c63f d294 583f 3af6 573f ef25 1abf
00000350: 9f1d 903e b7d3 03bf 5047 fbbc eb8a cfbf
00000360: 8846 6fbf 86a3 a0bf cc81 b4bf 573f 083f
00000370: 179a a73e 4a37 403f 39db 68be 6629 a63f
00000380: 6d54 d3be d2f8 fcbe e8c4 c03e 3109 88be
00000390: 14da 963e 3bf3 223e f921 dd3e b823 79bf
000003a0: 2226 103e c0f3 62bf ce08 a0bf a01b 9fbd
000003b0: 6468 5e3f 8443 273f ffef 1fbf 45a6 033f
000003c0: 314e ed3d b1ef f9be beb7 583f d5f7 eebd
000003d0: 1f67 a1bc 8867 0bbf 72a9 50ba 80f0 683d
000003e0: e18b e83e 8b44 97bc 8ce9 b93c 4860 083f
000003f0: 4de9 18bf 9442 01bf b40c 94bf dd31 4b3f
0.49122775 -1.1510394 -1.6025872 0.9440183 1.1328075 0.17351589 -0.21844639 1.5076257
-0.1379644 0.83525807 1.4975659 0.34005475 0.3606368 0.11424214 -0.26099715 1.8297919
0.28925097 -0.058296237 0.6195488 0.74975884 -0.73864436 0.7585197 -1.4218519 -0.49041507
-0.9920552 -1.2515031 0.74020547 0.36876935 1.0914029 -0.7869087 0.45471248 -0.04796494
0.9870254 -0.014823367 0.34315506 -0.555978 -0.29688862 1.144477 1.255964 -1.6554093
0.07475281 -1.424836 1.2836847 -0.2395266 -0.79446524 -0.8862199 -0.8163758 -1.0443001
0.61396945 -0.8095319 1.0086879 -0.73295087 -0.078440376 0.4211525 0.9467907 -1.0569863
0.817976 0.5994987 -0.57417035 0.00421113 0.8714714 -0.6216912 -0.78351873 -0.15771642
1.3160952 0.093680054 -0.9238177 1.2889967 -1.1814274 0.42675576 1.5417951 -1.059892
0.5673609 -0.801913 1.4293846 -1.2753229 1.3618382 -1.3935225 0.9024239 1.2333478
-1.443263 -0.83421534 0.037481736 -1.0206921 -1.0982748 0.41889673 1.0186213 0.38874316
-1.01344 -2.4292903 -0.42770016 1.0201606 -1.1685332 -1.2122203 0.4751998 -1.1926701
-0.030710235 -1.5851837 0.98875004 -0.31115106 -1.0996015 1.2847129 0.8391119 -1.7219945
0.64478844 -1.6582485 -1.0359796 1.5019748 -0.9716526 -0.2409102 -1.15583 0.53560275
0.5248676 -1.0984261 2.0423436 0.16551597 -1.3622973 -0.5493071 2.6849048 0.11672583
-0.92402196 0.8767751 0.7267649 -0.09153765 1.127104 -0.26530343 0.7873601 -0.88432527
-0.034780655 -0.9132229 -0.26960194 0.5092888 -0.06623598 -0.3707476 -0.06362028 -0.31008577
0.63154155 0.006261791 1.0574505 -0.86498845 -1.0831196 0.6656239 -0.34617573 1.4044865
-0.91342425 0.009210518 0.23372836 0.227716 0.95470667 -0.7568553 0.020637097 0.20818453
-0.5201262 0.40726435 1.2472405 0.39023092 0.5752378 -0.28040674 0.36914352 1.3084942
1.6448994 -0.74163765 -0.6659901 -1.2249451 -0.48219174 -0.9605587 -0.5684088 -1.4501851
1.0079839 -0.6394188 0.59280545 0.41076338 -0.81744206 1.1084486 0.55190057 -0.85301113
0.10106968 -0.7486868 0.95269144 0.1897516 0.023877287 -1.1384885 0.5160564 0.20065859
1.3351547 -0.3221796 -0.020426169 -1.0453138 0.52358645 1.5127064 -0.14223169 1.0883622
0.39382467 -0.13465206 0.092336 -0.35519624 0.11452651 1.0622416 -0.30876988 -0.72696376
-1.3958266 0.012226902 1.5233037 -0.30147666 0.60532624 -0.9230538 -1.4670646 0.8890384
1.5497943 0.8460208 0.84360087 -0.6021413 0.281476 -0.51494926 -0.030673653 -1.6214269
-0.93467 -1.2549903 -1.4102111 0.5322165 0.3273475 0.75084364 -0.22739877 1.2981384
-0.4127535 -0.49408585 0.37650228 -0.26569512 0.29463255 0.15913098 0.43189982 -0.9732013
0.14077047 -0.88653183 -1.2502687 -0.07768941 0.8687804 0.65337396 -0.6247558 0.5142558
0.115871795 -0.48815683 0.8465537 -0.11668364 -0.019702492 -0.5445485 -0.00079598196 0.056869984
0.4541922 -0.018465301 0.022694372 0.53271914 -0.5973099 -0.50492215 -1.1566377 0.7937296

lin2.bias f4 [41]
00000000: 1fbb bfbe 6d92 603f 67ce e7be 8b77 14bf
00000010: f62d 96be cf48 42c0 03b5 82be ae99 6ac0
00000020: 411d c2bf 870d 11c0 783d 15c0 2213 69be
00000030: 5391 26c0 1b89 acbe 02ce bd3e 86e4 80bf
00000040: 95a2 14be afa5 69bd c2e2 f53e 669b ba3d
00000050: 1dea 16bf ef37 dd3e 75b8 3e3e b740 a8be
00000060: 0f11 06bf fde5 00bf fef8 c6bc 16fa 343d
00000070: c5d2 7a3e f004 a9be e2ea 91be 8049 8e3e
00000080: 337b 1f3f d795 033f 203d 52bf 7cbf c5be
00000090: 7c61 d1bd e16d d4c0 c9e6 84be 0d39 16c0
000000a0: ed59 8cbe
-0.3744745 0.8772343 -0.4527466 -0.5799491 -0.2933194 -3.035694 -0.25528726 -3.6656299
-1.5165178 -2.2664506 -2.3318768 -0.22761205 -2.60262 -0.33698353 0.37071234 -1.006974
-0.14515145 -0.057042774 0.48024565 0.09111671 -0.5895098 0.43206736 0.18625052 -0.32861874
-0.5236978 -0.50350934 -0.02428865 0.044183813 0.24494465 -0.3301158 -0.28499514 0.2779045
0.6229736 0.5140051 -0.8212452 -0.38622653 -0.10223672 -6.638413 -0.25957325 -2.347232
-0.27412358
