Models_Q1/Model-b1-e7-h6.pth (torch, 4811 bytes, 5 tensors)

emb.weight f4 [41, 7]
-0.37164965 -1.8758719 -1.4526718 -1.1679264 -0.90115196 0.3477869 0.8121888 0.04464945
1.865057 -0.96374524 0.83612376 -1.709754 0.77204275 -0.88215345 -1.757602 -1.8139844
-0.36196578 0.54247236 -0.8355112 -1.7132142 -1.3424243 0.47391677 0.22998121 -0.82500345
-0.3276504 0.35849383 2.1008244 1.8136309 0.24089965 2.6856332 1.0978359 0.7682257
0.037295718 1.1692021 -1.63426 -0.03621741 -1.022028 1.1190604 -1.715161 -0.6199083
-0.5952404 -2.06733 0.912453 0.14178847 -1.8609657 -1.6478083 -0.120637104 0.20163475
-0.69769126 -2.6899517 1.7749573 0.092502296 -1.1622677 -0.31097147 -1.7012924 0.44403115
-1.1363038 -1.0588275 0.5226219 1.1368818 0.37120527 0.13595918 -1.0258516 -0.1770916
5.573508 0.23930207 1.693911 3.0547364 0.012137429 3.4955502 1.3947074 -4.8703227
2.1142182 -1.6326367 -3.253802 -0.8964127 2.7134461 0.8997011 -1.5816357 -0.61613625
-0.57488203 -0.4832589 -1.0472249 0.20212923 -2.7977347 -2.0489419 0.5325341 1.0842824
-1.7701073 2.245447 1.7076542 0.36479098 -2.5895667 -0.6366599 -0.590388 -0.14699528
-0.85324943 0.16731052 0.49687752 0.35339 -0.6324075 -0.8217547 0.81940705 1.0736179
0.62266296 -0.2745552 2.2534149 0.868744 1.2120107 -1.3831289 -1.5929317 0.8978016
1.5053544 -0.8173005 0.30416462 0.8949212 0.7556023 1.4589938 -0.26399252 0.5827109
0.28152674 -1.0797669 0.037088323 -1.0399507 0.883095 -1.0924635 1.2641754 0.36722153
-2.1065764 -0.070623666 -0.019585198 0.89941454 0.06335476 0.8152336 0.053078964 -0.17387365
0.30411005 -0.19221093 0.7947088 -1.9604901 -1.1445844 -1.5560614 -2.0410647 -0.17570765
-0.17275997 -1.1788449 -0.18375336 -0.22292066 0.9528477 -0.13187012 0.60927975 1.4304476
1.6511756 -2.46654 0.34879947 0.62191695 -0.69779503 -0.038442153 0.86331594 -0.8495486
2.1199687 -1.8951013 -0.17811091 2.0835643 3.1215897 0.49975467 0.78658104 2.7379272
-0.038844533 0.5593534 -1.6744934 0.8720138 -0.6170071 1.0961325 -1.2696279 0.155585
-0.6144444 0.6535077 0.8738568 0.3778154 0.65537053 0.9606276 -1.3213363 -0.71398455
-0.094225116 2.1530254 2.2977679 1.5803965 0.055661518 -1.3418661 0.41107884 -1.5430439
-0.51436216 -0.9083228 -0.10980342 0.92608523 -1.4398804 -1.2236618 -0.35997844 -0.7877581
-0.09778719 -1.874006 -0.044840567 1.7094826 -0.47290814 0.7245686 0.38940892 -0.9508063
0.8681652 0.085176595 -0.91747415 7.1069264 -2.028809 3.0202575 6.755797 -2.5291955
-6.035968 -1.4017328 -2.044697 -1.2686888 -0.16236915 -1.484408 0.85479045 -0.24833553
-1.9875475 0.32569277 0.52120924 0.76529294 -0.47873154 1.0598392 0.36532426 -0.6476784
-1.3910798 -0.5660466 -1.928673 0.5209141 -0.66606337 -1.9586875 -1.2973875 0.38035795
0.5520081 1.2573252 -0.7063719 1.0213376 -0.9115859 0.13218886 -0.01914589 1.0576124
0.4173333 0.03606089 1.723745 -0.11957482 -0.7317189 1.0057532 0.5658522 -0.800316
00000000: dd48 bebe 921c f0bf 26f1 b9bf 9d7e 95bf
00000010: e5b1 66bf 2011 b23e 9beb 4f3f 57e2 363d
00000020: 30ba ee3f 02b8 76bf 350c 563f 38d9 dabf
00000030: 98a4 453f cfd4 61bf 1af9 e0bf a430 e8bf
00000040: 9453 b9be 78df 0a3f 10e4 55bf 9a4a dbbf
00000050: 8fd4 abbf 38a5 f23e 3280 6b3e 6d33 53bf
00000060: cbc1 a7be 818c b73e e873 0640 0f25 e83f
00000070: 66ae 763e 6ae1 2b40 e385 8c3f 71aa 443f
00000080: 65c3 183d 6aa8 953f 6f2f d1bf b558 14bd
00000090: d0d1 82bf 5f3d 8f3f 658a dbbf 4fb2 1ebf
000000a0: ad61 18bf 224f 04c0 8596 693f ff30 113e
000000b0: 2034 eebf 62eb d2bf 9610 f7bd 5779 4e3e
000000c0: e59b 32bf 2b28 2cc0 cd31 e33f d871 bd3d
000000d0: 30c5 94bf a737 9fbe f3c3 d9bf 0d58 e33e
000000e0: 6772 91bf a987 87bf 8dca 053f 5885 913f
000000f0: 9e0e be3e e238 0b3e 1b4f 83bf 8057 35be
00000100: 2d5a b240 9a0b 753e 13d2 d83f cd80 4340
00000110: 11dc 463c 18b7 5f40 c685 b23f afd9 9bc0
00000120: 5a4f 0740 3dfa d0bf 4b3e 50c0 4d7b 65bf
00000130: 1aa9 2d40 d052 663f 0a73 cabf 1bbb 1dbf
00000140: 782b 13bf b66d f7be 770b 86bf f7fa 4e3e
00000150: 160e 33c0 dd21 03c0 2854 083f c4c9 8a3f
00000160: e092 e2bf 67b5 0f40 6a94 da3f e2c5 ba3e
00000170: 76bb 25c0 25fc 22bf ab23 17bf ee85 16be
00000180: 8e6e 5abf 7353 2b3e bb66 fe3e 89ef b43e
00000190: 75e5 21bf 845e 52bf a9c4 513f 506c 893f
000001a0: d766 1f3f 8092 8cbe f337 1040 0266 5e3f
000001b0: 2b23 9b3f 5e0a b1bf 30e5 cbbf 53d6 653f
000001c0: 74af c03f 9b3a 51bf 77bb 9b3e 8e19 653f
000001d0: 276f 413f 4fc0 ba3f 072a 87be 8b2c 153f
000001e0: 4624 903e cd35 8abf ede9 173d 1b1d 85bf
000001f0: 8412 623f d8d5 8bbf 80d0 a13f 7604 bc3e
00000200: 26d2 06c0 24a3 90bd 2371 a0bc 0840 663f
00000210: 24c0 813d 26b3 503f 5469 593d ef0b 32be
00000220: 50b4 9b3e f1d2 44be 0972 4b3f 57f1 fabf
00000230: be81 92bf 052d c7bf cea0 02c0 b5ec 33be
00000240: fde7 30be 64e4 96bf d729 3cbe 5045 64be
00000250: d4ed 733f f608 07be c2f9 1b3f e818 b73f
00000260: b959 d33f cbdb 1dc0 d895 b23e f335 1f3f
00000270: b2a2 32bf 8575 1dbd 4602 5d3f 047c 59bf
00000280: 91ad 0740 ae92 f2bf b562 36be 1e59 0540
00000290: 20c8 4740 d8df ff3e 605d 493f 333a 2f40
000002a0: 721b 1fbd c931 0f3f cd55 d6bf 4c3c 5f3f
000002b0: 2df4 1dbf 124e 8c3f 2b83 a2bf ad51 1f3e
000002c0: 3a4c 1dbf 484c 273f 14b5 5f3f 0571 c13e
000002d0: 5dc6 273f b1eb 753f 8c21 a9bf b1c7 36bf
000002e0: 19f9 c0bd 2bcb 0940 a10e 1340 6f4a ca3f
000002f0: 55fd 633d 45c2 abbf ed78 d23e 7682 c5bf
00000300: 3dad 03bf d887 68bf 9ee0 e0bd ec13 6d3f
00000310: 004e b8bf f3a0 9cbf 184f b8be 84aa 49bf
00000320: a644 c8bd 6edf efbf beaa 37bd 53d0 da3f
00000330: 0421 f2be 547d 393f 9b60 c73e 0b68 73bf
00000340: 1340 5e3f 1171 ae3d 96df 6abf f16b e340
00000350: 02d8 01c0 e64b 4140 7d2f d840 57de 21c0
00000360: a626 c1c0 fb6b b3bf 51dc 02c0 6564 a2bf
00000370: 1944 26be 1501 bebf 8cd3 5a3f ab4b 7ebe
00000380: f567 febf 34c1 a63e f86d 053f 3dea 433f
00000390: 4d1c f5be d0a8 873f c80b bb3e 40ce 25bf
000003a0: e70e b2bf 6ee8 10bf c2de f6bf a05a 053f
000003b0: 2183 2abf 46b6 fabf cb10 a6bf 47be c23e
000003c0: 6750 0d3f 08f0 a03f cad4 34bf 31bb 823f
000003d0: b25d 69bf 845c 073e d7d7 9cbc d85f 873f
000003e0: b6ac d53e 95b4 133d ada3 dc3f a5e3 f4bd
000003f0: ee51 3bbf 85bc 803f b1db 103f 82e1 4cbf

lin1.weight f4 [6, 7]
-0.6641787 0.38116875 0.112866856 0.62144 -0.1294302 0.5494676 0.5985507 -0.6883703
-0.7518845 -0.5701202 -0.47096935 0.21486147 -0.27937904 -0.16954488 0.19383095 -0.8479535
-0.59899193 -0.29496568 0.789907 0.83077765 -0.14904097 -0.0028314514 0.1547831 1.44982
-0.2992496 0.55448335 -0.05677302 -0.1311151 0.70225674 0.09556705 -0.15505864 -0.75293314
0.8068928 -0.4584284 0.9875788 0.5815221 -0.44126216 -0.29075885 0.59860563 -0.7335266
0.4449695 -0.73921126
00000000: 9e07 2abf 8d28 c33e bd26 e73d b116 1f3f
00000010: 5a89 04be e9a9 0c3f 9e3a 193f 0939 30bf
00000020: 817b 40bf 66f3 11bf e522 f1be a504 5c3e
00000030: c50a 8fbe 2c9d 2dbe 9f7b 463e 7b13 59bf
00000040: 8957 19bf be05 97be 5837 4a3f d8ad 543f
00000050: 329e 18be df8f 39bb 767f 1e3e b493 b93f
00000060: 3e37 99be 9ff2 0d3f d48a 68bd 0943 06be
00000070: 19c7 333f a8b8 c33d b1c7 1ebe 3ac0 40bf
00000080: 8790 4e3f 21b7 eabe f7d1 7c3f a2de 143f
00000090: 1ded e1be 58de 94be 383e 193f 66c8 3bbf
000000a0: 0bd3 e33e f33c 3dbf

lin1.bias f4 [6]
0.44672668 0.22416334 0.7987278 -0.36768565 -0.29629242 0.7750265
00000000: 5cb9 e43e 138b 653e 6d79 4c3f 4b41 bcbe
00000010: a4b3 97be 2368 463f

lin2.weight f4 [41, 6]
-2.0576231 2.20404 2.2981436 1.619899 -0.43231642 0.20326942 -0.9751938 2.598338
3.013339 -1.2285926 -0.2748053 1.9146188 -5.396883 -0.6654816 -8.379363 1.7132964
3.2478633 2.6076756 -1.271419 2.8653631 1.9182756 -0.5663052 -1.46494 1.2161674
-0.7834465 -1.1933815 -3.553898 2.3764431 1.8914189 -2.8540802 -2.8956835 0.2725319
-1.5095901 1.5552518 1.6509879 -3.8294034 -1.2655283 2.4419336 2.2175145 1.77516
-1.2526959 1.3706062 -1.24983 -0.9610492 2.496958 4.054413 -2.435196 -4.264579
-1.5191561 1.2890339 -3.371838 4.0804415 1.7594719 -3.5815783 -8.166353 4.685689
-5.149179 7.47953 4.432271 -2.31612 -0.6020222 -1.2710191 -3.27319 2.0717406
1.662341 -2.6858015 -0.23555048 1.8673527 4.1568756 0.61149085 -1.5033412 2.1631215
-2.586831 1.6786823 -2.5371377 2.6338565 0.06666332 -1.3975285 -2.2021859 0.7936829
-1.4711826 5.13746 -1.5896552 0.021871842 1.8246403 -0.2912013 -1.2133472 1.8511577
-0.90780604 1.8784459 -0.34483984 3.5202916 -5.98725 -1.0524505 3.3474224 -2.964828
1.4648632 1.520278 -1.7112626 0.64564186 1.6494004 -1.2156758 1.5605023 0.9075264
-0.54301417 0.7881687 0.6442125 -0.5372984 0.97694653 -0.46791193 0.8962015 1.8366358
-2.6414406 0.36551717 -0.09944452 -0.5591478 -0.10187423 -0.15549758 -0.007978381 -2.391539
2.9310827 1.4374291 0.9272741 -2.3712914 0.49580407 -0.036781482 -1.8989221 -3.1423888
-1.4648058 -0.47756183 -2.2660573 2.3540401 1.8694245 -0.8146783 1.2080896 -2.2687075
-1.710596 2.3303418 -0.48144704 -1.6766179 -4.087174 1.6817456 1.9884398 -2.701476
1.3056517 0.63242805 -1.1672406 0.0597429 2.2935317 -2.323977 0.73890144 -3.0980325
3.1328442 0.32750148 2.49045 -0.96605563 -0.57823914 0.59196836 -1.6724957 -0.81625915
1.7972047 -1.1972234 0.38880005 -0.6235609 0.28639105 3.6118002 3.728697 -5.019133
0.8716258 -0.71953416 0.42566183 -0.6132178 -2.2498186 0.08879929 -0.23613332 1.3241813
-2.3557863 -2.541328 0.51187855 0.36174622 -0.55196863 -1.4318802 -3.0874522 2.5992527
2.772742 -0.4670877 -1.1289043 -3.6266863 1.9559306 -0.66674906 3.4826407 -0.21438947
1.5036919 -0.10199543 1.2522749 -3.03912 0.4199303 0.92331326 1.5330902 0.741736
-0.57541275 -1.338169 1.1387041 -0.25529385 -0.6821839 -0.58489263 -0.42785007 3.6228337
-1.6112783 -2.9802425 2.0415924 0.1563809 0.97464025 0.98616815 2.6162634 -1.863813
-4.121347 -1.7924523 -5.0349603 -2.4591286 2.6313384 0.77216077 0.33131477 0.071227595
0.5009814 1.9002188 3.1586115 -1.4981276 1.3505759 -0.6526228 1.9604603 -0.9461367
0.33863962 1.2053965 1.0533532 0.16079243 -0.16763471 1.0964243 0.4203374 -4.525774
-2.7723465 0.6065261 0.7100501 4.948527 -1.9059378 -1.2186724
00000000: 19b0 03c0 fe0e 0d40 c914 1340 da58 cf3f
00000010: 9458 ddbe dc25 503e 4da6 79bf 2b4b 2640
00000020: 8cda 4040 8642 9dbf 48b3 8cbe 3b12 f53f
00000030: 44b3 acc0 015d 2abf df11 06c1 4c4d db3f
00000040: fedc 4f40 28e4 2640 dcbd a2bf 1c62 3740
00000050: 0e8a f53f 61f9 10bf 2783 bbbf 60ab 9b3f
00000060: f38f 48bf bac0 98bf 1173 63c0 a517 1840
00000070: 041a f23f 40a9 36c0 e152 39c0 4d89 8b3e
00000080: 403a c1bf 7e12 c73f 9253 d33f f214 75c0
00000090: d5fc a1bf a448 1c40 c2eb 0d40 7138 e33f
000000a0: 5758 a0bf 0670 af3f 6efa 9fbf 5207 76bf
000000b0: 29ce 1f40 c0bd 8140 40da 1bc0 6e77 88c0
000000c0: b573 c2bf 10ff a43f 32cc 57c0 fa92 8240
000000d0: 6036 e13f 9438 65c0 62a9 02c1 2af1 9540
000000e0: 13c6 a4c0 4f58 ef40 2ad5 8d40 4f3b 14c0
000000f0: 201e 1abf c1b0 a2bf f27b 51c0 6697 0440
00000100: 97c7 d43f 2ce4 2bc0 2534 71be 6a05 ef3f
00000110: 2005 8540 aa8a 1c3f 7c6d c0bf 9570 0a40
00000120: a48e 25c0 10df d63f 7760 22c0 1b91 2840
00000130: c786 883d 37e2 b2bf 9df0 0cc0 cd2e 4b3f
00000140: b64f bcbf 1366 a440 d279 cbbf 942c b33c
00000150: d08d e93f 5618 95be f64e 9bbf bcf2 ec3f
00000160: fa65 68bf ea70 f03f d98e b0be 754c 6140
00000170: 8d97 bfc0 b3b6 86bf 2b3c 5640 bebf 3dc0
00000180: a380 bb3f 7898 c23f a70a dbbf c948 253f
00000190: 8d1f d33f 449b 9bbf 8abe c73f a653 683f
000001a0: fa02 0bbf 6dc5 493f 1ceb 243f 638c 09bf
000001b0: 2b19 7a3f 2792 efbe 766d 653f e216 eb3f
000001c0: 5d0d 29c0 1125 bb3e 92a9 cbbd 4f24 0fbf
000001d0: 70a3 d0bd c23a 1fbe c1b7 02bc fa0e 19c0
000001e0: dc96 3b40 adfd b73f d661 6d3f 3dc3 17c0
000001f0: 08da fd3e 2ea8 16bd e10f f3bf e61c 49c0
00000200: c27e bbbf fc82 f4be 1507 11c0 98a8 1640
00000210: 4d49 ef3f c28e 50bf aea2 9a3f 8132 11c0
00000220: cff4 dabf 5224 1540 3a80 f6be 6a9b d6bf
00000230: 21ca 82c0 7143 d73f 3285 fe3f fce4 2cc0
00000240: 981f a73f cee6 213f 2468 95bf f9b4 743d
00000250: 39c9 1240 0abc 14c0 a528 3d3f 2a46 46c0
00000260: 8580 4840 46ae a73e 8863 1f40 6c4f 77bf
00000270: 7b07 14bf 3d8b 173f 5714 d6bf 5cf6 50bf
00000280: ce0a e63f 9e3e 99bf cd10 c73e b0a1 1fbf
00000290: d9a1 923e bc27 6740 f9a2 6e40 bd9c a0c0
000002a0: de22 5f3f 6433 38bf 59f0 d93e d7fb 1cbf
000002b0: 07fd 0fc0 67dc b53d efcc 71be c67e a93f
000002c0: 34c5 16c0 1ea5 22c0 790a 033f cd36 b93e
000002d0: d14d 0dbf da47 b7bf d198 45c0 285a 2640
000002e0: 9b74 3140 1e26 efbe f07f 90bf a11b 68c0
000002f0: ef5b fa3f 11b0 2abf 96e3 5e40 ea88 5bbe
00000300: fa78 c03f fbe2 d0bd 8b4a a03f f180 42c0
00000310: 1b01 d73e 425e 6c3f 4d3c c43f 69e2 3d3f
00000320: 404e 13bf 1f49 abbf 0ec1 913f e0b5 82be
00000330: 9ba3 2ebf 86bb 15bf 2a0f dbbe 82dc 6740
00000340: 5e3e cebf 4bbc 3ec0 73a9 0240 5122 203e
00000350: 0682 793f 8475 7c3f dc70 2740 6d91 eebf
00000360: 13e2 83c0 146f e5bf 651e a1c0 5d62 1dc0
00000370: d967 2840 54ac 453f 17a2 a93e c6df 913d
00000380: 5140 003f 5f3a f33f b126 4a40 a5c2 bfbf
00000390: acdf ac3f 4a12 27bf 5df0 fa3f 0436 72bf
000003a0: 2c62 ad3e 6f4a 9a3f 47d4 863f c5a6 243e
000003b0: 6fa8 2bbe a257 8c3f 7736 d73e 24d3 90c0
000003c0: 206e 31c0 4b45 1b3f d8c5 353f 555a 9e40
000003d0: c5f5 f3bf 75fd 9bbf

lin2.bias f4 [41]
-0.44510442 1.2675515 -1.1989728 -1.9074329 -4.037781 -3.9754186 -1.2979957 -4.2151895
-6.560203 -6.5542946 -3.5387263 -4.3606367 -2.9583886 -2.3635051 0.6398451 0.50100607
1.061694 1.0323421 1.5254561 0.10359349 -1.6922326 -1.5263524 -0.39380202 -3.632443
-1.0484719 -0.47577968 1.3753432 2.6847649 0.9719283 0.041770358 -2.5492501 0.033833988
0.2683481 1.4358944 1.9363766 -0.70771563 -0.8604831 -1.1331087 -1.0268648 -4.2598724
-3.2585182
00000000: bae4 e3be 213f a23f f177 99bf c326 f4bf
00000010: 8035 81c0 426d 7ec0 b924 a6bf d5e2 86c0
00000020: 2fed d1c0 c8bc d1c0 7e7a 62c0 568a 8bc0
00000030: 3d56 3dc0 ab43 17c0 e3cc 233f ef41 003f
00000040: 97e5 873f c923 843f 2542 c33f d328 d43d
00000050: 149b d8bf 845f c3bf 6ba0 c9be f279 68c0
00000060: 5434 86bf 6599 f3be 3f0b b03f 30d3 2b40
00000070: 4bd0 783f 6517 2b3d ea26 23c0 8295 0a3d
00000080: ec64 893e 63cb b73f 30db f73f da2c 35bf
00000090: 9f48 5cbf b509 91bf 4e70 83bf e050 88c0
000000a0: 908b 50c0
