Models_Q1/Model-b1-e1-h4.pth (torch, 3339 bytes, 5 tensors)

emb.weight f4 [41, 1]
0	0x3e1ac814	0.15115386
1	0xc0314711	-2.7699625
2	0x3f00fe7b	0.50388306
3	0xbf93f7c5	-1.1559988
4	0x3f271ff3	0.65283126
5	0x3e6671d6	0.22504362
6	0xbe0ff74a	-0.14059177
7	0xbf5b6248	-0.8569684
8	0x3eb74c6c	0.35800493
9	0xbed1912d	-0.40931073
10	0xbeacf725	-0.33782306
11	0xbe10c8bf	-0.14139079
12	0xbe10c9ee	-0.1413953
13	0x3de225fd	0.11042402
14	0xbf81e4a5	-1.0147902
15	0x3f2c288f	0.6724939
16	0x3f398a80	0.7247696
17	0x3ef6ab3d	0.4817752
18	0xbf302399	-0.6880432
19	0x3eb83395	0.35976854
20	0x3f2817b5	0.65661174
21	0x3f277a0a	0.6542059
22	0xbfa50ab5	-1.2893893
23	0x3f2b91c9	0.67019325
24	0x3f178b2a	0.5919672
25	0x40213327	2.518747
26	0x3f2099bf	0.627346
27	0xbf47f118	-0.78102255
28	0xbf61557c	-0.88021064
29	0x400e5559	2.2239592
30	0x3f2b9187	0.6701893
31	0x3f1e63bd	0.6187094
32	0x3f01151d	0.5042284
33	0x3f4763ba	0.77886546
34	0xbf7368c5	-0.9508174
35	0x40084d8f	2.1297338
36	0x3ffe2709	1.9855663
37	0x3f290470	0.66022396
38	0x3e846455	0.25857797
39	0x40085411	2.130131
40	0xc02662ff	-2.5997922

lin1.weight f4 [4, 1]
0	0xbf873acb	-1.0564817
1	0x3fea6c20	1.8314247
2	0x3f85f133	1.0464233
3	0x3ecf0aa3	0.40437803

lin1.bias f4 [4]
0	0xbf53ffab	-0.82811993
1	0xbf2548cd	-0.6456421
2	0xbf0931bb	-0.5359151
3	0x3f45e8e3	0.7730848

lin2.weight f4 [41, 4]
0	0xc03941e2	-2.8946462
1	0xc0157a21	-2.3355792
2	0x3d91a87d	0.07112215
3	0xbf79547e	-0.9739455
4	0xc04688d6	-3.1021018
5	0xc038cf6d	-2.8876603
6	0x3d098118	0.03357038
7	0x3f407a4a	0.751866
8	0xbf93bd8d	-1.1542221
9	0xbf83edde	-1.0306966
10	0x3f8308b5	1.0237032
11	0xc049bc7f	-3.15213
12	0xbff266da	-1.8937638
13	0xbf67059b	-0.9024293
14	0xbed2c1ea	-0.4116357
15	0xbf87a8e3	-1.0598415
16	0xbeae77df	-0.3407583
17	0xbf105ae4	-0.5638869
18	0x3f5fbc83	0.8739702
19	0xc0a27b55	-5.077555
20	0xbf2a4303	-0.665085
21	0xbfed78fd	-1.8552548
22	0xbf4240c1	-0.75880057
23	0xc061507c	-3.5205374
24	0xc032c837	-2.7934701
25	0xc00b2ff5	-2.174802
26	0x3ef14a65	0.4712707
27	0xbef5f991	-0.48041967
28	0xc016fe5a	-2.3592744
29	0xbf8bd268	-1.0923586
30	0x3faedeb7	1.3661717
31	0xc015996d	-2.3374894
32	0xc01d60cc	-2.459033
33	0xc02ff463	-2.7492912
34	0x401ad301	2.4191287
35	0xc0af8908	-5.4854774
36	0xc03fa47c	-2.9944143
37	0xc06db09c	-3.7139044
38	0x3f8dd294	1.1079888
39	0xc04e2c66	-3.2214599
40	0x3e8050cd	0.25061646
41	0xbdd73665	-0.10508422
42	0x3f420900	0.7579498
43	0xc08441ae	-4.1330175
44	0xbfe95885	-1.8230139
45	0xc0353687	-2.831453
46	0x3fe21900	1.7663879
47	0xbe92082d	-0.28521863
48	0xc03406e2	-2.81292
49	0xbfb82ead	-1.4389244
50	0x3fd66624	1.6749921
51	0xc053f67f	-3.31192
52	0xbffc96dd	-1.973354
53	0xc026dabc	-2.6071005
54	0x3ffb2927	1.9621934
55	0xbff53a36	-1.915839
56	0xbedcc93c	-0.4312228
57	0xbd98c4ee	-0.07459436
58	0x3f61104b	0.87915486
59	0xbfabb77f	-1.3415374
60	0x3f8cee46	1.1010215
61	0x3f45e71b	0.77305764
62	0xbf71ad34	-0.9440491
63	0xbf8954c9	-1.0728999
64	0x3f198954	0.5997517
65	0xbed4da75	-0.4157292
66	0xbf499786	-0.7874683
67	0xbfd61012	-1.6723654
68	0xbeff705a	-0.49890405
69	0xbffaec3d	-1.9603344
70	0x3f83d3c8	1.0299006
71	0xc0110006	-2.2656264
72	0xbde0e753	-0.109816216
73	0xbe3ae356	-0.18250784
74	0x3f8e51f2	1.1118758
75	0x3fc93f88	1.5722513
76	0x3ff7c833	1.9357971
77	0x3eda2880	0.42609024
78	0xbfac8028	-1.347661
79	0x3f5ef0e8	0.87086344
80	0x3f53864d	0.826268
81	0x3fecd167	1.8501405
82	0xc05d7121	-3.4600298
83	0xbdf495fd	-0.119426705
84	0xbf7dd3a8	-0.99151087
85	0x40db9b5a	6.862714
86	0x40d8cb38	6.774807
87	0xbf356691	-0.7085963
88	0x3f0dc113	0.5537273
89	0x3d87692b	0.06611856
90	0x3fb976b7	1.4489354
91	0x3eef450a	0.4673236
92	0x3f62129f	0.88309664
93	0x3f870155	1.0547282
94	0x3f11fb63	0.5702421
95	0xc0838d46	-4.1109953
96	0x3f35e5ba	0.7105366
97	0x401a3adb	2.4098423
98	0xc0412737	-3.0180185
99	0xbfac8607	-1.3478402
100	0x40053fee	2.082027
101	0xbf428598	-0.759851
102	0x3df5c7e2	0.12001015
103	0x401d12fa	2.4542832
104	0x3f1daa94	0.61588407
105	0x3eec8681	0.46196368
106	0xbfa87f75	-1.3163897
107	0xbf5ab6cd	-0.8543518
108	0x3f1650b5	0.587169
109	0x40088fdd	2.1337807
110	0xc084eda1	-4.1540074
111	0xbebb836a	-0.36623698
112	0x3f4bf2b0	0.79667187
113	0x3f48f3dc	0.784971
114	0x3e5bb1cc	0.21454543
115	0x3f8f2ddc	1.118587
116	0x3eef27ed	0.46710148
117	0x3f509a30	0.8148527
118	0xbe9e7bb5	-0.30953756
119	0xbed0a927	-0.40754053
120	0x3f891018	1.0708036
121	0xbf8d1453	-1.1021827
122	0x3e7b9078	0.24566829
123	0xc02de73e	-2.717239
124	0x3f82a586	1.0206764
125	0xbf1d655e	-0.614828
126	0xbf1f8960	-0.6231899
127	0x3f55be59	0.8349357
128	0x4033e4ee	2.8108478
129	0x3fe67625	1.8004805
130	0xbfd65648	-1.6745081
131	0x404400f7	3.062559
132	0x3f685c89	0.907662
133	0x3fac238b	1.3448347
134	0xbfd453ab	-1.6588033
135	0xbf16d6d1	-0.58921534
136	0x3f2e2264	0.68021226
137	0x3f46f2ea	0.7771441
138	0xbf320691	-0.6954127
139	0x4005b301	2.0890505
140	0x3f35db30	0.7103758
141	0x3f9d2cab	1.2279257
142	0xc00f6c0a	-2.2409692
143	0x3e2de0ae	0.1698024
144	0x3f6bfb42	0.92180264
145	0x3f96f9e2	1.1795008
146	0xbe6a4203	-0.22876744
147	0xbf57537e	-0.84111774
148	0x3e156e37	0.14592825
149	0xbffe4157	-1.986369
150	0xbf4e4e40	-0.8058815
151	0xbff3435a	-1.9004929
152	0x3e9fb9eb	0.31196532
153	0xbf7339d2	-0.950101
154	0x3f544f41	0.8293343
155	0x3ed9e7c8	0.42559648
156	0x3ed2b260	0.41151714
157	0x403a874a	2.9145074
158	0xc086db3d	-4.2142625
159	0xc00b376e	-2.1752582
160	0xc019e9ad	-2.4048874
161	0xbefbc192	-0.4917112
162	0x3f9f8221	1.2461587
163	0xc0279510	-2.618473

lin2.bias f4 [41]
0	0xbf8151fe	-1.0103147
1	0x3ef30d96	0.47471303
2	0x3f47e94f	0.78090376
3	0xbf6bf90b	-0.92176884
4	0xc067d463	-3.622338
5	0xc07656d0	-3.8490486
6	0xbfae718a	-1.3628399
7	0xc03c882a	-2.9458108
8	0xc0ce1757	-6.440349
9	0xc04efefa	-3.2343125
10	0xc05677fe	-3.3510737
11	0xc01feb71	-2.4987452
12	0xc048dbda	-3.1384187
13	0xc0001740	-2.001419
14	0x4021dd8d	2.5291474
15	0x3eb19a17	0.34687874
16	0x3f96f7aa	1.1794331
17	0x4000c7c9	2.012194
18	0x3fb870c5	1.4409415
19	0xbf29888a	-0.6622397
20	0xbf133a1e	-0.57510555
21	0xc06e2b6c	-3.7214003
22	0x3fe2611b	1.7685884
23	0xc04bc229	-3.1837256
24	0xbfa49dd1	-1.2860662
25	0xbd9e1680	-0.07719135
26	0x3f78d923	0.97206324
27	0x3eba19a0	0.36347675
28	0x3fbba597	1.4659909
29	0x3f397ab9	0.72452885
30	0xbfeefc45	-1.8670737
31	0x3f642393	0.8911678
32	0x3ebc5d3a	0.36789876
33	0x3ffadff8	1.95996
34	0xbeca814d	-0.39551774
35	0xbf317920	-0.6932545
36	0x3f33aac6	0.70182455
37	0xbfc8a661	-1.5675775
38	0x3e676163	0.22595744
39	0xc0829f8d	-4.0819764
40	0xc03c50ab	-2.9424236
