Models_Q1/Model-b1-e3-h8.pth (torch, 4363 bytes, 5 tensors)

emb.weight f4 [41, 3]
-0.10436975 -1.0090595 -0.76205856 1.773682 -1.7167873 0.43964952 0.53306097 -1.027491
-1.414742 -2.07017 -2.3512528 1.827712 0.5149077 -0.61978424 0.24433652 1.627323
1.6484855 1.1017419 -0.041551642 -0.8585152 -2.2650056 0.5126765 -2.8488872 -0.9049049
-1.436391 -1.6758083 -1.2363812 0.40298468 0.631301 3.2095249 -1.5153129 -0.4616154
1.4641106 -0.38522592 -0.6864886 -1.9336427 1.4886199 0.87156385 -0.7412396 1.4067416
1.4008859 -0.8163675 -1.3386148 -2.212841 0.57863563 -0.640301 0.8043817 0.4439751
-0.14135581 1.0579627 -0.44676095 -0.33813623 0.318959 -0.9862632 -0.591854 -0.99580646
0.038047772 -0.9055529 -0.23510757 0.0260518 0.9573881 0.8253167 -0.050296348 -0.5741249
0.26119635 -0.3532685 -2.251704 -0.2959125 -0.6607616 0.41137576 2.1243618 0.4792348
-1.0228283 0.23934081 0.04016815 -0.74504477 0.053910576 0.37183207 1.6865311 -0.41400114
0.69386107 -0.91881835 0.39334992 -0.78931797 -0.68679845 -2.3416572 -1.1042018 0.4408673
0.15419617 1.3406812 0.41137052 2.1243606 0.47923666 -0.8061745 0.41579577 -0.48596022
1.9372288 -0.50043046 0.5351124 1.0753593 0.76686335 -1.68657 -0.15841493 -1.043941
0.39462468 0.38874876 0.67468876 0.808306 0.63214886 0.35935962 -0.63185626 1.3301896
-0.7195078 1.4241735 1.6409554 0.072748505 0.069702104 0.59831715 0.6804719 0.90172136
0.76728004 1.9151664 -1.432123
00000000: cfbf d5bd dd28 81bf 4516 43bf 0308 e33f
00000010: b0bf dbbf be19 e13e af76 083f d384 83bf
00000020: 4416 b5bf aa7d 04c0 ed7a 16c0 78f2 e93f
00000030: fed0 033f 2eaa 1ebf 5a33 7a3e 1f4c d03f
00000040: 9301 d33f e105 8d3f 0e32 2abd a7c7 5bbf
00000050: daf5 10c0 c43e 033f 2b54 36c0 d9a7 67bf
00000060: a9db b7bf e380 d6bf bd41 9ebf 0254 ce3e
00000070: f19c 213f db68 4d40 c6f5 c1bf db58 ecbe
00000080: fa67 bb3f 553c c5be b8bd 2fbf 9b81 f7bf
00000090: 198b be3f cf1e 5f3f e1c1 3dbf 1c10 b43f
000000a0: 3b50 b33f 76fd 50bf bb57 abbf 309f 0dc0
000000b0: 7721 143f c4ea 23bf f6eb 4d3f b450 e33e
000000c0: 94bf 10be 526b 873f dabd e4be 3120 adbe
000000d0: 984e a33e bf7b 7cbf be83 17bf 2ced 7ebf
000000e0: fbd7 1b3d 51d2 67bf 0ac0 70be 966a d53c
000000f0: 6317 753f f547 533f 8b03 4ebd d9f9 12bf
00000100: 87bb 853e 9cdf b4be eb1b 10c0 d881 97be
00000110: ac27 29bf d89f d23e 8bf5 0740 445e f53e
00000120: 0aec 82bf c215 753e 5c87 243d 41bb 3ebf
00000130: 56d1 5c3d c660 be3e 40e0 d73f f5f7 d3be
00000140: e1a0 313f ae37 6bbf 2965 c93e be10 4abf
00000150: 06d2 2fbf b6dd 15c0 7c56 8dbf 5cb9 e13e
00000160: 9ae5 1d3e 719b ab3f 289f d23e 86f5 0740
00000170: 825e f53e 7461 4ebf 2fe3 d43e c7cf f8be
00000180: 1df7 f73f 361c 00bf 20fd 083f 60a5 893f
00000190: 2851 443f 87e1 d7bf 8637 22be dc9f 85bf
000001a0: 3f0c ca3e 140a c73e 67b8 2c3f 24ed 4e3f
000001b0: 82d4 213f fcfd b73e 55c1 21bf a743 aa3f
000001c0: aa31 38bf 514b b63f d40a d23f 2bfd 943d
000001d0: fabf 8e3d 502b 193f 6833 2e3f 36d7 663f
000001e0: 776c 443f 2c24 f53f ce4f b7bf

lin1.weight f4 [8, 3]
1.5481812 0.77949345 0.45994017 -0.00025975448 -1.5803291 0.17987315 -0.44598863 -0.6947241
-0.48536327 -0.21209909 -0.47112867 0.3835114 -0.79111266 -0.19154695 1.560636 -1.398801
1.0708842 -0.87596977 -0.67653805 1.041363 -0.11228767 0.904448 0.025172768 -0.38173363
00000000: cd2a c63f e28c 473f 477d eb3e a82f 88b9
00000010: 3948 cabf ab30 383e 9f58 e4be 70d9 31bf
00000020: 8981 f8be 8130 59be c737 f1be 9b5b c43e
00000030: 5c86 4abf e224 44be ecc2 c73f e90b b3bf
00000040: bc12 893f 8e3f 60bf 9931 2dbf 624b 853f
00000050: 14f7 e5bd e789 673f 1f37 ce3c 9772 c3be

lin1.bias f4 [8]
0.81729966 -1.2548153 0.73659414 0.40847725 1.1464708 1.0687133 -1.2832512 0.4302111
00000000: 8d3a 513f ca9d a0bf 6f91 3c3f ee23 d13e
00000010: 8ebf 923f 99cb 883f 9341 a4bf a144 dc3e

lin2.weight f4 [41, 8]
-2.5172246 -0.44142467 -1.0975728 -0.1140324 -0.29602045 0.77045316 -1.9249226 1.4436653
-2.8532357 -0.9899423 -0.20156457 0.30415452 -1.5282922 0.7640789 -1.4245797 1.1753485
-1.8980067 2.2945538 2.0677843 -1.7696215 0.80376655 0.72180915 -0.9875127 3.8534737
-1.7490736 0.0061358646 -0.35546982 -3.1948562 -0.86689943 -1.9697659 -3.4749877 -1.0214391
1.2730732 2.026384 -1.1456304 -1.3356978 -0.6936764 -1.1191167 2.6668448 -0.9778716
-1.8502223 1.452088 -3.8229413 -0.5884331 -0.7164396 0.460779 1.2511557 -1.3555421
-2.344259 -0.21633552 -0.43420747 -2.5358613 1.5310309 0.15816468 -2.188104 1.5860482
-0.67653155 -0.9924683 -2.9776452 -2.364902 1.465973 2.9554167 0.62994576 -4.341656
-0.37697577 -0.6031865 -4.494161 -3.8025258 -2.1649754 -0.8532374 2.2345386 -3.8376296
-3.2040792 -4.9688005 -5.254687 -0.72574013 -6.319403 2.879651 1.1909564 -5.446872
1.146716 1.8725837 -0.8452258 -1.0277156 -0.897432 -1.023291 2.4788384 -0.56655157
-2.5149605 -2.3547878 -2.3008733 -0.72836685 -0.69247615 1.1281005 -3.6958675 -0.58110774
-1.9798023 -0.56305623 -3.906838 -1.6046816 -1.2390438 -2.2945688 4.1111917 -0.33978313
-1.1347598 -1.2784508 -2.9592972 0.9737906 -1.051634 0.11159336 -2.0008094 -0.31076148
1.7315387 -0.8347992 1.8087904 -0.7809818 4.376459 0.17737523 -1.118575 2.624863
-1.3889729 2.2596557 1.0929934 0.49066624 -0.48593235 -2.877688 1.8340234 0.04555327
-1.0902088 2.0731812 2.9973416 -2.036929 0.39740527 -1.9803617 0.74505264 -0.2781701
-1.9530926 -1.4630607 2.44734 3.2181458 -0.79123545 -0.17059475 1.7192769 0.961518
1.3825215 -1.86553 -0.81530774 -0.20861542 2.336042 0.5989018 -0.86064583 0.95491815
-2.4294593 -0.34099838 -0.99898446 0.9285778 1.9980421 1.5422919 4.7038836 -2.886778
-0.5145388 -0.05560841 3.8254995 0.088349275 -1.7212528 -1.7938247 1.6292505 -0.94151175
2.233037 -0.8225581 -1.2927068 -0.36851227 -0.83412725 0.6446916 0.51853055 2.5665596
0.8211564 -2.3768804 -0.20502011 2.7087054 -1.0015081 1.7636197 0.7971986 1.2905967
1.5229331 2.260941 -0.71218204 -0.8733843 -0.7129545 -1.2104247 3.0888152 -0.57425237
-0.5601669 0.5993538 0.6810581 -0.0086628925 -0.82604367 -0.8646464 2.7567103 -1.5928843
2.3017585 -0.5173649 -0.6186897 3.6328666 -0.16228536 1.1711437 -1.3832407 -1.3697389
-0.98353606 2.2847319 -0.3685152 0.7013296 1.3565822 -2.023947 0.48251858 -0.44054878
-1.530259 0.41503555 -0.028680444 2.2802289 1.13213 0.20741957 2.0488746 -2.7208147
1.4977337 -1.2145985 0.33252752 0.8730408 -0.14277492 -0.26121053 0.014229138 0.6399604
0.7937824 0.9960765 -0.6419804 1.6358231 -0.40835026 -1.6759884 -0.40007222 0.8918169
-0.29702106 2.9512525 2.4829857 -1.770636 2.4018528 1.3509798 0.5262533 -0.19672918
2.1976254 2.1937797 -1.1568551 0.979884 0.51162136 0.18772082 -2.7405946 -1.0468599
00000000: 351a 21c0 6a02 e2be 447d 8cbf d289 e9bd
00000010: fe8f 97be 6b3c 453f dd63 f6bf 06ca b83f
00000020: 6a9b 36c0 dc6c 7dbf f166 4ebe 24ba 9b3e
00000030: 149f c3bf ad9a 433f a158 b6bf d271 963f
00000040: e2f1 f2bf f8d9 1240 9456 0440 f582 e2bf
00000050: a5c3 4d3f 7cc8 383f a2cd 7cbf 509f 7640
00000060: a5e1 dfbf 5d0f c93b 2400 b6be 8678 4cc0
00000070: 1fed 5dbf 4a21 fcbf 3366 5ec0 84be 82bf
00000080: 10f4 a23f 47b0 0140 04a4 92bf 25f8 aabf
00000090: c794 31bf 373f 8fbf 96ad 2a40 cb55 7abf
000000a0: 16d4 ecbf 05de b93f 12ab 74c0 8da3 16bf
000000b0: 9668 37bf 3aeb eb3e df25 a03f 6782 adbf
000000c0: 5708 16c0 0f87 5dbe 7150 debe 8d4b 22c0
000000d0: d2f8 c33f ecf5 213e e509 0cc0 a103 cb3f
000000e0: 2c31 2dbf 6712 7ebf bd91 3ec0 8e5a 17c0
000000f0: 01a5 bb3f 8c25 3d40 2044 213f d9ee 8ac0
00000100: f802 c1be 6e6a 1abf 2bd0 8fc0 955c 73c0
00000110: f58e 0ac0 c46d 5abf ae02 0f40 b99b 75c0
00000120: a20f 4dc0 6a00 9fc0 6526 a8c0 1bca 39bf
00000130: 8d38 cac0 344c 3840 4271 983f c74c aec0
00000140: 97c7 923f d3b0 ef3f b860 58bf 2f8c 83bf
00000150: 1bbe 65bf 33fb 82bf 4aa5 1e40 8609 11bf
00000160: 1df5 20c0 d8b4 16c0 8241 13c0 4076 3abf
00000170: 1e46 31bf 9965 903f 1889 6cc0 7ac3 14bf
00000180: 296a fdbf 7424 10bf a209 7ac0 3566 cdbf
00000190: fd98 9ebf 37da 12c0 e28e 8340 0ef8 adbe
000001a0: cf3f 91bf 47a4 a3bf 2065 3dc0 574a 793f
000001b0: f19b 86bf 0f8b e43d 430d 00c0 211c 9fbe
000001c0: 0fa3 dd3f 66b5 55bf 7286 e73f 6cee 47bf
000001d0: f40b 8c40 daa1 353e 772d 8fbf c1fd 2740
000001e0: ddc9 b1bf 339e 1040 35e7 8b3f 9b38 fb3e
000001f0: 20cc f8be 0a2c 38c0 47c1 ea3f 1196 3a3d
00000200: f68b 8bbf 00af 0440 72d4 3f40 0b5d 02c0
00000210: b478 cb3e 7e7c fdbf c5bb 3e3f 506c 8ebe
00000220: f0fe f9bf 9345 bbbf 38a1 1c40 1af6 4d40
00000230: 688e 4abf 64b0 2ebe 4411 dc3f 0b26 763f
00000240: 77f6 b03f b0c9 eebf 02b8 50bf 489f 55be
00000250: b681 1540 a151 193f 4953 5cbf 8475 743f
00000260: 437c 1bc0 5797 aebe 72bd 7fbf 46b7 6d3f
00000270: d8bf ff3f d269 c53f 3786 9640 f9c0 38c0
00000280: d1b8 03bf a5c5 63bd fcd4 7440 77f0 b43d
00000290: 0352 dcbf 0c9c e5bf 488b d03f ea06 71bf
000002a0: 14ea 0e40 2b93 52bf 6b77 a5bf a4ad bcbe
000002b0: 5d89 55bf 820a 253f 6bbe 043f 8342 2440
000002c0: 4e37 523f cf1e 18c0 cbf0 51be 6e5b 2d40
000002d0: 6b31 80bf 4abe e13f 3515 4c3f 4632 a53f
000002e0: 79ef c23f 42b3 1040 9051 36bf 1d96 5fbf
000002f0: 3084 36bf 32ef 9abf 26af 4540 3402 13bf
00000300: 1967 0fbf 406f 193f d359 2e3f ceee 0dbc
00000310: 9977 53bf 7759 5dbf f16d 3040 a2e3 cbbf
00000320: 0350 1340 0772 04bf 7362 1ebf e380 6840
00000330: 222e 26be 09e8 953f 080e b1bf 9b53 afbf
00000340: 05c9 7bbf 0c39 1240 06ae bcbe 568a 333f
00000350: 7ca4 ad3f 5988 01c0 ad0c f73e 9c8f e1be
00000360: 87df c3bf 8a7f d43e 40f3 eabc 45ef 1140
00000370: a3e9 903f cc65 543e c320 0340 d421 2ec0
00000380: bdb5 bf3f f777 9bbf 0c41 aa3e 9a7f 5f3f
00000390: 9733 12be 63bd 85be 5521 693c 72d4 233f
000003a0: 5335 4b3f dffe 7e3f d458 24bf a762 d13f
000003b0: 4913 d1be ca86 d6bf 44d6 ccbe 1d4e 643f
000003c0: 2513 98be 52e1 3c40 3de9 1e40 33a4 e2bf
000003d0: f5b7 1940 e8ec ac3f 89b8 063f 6073 49be
000003e0: e5a5 0c40 e366 0c40 d413 94bf aed9 7a3f
000003f0: 9ef9 023f e339 403e e765 2fc0 81ff 85bf

lin2.bias f4 [41]
-1.1122736 1.8222146 -4.0070634 -0.41955554 -3.441355 -3.1443748 -1.6488616 -2.7899065
-5.3788853 -5.3740134 -3.1326013 -3.4056232 -2.6688757 -2.3311021 -2.5659642 -0.6016037
0.31482908 -1.9800323 0.8005196 -1.0158694 -0.90208405 -0.47396776 0.39901358 -3.2376316
-0.36448798 -0.7891055 0.030678196 -0.25579938 1.329223 0.11179341 -6.061439 0.72938025
1.2848674 2.4998507 3.006897 0.19215035 -1.1656171 -2.500508 -0.833616 -2.2514763
-2.6541388
00000000: fb5e 8ebf 543e e93f dd39 80c0 fccf d6be
00000010: 293f 5cc0 703d 49c0 e60d d3bf d48d 32c0
00000020: d41f acc0 ebf7 abc0 8a7c 48c0 bbf5 59c0
00000030: dcce 2ac0 c730 15c0 c238 24c0 b302 1abf
00000040: 4731 a13e b371 fdbf daee 4c3f 0208 82bf
00000050: fbee 66bf e7ab f2be 824b cc3e 5b35 4fc0
00000060: 2b9e babe d102 4abf d750 fb3c 23f8 82be
00000070: fb23 aa3f f1f3 e43d 4ff7 c1c0 aab8 3a3f
00000080: 8976 a43f 8efd 1f40 0071 4040 10c3 443e
00000090: f132 95bf 5308 20c0 dc67 55bf 3018 10c0
000000a0: 69dd 29c0
