Models_Q1/Model-b10-e32-h64.pth (torch, 105190 bytes, 5 tensors)

emb.weight f4 [53, 32]
0.5437185 -1.171088 0.006395089 2.0395083 -1.3454468 -0.29402688 -0.47021934 0.013845435
-0.84607565 0.6952885 0.7232609 -0.46536028 0.6999635 1.8908664 -0.8703131 -1.6158862
0.50250787 0.86861366 0.5170576 -1.1188967 0.3215527 -0.20012948 -0.9839546 -1.1396073
-0.42529386 0.22198284 1.0619235 0.4718334 0.96586996 2.1593564 0.9115413 0.84852
0.38306725 0.29707086 -0.090684004 0.4787275 0.10676117 0.59778976 0.042227764 0.80263215
-0.92023635 0.10552248 -0.10980415 0.0050555 -0.5695244 -0.8185221 0.15623774 -0.27626485
-0.17941952 0.88881296 0.6011251 0.0939101 0.24386539 -1.1392553 0.06938897 0.2556418
-0.4097965 -0.5879465 0.6062316 -0.56710505 1.470819 -0.6370566 0.4203088 0.8832
-0.9323806 -1.6865461 -3.6571913 1.7441199 0.026346777 -6.2701483 4.0012474 -0.16868025
0.4481648 -3.8100297 -2.2028134 -4.2467694 -5.7220182 -0.25378755 -3.0397835 -8.05692
-0.1856939 1.675955 -1.3360697 -1.280276 3.454932 -2.9070344 -2.1333437 4.231575
-3.6008048 -2.4189696 0.4192255 -3.698455 5.0450397 -2.3681087 8.7127905 -2.1687975
-0.20099476 -0.20602731 -2.7450833 1.7299979 -1.4698713 -3.1760871 3.5655499 -0.11286811
0.54078764 -0.677558 -1.9776924 -2.876187 0.819853 0.97358054 -2.9666176 -0.4384289
-3.6393514 -1.7778068 -0.34193105 1.8627299 -0.5307384 -1.2385044 -0.026560824 1.4308277
1.1569887 -0.7599333 0.41819438 -2.4944594 -0.6651769 -0.6793836 2.1397035 1.7649361
-2.8248749 -1.0850925 -0.8474777 1.0645375 0.79290843 -0.26762626 -1.5352504 -1.4659473
-0.5828622 -3.103469 0.65821046 1.6568905 0.17097104 0.28584328 2.448997 0.03777273
-1.1220564 0.6485265 -2.1489654 0.79794466 0.17585501 -0.5940881 -0.22854717 1.1000682
-1.8393567 -2.0732458 -1.6996914 -0.7604125 0.31694353 1.0056976 1.0024745 1.0268211
3.971646 -0.86523336 -4.5532346 4.8058887 -0.914955 -1.7718242 3.5451014 3.6292443
2.874578 3.2249095 -1.2629482 3.813163 1.9948125 -1.9690961 1.1811607 0.9471912
-0.06877789 2.0197701 -1.7070847 1.5483314 -1.4427354 4.8637567 0.7658163 1.3576596
-0.48744142 -3.5575006 3.905342 -2.4481237 0.33866456 2.400786 -0.34675372 -3.203688
-2.0335143 -0.24899612 1.2508315 0.34052515 -1.7061852 1.2645404 1.1800677 -2.9368024
-0.5381797 -2.728478 2.316189 -1.5410295 0.7604225 2.2052443 -1.0153002 2.5094805
-2.2544703 -0.87730306 0.9854582 3.0150127 0.95250213 -3.0584152 -1.8775452 -3.33442
0.19051257 -1.0449818 -1.8051947 1.1711974 1.7322841 -1.9687786 2.6524427 0.70907533
5.9452367 1.6806784 2.603815 -0.102393754 1.6959432 -0.30117315 -1.2315241 -1.6169704
-6.594061 4.6417403 -2.2619736 -1.6469872 -1.8070949 6.3043156 0.8228243 4.5974855
1.2338897 0.96404946 2.6929717 1.2588316 3.1681478 0.73551756 2.388335 -2.9038622
1.4242098 1.2717872 -3.0954242 -0.40177718 0.9655495 -0.30718735 -1.453182 1.227388
00000000: 2331 0b3f 36e6 95bf e58d d13b 4e87 0240
00000010: 9a37 acbf b18a 96be 97c0 f0be f7d7 623c
00000020: 6a98 58bf 6dfe 313f a027 393f b443 eebe
00000030: cf30 333f e907 f23f d7cc 5ebf 5cd5 cebf
00000040: 5ba4 003f 775d 5e3f e35d 043f 0238 8fbf
00000050: 8ea2 a43e beee 4cbe 73e4 7bbf a7de 91bf
00000060: 1ec0 d9be 784f 633e 1ced 873f 2694 f13e
00000070: 4143 773f e532 0a40 c55a 693f 9b38 593f
00000080: 6421 c43e ac19 983e 89b8 b9bd c51b f53e
00000090: 9aa5 da3d c008 193f 05f7 2c3d 4d79 4d3f
000000a0: 9c94 6bbf 2c1c d83d 00e1 e0bd 9ca8 a53b
000000b0: 5acc 11bf aa8a 51bf c9fc 1f3e 9672 8dbe
000000c0: c0b9 37be 3f89 633f 56e3 193f f053 c03d
000000d0: d9b7 793e 1ed3 91bf ce1b 8e3d 7be3 823e
000000e0: d9d0 d1be a983 16bf fe31 1b3f cc2d 11bf
000000f0: cc43 bc3f 2416 23bf b732 d73e 6519 623f
00000100: 7fb0 6ebf bee0 d7bf 6c0f 6ac0 523f df3f
00000110: 32d5 d73c 0ea5 c8c0 380a 8040 84ba 2cbe
00000120: db75 e53e 87d7 73c0 e5fa 0cc0 89e5 87c0
00000130: c61a b7c0 71f0 81be d08b 42c0 25e9 00c1
00000140: 8b26 3ebe b285 d63f 5504 abbf 15e0 a3bf
00000150: 9b1d 5d40 da0c 3ac0 b488 08c0 1069 8740
00000160: 9673 66c0 66d0 1ac0 baa4 d63e 7db3 6cc0
00000170: f770 a140 188f 17c0 9767 0b41 94cd 0ac0
00000180: 92d1 4dbe d3f8 52be 72af 2fc0 9270 dd3f
00000190: be24 bcbf 0345 4bc0 f831 6440 6527 e7bd
000001a0: 0f71 0a3f 7174 2dbf 0625 fdbf 7313 38c0
000001b0: e3e1 513f 933c 793f 10dd 3dc0 c179 e0be
000001c0: 22eb 68c0 2c8f e3bf 9611 afbe ef6d ee3f
000001d0: 79de 07bf 5087 9ebf 1696 d9bc 5d25 b73f
000001e0: 3518 943f fd8a 42bf 931d d63e 39a5 1fc0
000001f0: 0949 2abf 15ec 2dbf e7f0 0840 6de9 e13f
00000200: c0ca 34c0 50e4 8abf 4cf4 58bf c442 883f
00000210: 0cfc 4a3f 4f06 89be 1683 c4bf 29a4 bbbf
00000220: 7536 15bf 3c9f 46c0 7b80 283f fd14 d43f
00000230: 0813 2f3e 0d5a 923e 5ebc 1c40 94b7 1a3d
00000240: 8b9f 8fbf d505 263f a688 09c0 1a46 4c3f
00000250: 5613 343e 2816 18bf 4508 6abe 09cf 8c3f
00000260: 0a70 ebbf 0fb0 04c0 7d8f d9bf 65aa 42bf
00000270: 6c46 a23e b3ba 803f 1651 803f e06e 833f
00000280: 732f 7e40 ef7f 5dbf 19b4 91c0 d7c9 9940
00000290: 7e3a 6abf 23cb e2bf f1e2 6240 8a45 6840
000002a0: 16f9 3740 eb64 4e40 49a8 a1bf dd0a 7440
000002b0: 0456 ff3f 570b fcbf 4630 973f 1f7b 723f
000002c0: 6cdb 8cbd ea43 0140 c081 dabf b92f c63f
000002d0: 8eab b8bf e5a3 9b40 890c 443f cac7 ad3f
000002e0: ec91 f9be 17ae 63c0 20f1 7940 0fae 1cc0
000002f0: 7165 ad3e 7aa6 1940 b489 b1be 3909 4dc0
00000300: 1925 02c0 d7f8 7ebe 3f1b a03f 5059 ae3e
00000310: 4764 dabf 76dc a13f 750c 973f 92f4 3bc0
00000320: 25c6 09bf 629f 2ec0 713c 1440 7440 c5bf
00000330: 0dab 423f b922 0d40 5bf5 81bf 549b 2040
00000340: 3e49 10c0 ef96 60bf fd46 7c3f f8f5 4040
00000350: 2ed7 733f 13bd 43c0 6753 f0bf 2367 55c0
00000360: ba15 433e f7c1 85bf 9f10 e7bf cce9 953f
00000370: 7cbb dd3f f000 fcbf 9fc1 2940 f685 353f
00000380: 613f be40 7820 d73f e8a4 2640 d1b3 d1bd
00000390: ab14 d93f 5e33 9abe 95a2 9dbf e3f8 cebf
000003a0: 8c02 d3c0 2389 9440 2dc4 10c0 7ad0 d2bf
000003b0: e34e e7bf f4bc c940 9da4 523f 9a1e 9340
000003c0: 19f0 9d3f f2cb 763f a659 2c40 6521 a13f
000003d0: efc2 4a40 e14a 3c3f 7bda 1840 e1d8 39c0
000003e0: 824c b63f ecc9 a23f 6e1b 46c0 bdb5 cdbe
000003f0: 412e 773f a947 9dbe de01 babf 0d1b 9d3f

lin1.weight f4 [64, 320]
-0.015225289 -0.027781446 0.0149852 0.0032463353 0.013103947 -0.08789984 0.049397945 0.013762434
0.00059958186 0.052116293 -0.006071712 0.002274136 0.010808154 -0.04757906 0.047440667 -0.016756656
0.010906944 -0.04236074 0.020501139 -0.002568674 0.022621244 0.047172286 0.003974694 0.071026385
-0.037566394 0.03120154 0.016146591 0.02275566 0.079029486 0.0032958984 -0.00511267 0.02055132
-0.04479441 0.007979643 0.05293468 0.040289734 0.040829528 0.012033348 0.07972764 -0.04436163
-0.02435783 0.003996233 0.025624424 0.049411803 -0.048441947 -0.017601479 -0.0045894505 0.03414537
0.04862105 0.008485331 -0.035543565 -0.006894522 0.041475665 0.03915273 -0.07990834 -0.0010325535
0.0124831265 -0.047618605 0.0499601 -0.038478646 -0.026871935 0.034019187 -0.051519226 -0.0030787375
-0.029912587 -0.010904617 -0.052300196 0.0033004861 0.028607816 -0.009669641 -0.060538657 0.059773844
-0.019716548 0.006954829 -0.01912031 0.05289821 0.058995925 -0.009397645 -0.0015321099 0.02199593
0.016882075 0.05632478 -0.039003395 -0.023021517 -0.022352548 -0.012640152 -0.069279656 -0.016458081
-0.016161464 -0.032637645 0.017355928 -0.019418025 -0.03664556 -0.049630374 0.00029923537 -0.026822926
-0.004344185 0.018072357 0.021544497 -0.05469708 0.0516718 0.026681235 0.042585947 0.013532178
-0.03895115 -0.027766474 -0.10211129 -6.190508e-05 0.023385605 0.02029234 -0.018463373 0.025140224
0.034513205 0.0009506353 -0.012501108 0.042481028 -0.015235319 -0.0031052215 -0.028416976 -0.057641946
0.009569363 -0.016105445 0.012346908 -0.013061887 -0.017803797 -0.017690348 0.0040815957 0.037408236
-0.007936443 -0.016633835 0.012946663 -0.0061928555 -0.02941743 -0.030558191 0.059968892 0.006440064
0.011711906 -0.04863318 0.078573056 -0.004399925 0.019589383 0.014015568 0.04200034 0.02678863
0.04006206 -0.02559249 0.057499368 -0.0588384 -0.032035522 -0.010979674 -0.0067265597 -0.026039626
-0.022510495 -0.05756949 0.0026179017 0.044050936 -0.010679842 0.048759907 -0.10081549 0.06586364
0.03433978 -0.10272886 0.020530842 0.013351067 -0.04172502 0.036190115 0.032607984 -0.0072717876
0.08961482 -0.01936476 -0.072821476 0.10101307 0.12972926 -0.07472742 -0.011432771 -0.02075326
0.09833072 -0.059719153 -0.026656859 -0.038310234 -0.016896117 -0.020383837 0.040843207 -0.049729135
-0.12358192 0.058610007 0.012936351 -0.028430548 -0.06894073 -0.069399215 -0.026708633 0.049465798
0.061065305 -0.0015604111 0.07148693 0.05577834 -0.07904286 0.005894034 0.064141355 -0.025827367
0.033895764 -0.01984721 0.029034043 0.074672416 0.101824105 0.054358587 0.09811429 -0.010533247
0.068628654 -0.09192673 -0.17517087 -0.046291217 -0.003044277 0.102030694 0.003159545 -0.008916114
-0.09371255 0.0038510708 -0.014894168 -0.047534425 0.035557542 -0.031197697 -0.14314705 0.052527916
-0.036837585 -0.06696137 -0.02899093 -0.12807135 0.008378484 -0.08093699 -0.02035878 0.05595505
0.117710195 -0.1547942 0.03013675 0.041642815 -0.020136934 0.057805102 0.123888515 0.03995231
0.12360619 -0.083616406 -0.1695484 0.02322177 -0.0155387195 0.10314302 -0.019241324 -0.03814807
0.109842665 0.10656327 0.06485798 -0.05196113 0.08273788 0.052038457 0.066827506 0.02346343
00000000: 7e73 79bc ea95 e3bc 7c84 753c 78c0 543b
00000010: f0b1 563c d504 b4bd 8055 4a3d d57b 613c
00000020: 422d 1d3a e577 553d 36f5 c6bb ac09 153b
00000030: af14 313c 43e2 42bd 2551 423d 4145 89bc
00000040: 0ab3 323c 7582 2dbd 01f2 a73c 3357 28bb
00000050: 3050 b93c ba37 413d 263e 823b 4876 913d
00000060: 38df 19bd 5f9a ff3c db45 843c 146a ba3c
00000070: 36da a13d 0000 583b 2f88 a7bb 3e5b a83c
00000080: 587a 37bd 0cbd 023c 09d2 583d d906 253d
00000090: dd3c 273d 8527 453c 3f48 a33d 8ab4 35bd
000000a0: 128a c7bc d5f2 823b 50ea d13c 0864 4a3d
000000b0: 106b 46bd fa30 90bc 1a63 96bb 04dc 0b3d
000000c0: de26 473d 0f06 0b3c 2196 11bd 71eb e1bb
000000d0: 63e2 293d 9d5e 203d fca6 a3bd bf56 87ba
000000e0: 0786 4c3c ba0b 43bd f6a2 4c3d c99b 1dbd
000000f0: 8822 dcbc b457 0b3d d305 53bd a5c4 49bb
00000100: 3e0b f5bc 47a9 32bc bb38 56bd f84c 583b
00000110: f05a ea3c 6a6d 1ebc 62f7 77bd 6bd5 743d
00000120: 9984 a1bc 56e5 e33b 32a2 9cbc cbab 583d
00000130: b6a5 713d 94f8 19bc 14d1 c8ba cf30 b43c
00000140: 474c 8a3c d0b4 663d 06c2 1fbd 9f97 bcbc
00000150: b11c b7bc a418 4fbc 7ee2 8dbd 19d3 86bc
00000160: 0c65 84bc 0daf 05bd 052e 8e3c 8d12 9fbc
00000170: a819 16bd 3849 4bbd b1e2 9c39 c1bb dbbc
00000180: aa59 8ebb 7b0c 943c 167e b03c 0c0a 60bd
00000190: cfa5 533d 9b92 da3c 9a6e 2e3d 11b6 5d3c
000001a0: 3e8b 1fbd 8476 e3bc b91f d1bd 09d3 81b8
000001b0: 2b93 bf3c 1f3c a63c 8040 97bc dff2 cd3c
000001c0: b85d 0d3d 0e34 793a 73d1 4cbc 9600 2e3d
000001d0: 8f9d 79bc f980 4bbb b8ca e8bc f619 6cbd
000001e0: d1c8 1c3c 91ef 83bc b04a 4a3c 8601 56bc
000001f0: 45d9 91bc 59eb 90bc e8be 853b 6139 193d
00000200: db07 02bc ae43 88bc 3e1e 543c 70ed cabb
00000210: d2fc f0bc 2c55 fabc f1a1 753d 2c07 d33b
00000220: 4be3 3f3c 9633 47bd e9ea a03d 3f2d 90bb
00000230: ea79 a03c 8ea1 653c 8c08 2c3d d473 db3c
00000240: 1d18 243d 57a7 d1bc 7584 6b3d 8900 71bd
00000250: ae37 03bd 17e4 33bc 796a dcbb 0e51 d5bc
00000260: ee67 b8bc fccd 6bbd 1a91 2b3b c16e 343d
00000270: 81fa 2ebc 78b8 473d 5a78 cebd 84e3 863d
00000280: dfa7 0c3d 8263 d2bd 4c30 a83c 6fbe 5a3c
00000290: dbe7 2abd 163c 143d f38f 053d 2d48 eebb
000002a0: fa87 b73d d8a2 9ebc 6d23 95bd f1df ce3d
000002b0: bfd7 043e b10a 99bd 8450 3bbc be02 aabc
000002c0: 9e61 c93d 129c 74bd 7c5f dabc 31eb 1cbd
000002d0: ba69 8abc 01fc a6bc 354b 273d c7b0 4bbd
000002e0: 8518 fdbd 0c11 703d fdf2 533c 2ee7 e8bc
000002f0: cc30 8dbd 2d21 8ebd 10cc dabc a69c 4a3d
00000300: 9d1f 7a3d b586 ccba bd67 923d d477 643d
00000310: 39e1 a1bd be22 c13b 8b5c 833d ea93 d3bc
00000320: 49d6 0a3d 9e96 a2bc cdd8 ed3c daed 983d
00000330: 2889 d03d 1ca7 5e3d 25f0 c83d a493 2cbc
00000340: 2e8d 8c3d 1544 bcbd fe5f 33be dc9b 3dbd
00000350: 7e82 47bb 78f5 d03d 5e10 4f3b e514 12bc
00000360: 5eec bfbd 3f62 7c3b ab06 74bc 75b3 42bd
00000370: c9a4 113d 5092 ffbc 2495 12be 8327 573d
00000380: 02e3 16bd 0b23 89bd 637e edbc 2325 03be
00000390: e945 093c 4bc2 a5bd 75c7 a6bc 1f31 653d
000003a0: 0b12 f13d 5f82 1ebe 58e1 f63c a891 2a3d
000003b0: 36f6 a4bc 0bc5 6c3d 43b9 fd3d 09a5 233d
000003c0: 3e25 fd3d 143f abbd 199e 2dbe 953b be3c
000003d0: 1d96 7ebc a63c d33d fb9f 9dbc 2741 1cbd
000003e0: 31f5 e03d d83d da3d 43d4 843d 32d5 54bd
000003f0: 7a72 a93d 4726 553d dcdc 883d 6136 c03c

lin1.bias f4 [64]
-0.07298177 0.33348516 0.291747 0.23673005 0.39877042 0.3921171 0.22672254 -0.109766565
-0.19322464 0.29447368 -0.25668928 0.24171968 0.40032506 0.5049424 -0.2986437 0.5641429
0.47948036 0.15928897 0.060044385 0.32802108 -0.41959184 0.26871818 -0.27788162 0.11583964
-0.23857392 -0.20484568 -0.37423784 -0.10044567 -0.3519009 -0.27826717 0.3935456 -0.18752491
0.70967054 0.11374294 0.49557465 -0.1425706 0.2533405 0.035139356 0.07223224 0.3856722
0.61692053 -0.2756939 -0.008237284 -0.19203284 -0.12370799 -0.14853007 -0.20278238 -0.19801015
0.4164725 -0.30783185 -0.30324337 -0.28238866 -0.029817577 -0.48056537 -0.040840186 0.1412841
-0.004500532 -0.089344636 0.21431771 -0.08264992 -0.3677681 -0.0019631498 0.41405892 0.60337025
00000000: 7777 95bd 91be aa3e dd5f 953e 5d69 723e
00000010: a32b cc3e 93c3 c83e f429 683e 4bcd e0bd
00000020: aedc 45be 41c5 963e c76c 83be 5d85 773e
00000030: 68f7 cc3e e843 013f d4e7 98be ab6b 103f
00000040: 737e f53e a61c 233e 1af1 753d 61f2 a73e
00000050: bed4 d6be 6e95 893e 8046 8ebe 553d ed3d
00000060: b94c 74be 11c3 51be 1a9c bfbe 76b6 cdbd
00000070: 5b2c b4be 0979 8ebe cf7e c93e 8806 40be
00000080: f8ac 353f 0ff2 e83d f6bb fd3e 07fe 11be
00000090: d9b5 813e 49ee 0f3d 7fee 933d d476 c53e
000000a0: 81ee 1d3f c027 8dbe acf5 06bc 42a4 44be
000000b0: 9d5a fdbd 4418 18be 2fa6 4fbe 2cc3 4abe
000000c0: e23b d53e 239c 9dbe b742 9bbe 3f95 90be
000000d0: fe43 f4bc aa0c f6be 0a48 27bd c7ac 103e
000000e0: 3379 93bb 52fa b6bd 1a76 5b3e 5c44 a9bd
000000f0: 1a4c bcbe 30a8 00bb 88ff d33e 7976 1a3f

lin2.weight f4 [53, 64]
-1.7354429 0.052734684 -0.06904979 -0.8442531 1.0851077 0.6203331 1.208012 2.3515542
0.7916042 0.08436501 -0.9254399 -2.1511877 0.14561023 -1.2024952 -0.13438593 0.58605283
-0.19403163 -0.8053146 0.36400345 -1.3524752 -0.4632759 0.22760819 0.570703 -0.23441374
-0.51151985 -1.3026477 -1.2920659 0.31331843 0.93183696 -0.3467371 -0.21325079 1.7441027
-1.3094276 1.181375 1.4248898 -0.49939543 0.54803336 1.1535608 -0.887524 0.75833213
-0.28329748 1.3602232 1.4544697 -1.2060227 -0.93968457 0.6989116 0.56595117 -0.9078648
0.97705203 -0.5133539 0.8049477 -0.26182884 -0.11177763 -0.44368893 1.08729 0.6658573
-0.73430485 -1.3302597 -1.2353779 2.0165868 -1.0312804 -2.051714 1.2741443 1.3622051
-3.3698034 0.17439826 -0.103033766 -1.280631 1.1309782 1.5981514 1.8244799 2.4740436
2.0672936 0.6216411 -1.0482827 -2.9248726 -0.17382693 -0.9038751 -0.2190096 0.8170138
-0.54355866 -1.7862021 0.27913824 -2.6616554 -1.1389415 1.0512415 0.537897 -0.7237771
-0.8422931 -1.3603364 -1.779111 0.6063368 1.0580423 -0.17682673 0.15487477 2.003517
-1.2700257 1.7909718 1.1991619 -1.0292904 1.3868451 1.5022147 -1.2201673 1.4435685
0.14044924 2.628236 2.2742426 -1.6517421 -0.8278034 0.41911873 0.405735 -1.5154657
1.3269136 -0.17976022 0.2805716 -1.5349193 -0.5156529 -1.4060804 0.9232618 1.4757391
-1.048375 -0.5726652 -1.422772 3.213654 -0.5333837 -2.9478307 2.017205 1.3714633
-1.3671263 0.08588684 1.1103415 0.044090446 0.8118282 0.39530396 -0.9650748 0.30350867
-0.44799495 -0.51256436 0.8750797 -0.52545154 -0.93310064 -0.6329999 -1.3068479 -1.2399019
-0.17614117 -1.5106243 -1.1118283 -1.5767659 -3.518772 0.2729679 1.6062332 -0.0524123
-0.42390227 1.4866891 -1.9673927 0.18400867 -0.28103462 1.1209675 -1.5527003 -0.43446514
-1.7148446 -1.5486495 -0.09782229 0.7192476 0.105855465 0.5943645 0.29740655 0.9136399
-1.6956184 1.70202 -1.1886464 1.2035874 -1.100501 -0.92458075 -0.29098332 0.99385846
-0.8441893 1.5061454 -1.2774843 0.3320441 -1.2793003 -0.37301156 1.341421 1.3665214
0.692975 -0.46935287 0.1436555 3.8773904 0.79454553 -1.2411474 1.136749 -0.97359437
-0.6149121 0.5026172 -0.47496083 -1.1974498 0.8641892 -0.39474878 0.6642951 1.2007878
-0.08313073 0.23020132 -0.60005754 -0.80651075 -0.9260136 0.7030116 -0.53297067 0.7250734
-0.67446685 0.73946714 0.15345187 -1.6139351 0.95325655 0.54322 -0.18097854 0.5517855
-0.81885386 0.82924414 -0.050867315 -0.9234831 0.7614734 1.5784209 1.0612605 -0.014857912
0.37265545 0.25672594 0.5522405 -1.1134098 0.83597183 0.5529405 -0.07942229 0.6226874
-0.9577035 -0.21990281 1.7816154 0.6956859 -0.69109863 -1.0994273 -1.3898929 -0.8490458
1.6755013 2.947248 1.0264229 0.68203557 -1.0420232 -0.021451706 0.40078348 -0.06324343
-1.1491325 -0.1785578 0.12964317 0.2909512 0.3362696 -0.31535608 -0.5653396 -1.1093729
00000000: fe22 debf 5300 583d fa69 8dbd f920 58bf
00000010: cfe4 8a3f 26ce 1e3f 23a0 9a3f dd7f 1640
00000020: 93a6 4a3f 90c7 ac3d a1e9 6cbf 0fad 09c0
00000030: d91a 153e 5deb 99bf 779c 09be 8f07 163f
00000040: 3ab0 46be 1929 4ebf a95e ba3e e81d adbf
00000050: 8032 edbe 1f12 693e 9819 123f 280a 70be
00000060: f7f2 02bf 29bd a6bf 6a62 a5bf 466b a03e
00000070: de8c 6e3f 8687 b1be 6a5e 5abe c23e df3f
00000080: 539b a7bf 4c37 973f ca62 b63f c2b0 ffbe
00000090: ea4b 0c3f e1a7 933f c634 63bf 0e22 423f
000000a0: 5e0c 91be cb1b ae3f 102c ba3f f45e 9abf
000000b0: 2b8f 70bf dfeb 323f 2de2 103f d469 68bf
000000c0: 1520 7a3f 296b 03bf 0d11 4e3f 6e0e 86be
000000d0: aceb e4bd 322b e3be 522c 8b3f a075 2a3f
000000e0: 67fb 3bbf f345 aabf dd20 9ebf c20f 0140
000000f0: ff00 84bf 484f 03c0 2917 a33f bd5c ae3f
00000100: dcaa 57c0 7595 323e 5e03 d3bd b7eb a3bf
00000110: e5c3 903f 3a90 cc3f 8f88 e93f bb56 1e40
00000120: 8a4e 0440 df23 1f3f 212e 86bf 1d31 3bc0
00000130: b0ff 31be 5c64 67bf 0d44 60be d127 513f
00000140: a926 0bbf 45a2 e4bf 35eb 8e3e 9058 2ac0
00000150: d6c8 91bf 158f 863f 9eb3 093f 7549 39bf
00000160: 85a0 57bf 811f aebf e9b9 e3bf e338 1b3f
00000170: ee6d 873f 1112 35be 7e97 1e3e 9f39 0040
00000180: 3490 a2bf 903e e53f 237e 993f cabf 83bf
00000190: 2484 b13f 9248 c03f 712e 9cbf dac6 b83f
000001a0: edd1 0f3e 0535 2840 318d 1140 496c d3bf
000001b0: ecea 53bf bb96 d63e 7fbc cf3e c8fa c1bf
000001c0: 4ed8 a93f 1013 38be 15a7 8f3e 3c78 c4bf
000001d0: d401 04bf 71fa b3bf e35a 6c3f 05e5 bc3f
000001e0: 2731 86bf 309a 12bf 651d b6bf 82ac 4d40
000001f0: d68b 08bf 42a9 3cc0 e319 0140 1c8c af3f
00000200: fffd aebf 71e5 af3d ac1f 8e3f 2f98 343d
00000210: f9d3 4f3f 4865 ca3e 240f 77bf 7d65 9b3e
00000220: 985f e5be 6b37 03bf 3905 603f fe83 06bf
00000230: afdf 6ebf 480c 22bf cb46 a7bf 1bb5 9ebf
00000240: 5a5e 34be 235c c1bf 6450 8ebf 77d3 c9bf
00000250: 8f33 61c0 73c2 8b3e 0d99 cd3f 48ae 56bd
00000260: b809 d9be d44b be3f 86d3 fbbf c56c 3c3e
00000270: c5e3 8fbe dd7b 8f3f e2be c6bf 3772 debe
00000280: 0780 dbbf 263a c6bf 0e57 c8bd 9c20 383f
00000290: c0ca d83d 4628 183f ac45 983e 4ee4 693f
000002a0: 060a d9bf cbdb d93f 9125 98bf 270f 9a3f
000002b0: 37dd 8cbf 53b1 6cbf c4fb 94be 826d 7e3f
000002c0: ca1c 58bf 5fc9 c03f 9b84 a3bf af01 aa3e
000002d0: 1dc0 a3bf 5ffb bebe afb3 ab3f 2cea ae3f
000002e0: cf66 313f 054f f0be 6d1a 133e 2a27 7840
000002f0: 5667 4b3f ebdd 9ebf fe80 913f 7b3d 79bf
00000300: e16a 1dbf 85ab 003f 112e f3be 0946 99bf
00000310: 813b 5d3f 831c cabe 3e0f 2a3f 6ab3 993f
00000320: 7240 aabd e5b9 6b3e 5f9d 19bf 7d77 4ebf
00000330: 3a0f 6dbf 91f8 333f c470 08bf 699e 393f
00000340: dca9 2cbf b84d 3d3f 7d22 1d3e 6d95 cebf
00000350: 9f08 743f 7710 0b3f 7052 39be d141 0d3f
00000360: 68a0 51bf 5849 543f 3f5a 50bd 6369 6cbf
00000370: ecef 423f b209 ca3f 62d7 873f 9a6e 73bc
00000380: b2cc be3e 9571 833e a25f 0d3f 3684 8ebf
00000390: 4002 563f 828d 0d3f 27a8 a2bd 7168 1f3f
000003a0: 0e2c 75bf 342e 61be f90b e43f 7918 323f
000003b0: d7eb 30bf 09ba 8cbf 03e8 b1bf 115b 59bf
000003c0: d476 d63f b69f 3c40 d361 833f e299 2e3f
000003d0: 0461 85bf 7dbb afbc 7e33 cd3e c585 81bd
000003e0: c616 93bf dbd7 36be 2ec1 043e 8ef7 943e
000003f0: 872b ac3e 5a76 a1be 19ba 10bf eeff 8dbf

lin2.bias f4 [53]
-0.9824649 0.03029695 -18.044426 -4.0519066 -5.933968 -8.855223 -9.803276 -14.25199
-1.4668694 -5.743899 -10.767765 -14.667056 -7.505982 -7.8863716 -6.6150565 -8.059855
-8.5296335 -17.039572 -16.172108 -14.864554 -5.533673 -8.2029705 -4.685138 -10.689202
-14.750215 1.8717673 0.09205194 1.3462254 -0.24481437 1.8760663 0.14855874 -1.8734725
-1.1664767 1.945924 -4.8790126 -0.7937553 1.0741894 0.8496035 0.068876706 1.165017
0.83574116 -5.3933682 1.3157288 1.7382063 1.5133609 0.7850603 -1.3113357 0.89888155
-4.7558255 -0.16588019 -8.153767 -7.4835963 -7.4847226
00000000: d282 7bbf 4f31 f83c fc5a 90c1 38a9 81c0
00000010: 11e3 bdc0 feae 0dc1 38da 1cc1 2708 64c1
00000020: 60c2 bbbf 05ce b7c0 c448 2cc1 43ac 6ac1
00000030: 0131 f0c0 285d fcc0 8bae d3c0 2bf5 00c1
00000040: 6179 08c1 0b51 88c1 7a60 81c1 37d5 6dc1
00000050: d913 b1c0 5e3f 03c1 a7ec 95c0 f906 2bc1
00000060: e100 6cc1 1296 ef3f ba85 bc3d 1d51 ac3f
00000070: 9eb0 7abe f122 f03f c81f 183e f2cd efbf
00000080: 1c4f 95bf 0a14 f93f df20 9cc0 8c33 4bbf
00000090: 0a7f 893f 9d7f 593f 3b0f 8d3d 471f 953f
000000a0: 22f3 553f 7996 acc0 cd69 a83f 8b7d de3f
000000b0: cfb5 c13f b6f9 483f d9d9 a7bf 1a1d 663f
000000c0: b92f 98c0 7fdc 29be d475 02c1 9f79 efc0
000000d0: d982 efc0
