Models_Q1/Model-b2-e10-h1.pth (torch, 4372 bytes, 4 tensors)

emb.weight f4 [41, 10]
000000 0a 4c e3 3e 8a 14 71 be ec 25 df bf 0e 91 f5 bc
       0.4439395 -0.23542991 -1.7433448 -0.029976394
000010 d2 f0 dd bf 03 e2 e4 be 67 34 f6 3e 5d b4 4c bf
       -1.7339118 -0.44703683 0.48086855 -0.7996271
000020 7e 00 af be 22 b3 46 bf 4d c1 8e 3f 5f 33 10 bf
       -0.34180063 -0.77617085 1.1152741 -0.56328386
000030 95 61 ad 3e 3c 28 dc 3e 8b ff 5f bf 8c cd 83 3e
       0.33863512 0.42999446 -0.874993 0.25742757
000040 0d c0 da be b8 e1 ef 3d 29 44 fd bd e6 ac 20 bf
       -0.42724648 0.11712974 -0.12366516 -0.6276382
000050 65 9f 86 3f 30 2b 7e bf d0 c7 01 be 39 d9 46 bf
       1.0517393 -0.9928465 -0.12673879 -0.77675205
000060 3c 1e 3b be 38 2c cb bf 62 89 98 bf a5 da 11 3e
       -0.18273252 -1.587287 -1.1916926 0.14243563
000070 99 fb a7 bc 7f 14 78 bf 19 88 6d 3f f7 8e 71 be
       -0.020505713 -0.96906275 0.92785794 -0.23589693
000080 6a e3 28 bc c7 1f 49 3f be 0f da be b6 06 74 bf
       -0.010308126 0.78564113 -0.42590135 -0.9532274
000090 5b 50 a7 3f 97 5a 0b 3f ce d9 2b bf e9 0b 2a bf
       1.3071398 0.54435104 -0.6712922 -0.66424423
0000a0 c2 6c d8 bf f8 c1 01 40 9a 60 1c c0 0e 3f 3d bf
       -1.690819 2.027464 -2.443396 -0.7392434
0000b0 c7 04 36 40 90 20 fa bf 39 69 97 be c9 1a 65 bf
       2.8440416 -1.9541187 -0.29572466 -0.89493996
0000c0 56 d7 36 c0 31 86 25 3f 7b 60 5c 3f 68 65 d1 3d
       -2.856893 0.64657885 0.8608472 0.1022442
0000d0 5c 50 09 3d 6e fb 9e 3e 2f 05 44 3f f4 72 1c 3f
       0.033523902 0.310512 0.7657041 0.61112905
0000e0 6e 85 7a bf 34 ee fa 3e 19 d2 da bf 20 12 08 3f
       -0.9785985 0.4900986 -1.7095367 0.53152657
0000f0 d0 73 86 3f 18 85 bf 3f 3d 4d ee 3e 55 95 2a bf
       1.0504093 1.4962492 0.46543303 -0.6663411
000100 64 8f cd bf 67 8c 00 be 79 81 28 3e 64 52 54 3e
       -1.6059384 -0.12553559 0.1645564 0.20734555
000110 29 46 d6 3e 90 e5 61 bf 04 36 15 3f e6 84 14 3e
       0.41850403 -0.8824091 0.58285546 0.14503822
000120 46 23 9a 3f 39 f1 eb bd 37 35 b9 be f8 3e 83 3f
       1.2042015 -0.11520619 -0.36173412 1.0253592
000130 97 67 ee 3e 80 9f c8 3f 0d 85 47 3f f3 e1 24 3c
       0.46563408 1.5673676 0.77937394 0.010063636
000140 c7 95 f1 be 99 3a 72 3f b7 2d d5 3c e7 ec fb 3d
       -0.47184584 0.9462066 0.026022775 0.12301045
000150 fd ed 1f 3e 39 a1 a5 3f a6 b1 90 3d ad 9d 02 c0
       0.15618129 1.2939826 0.07065134 -2.0408738
000160 f5 8d 28 3f be 43 22 3f 1f e1 61 3f 82 75 44 3f
       0.6584161 0.63384616 0.8823413 0.767418
000170 0b 0f da be ca 8d 80 bf 57 8f e7 3e 44 01 a4 3f
       -0.42589602 -1.004327 0.45226547 1.2812886
000180 6e db 98 be b4 24 03 3f a0 46 9e 3f 18 93 1d 3f
       -0.29854912 0.5122788 1.2365303 0.6155257
000190 c5 30 6c c0 8d 7b 8a 40 b2 4f 30 40 64 32 26 c0
       -3.6904767 4.327582 2.7548642 -2.5968256
0001a0 fc d1 c1 3f 00 9f 2e c0 50 f0 26 40 28 31 c2 3f
       1.5142207 -2.7284546 2.6084175 1.5171251
0001b0 24 03 91 c0 04 ea 5d 40 de e0 5c bf 0b 37 0f bf
       -4.5316334 3.4674082 -0.8628062 -0.55943364
0001c0 51 55 a3 bd 2b c8 63 bf c0 4e c8 3f 0a 49 b1 3e
       -0.07975257 -0.8897731 1.5649033 0.34626037
0001d0 09 50 c8 bf 5b 31 af bf 53 bb 63 3f 61 63 e4 bf
       -1.5649425 -1.3686937 0.8895771 -1.7842828
0001e0 5b 1f 40 c0 d8 2a f3 3f d6 fe d6 3f 37 10 f0 bf
       -3.0019138 1.899745 1.679652 -1.8754948
0001f0 07 59 03 40 c9 c0 62 bf 9e ca ea 3d 8e 24 a5 3f
       2.0523088 -0.88575417 0.114644274 1.2901781
000200 dd c0 18 c0 cf 50 3c 40 54 36 71 3e c0 c6 4c bf
       -2.3867714 2.9424322 0.23555881 -0.7999077
000210 a3 1a fd be 14 fb c1 3f 3e 32 bd 3f 51 b0 bf 3d
       -0.49434385 1.5154748 1.4780958 0.093598016
000220 91 ad 81 bf a6 0e 0a 3e 34 4b 07 bf 23 28 2e 3f
       -1.0131093 0.1348215 -0.52849126 0.68029994
000230 25 27 02 3f c3 ed 2a bc b3 ac ba 3e f3 3e 73 3f
       0.5084098 -0.010432663 0.36459884 0.9501793
000240 85 df ff 3e 20 74 01 3f cd e0 43 bd 42 2d 47 be
       0.4997522 0.5056782 -0.04782181 -0.19450858
000250 cd 64 d7 bf 6d fd 5b 3c 72 5d 1c bf 75 2a 1f 3e
       -1.6827637 0.013427121 -0.61080086 0.1554354
000260 63 02 cd be a9 01 aa 3f e6 ba 42 bf db 64 f6 be
       -0.40040883 1.3281757 -0.76066434 -0.48123822
000270 8c 4a 2a bf 6c 2b 90 3e 7b b2 8d 3f b2 44 b1 bf
       -0.6652 0.28158128 1.1070093 -1.3849089
000280 43 e2 c3 bf f4 db 81 bf 6f f0 77 3f 4a 5e 51 3f
       -1.5303425 -1.0145249 0.9685125 0.817845
000290 9f 37 76 3e 13 f6 6a be 4d 2d da bf c3 55 50 bf
       0.24044655 -0.22945432 -1.7045075 -0.8138086
0002a0 60 6a eb 3e be a1 82 3e 78 5b 00 3f c7 fd d7 3e
       0.45979595 0.25514024 0.5013957 0.42185804
0002b0 97 40 9e be c5 11 28 bf 52 6b 1f be 15 aa 84 bf
       -0.30908653 -0.65652114 -0.15568283 -1.0364405
0002c0 31 73 f1 bf df 98 09 3f 88 41 d9 bd 20 b2 56 bd
       -1.8863279 0.5374889 -0.10608202 -0.052415967
0002d0 65 8b 0f 40 72 b0 81 3f 69 75 3c bf 0a df c0 bf
       2.242883 1.0131972 -0.73616654 -1.5068066
0002e0 fb 63 0d 40 f7 27 01 bf 2a 12 39 3f e0 ee a7 bf
       2.2092273 -0.50451607 0.7229334 -1.3119774
0002f0 be 7b eb bf 5f 86 fc be 06 21 ab 3c 65 2e c6 3e
       -1.8397138 -0.49321267 0.02088977 0.3870727
000300 1e 30 21 bf 27 23 3d 3f f7 73 20 bf 5b e5 5e 3f
       -0.62964046 0.73881763 -0.6267695 0.8706872
000310 e9 c5 1b 3e e8 08 26 bf ec c0 7f 3e 98 fa a2 3e
       0.15212215 -0.6485734 0.24975938 0.31831813
000320 8f 50 12 bf fb 85 c3 bf 01 28 03 bf 03 83 1c bf
       -0.5715417 -1.5275263 -0.51232916 -0.6113741
000330 3a fe 99 bf c2 14 8f bf bc 01 6e be 5e c0 ba bd
       -1.2030709 -1.117821 -0.23242849 -0.091187224
000340 4a b5 06 be 00 fc d3 3e 9c 3b 0f bf b2 b7 e2 3d
       -0.13155094 0.41403198 -0.5595033 0.11070193
000350 ae 89 06 bf 16 a7 15 bc 27 89 c5 be c6 8c a7 be
       -0.5255383 -0.009134075 -0.385812 -0.3272459
000360 4f a1 ae 3d 82 69 98 3f cc 0c 94 3f 1a 03 63 3e
       0.08526861 1.1907198 1.1566405 0.22169152
000370 42 fc 39 bf 99 f9 39 bf fc 9c 99 bf 6a c4 99 bf
       -0.7265054 -0.7264648 -1.2001033 -1.2013066
000380 79 b9 c2 be 7b 75 63 bf 94 6e 87 be 85 80 06 be
       -0.3803213 -0.88851136 -0.26451552 -0.13134964
000390 a4 23 4f bd 67 70 44 3e 26 b3 90 be 53 ca 42 3e
       -0.0505711 0.19183503 -0.2826168 0.19022493
0003a0 e3 e5 5b 3f 9c 0e 46 bf 9e c8 c9 be 55 51 fb 3e
       0.85897654 -0.7736604 -0.3941087 0.4908549
0003b0 b4 dd ae be 84 38 54 be b8 ec 98 3f aa 53 1f be
       -0.3415352 -0.20724684 1.1947241 -0.15559259
0003c0 c2 e9 aa 3f c9 38 84 bf 13 e3 96 3f 6c b3 cc bc
       1.3352587 -1.032983 1.1788048 -0.024987899
0003d0 3a bf 32 3f 1e 05 44 be fb 94 b3 3e 99 62 b3 bf
       0.6982304 -0.19142577 0.350746 -1.4014465
0003e0 c3 c4 dd bc 69 48 a8 bd 63 3f cc 3e 95 45 76 3f
       -0.027071362 -0.08216936 0.3989211 0.96199924
0003f0 05 14 26 bf 74 71 24 3f a6 6f de 3e 7d ba a6 3e
       -0.648743 0.64235616 0.43444556 0.32564154

lin1.weight f4 [1, 20]
000000 44 ad 34 be 58 6d f7 3d 13 15 50 3d da f0 8c bd
       -0.1764422 0.120814025 0.050801348 -0.06881876
000010 3d c4 1e 3d ba 79 a4 bb ac b7 55 3d 36 e6 0d 3d
       0.038761366 -0.0050193937 0.052177116 0.034643374
000020 f6 d1 90 bd 8d ab ed 3b 62 4a a5 3d 3f 97 e3 3d
       -0.07071297 0.0072531165 0.08070828 0.11112832
000030 59 55 93 3f d9 90 71 3f 3b 9e 1d 3d ec 76 1c 3f
       1.1510421 0.94361645 0.03848098 0.6111896
000040 ac fc 20 3f 5a 18 06 3f 47 b7 58 3e 18 25 cf 3d
       0.62885547 0.5238091 0.21163665 0.10114497

lin2.weight f4 [41, 1]
000000 a1 48 96 bf ec 40 c4 bf f7 89 17 bf 30 65 c5 bf
       -1.1740915 -1.5332313 -0.5919489 -1.5421505
000010 55 45 ec 3f 49 4b 59 40 8f 97 14 c0 b1 68 22 c0
       1.8458658 3.39522 -2.3217504 -2.5376399
000020 4f 85 35 bf 92 be 9c 40 19 74 78 3f 64 b1 24 c0
       -0.7090654 4.898263 0.9705215 -2.573327
000030 94 39 32 c0 62 30 4c c0 7e ca 9a bf db d3 0e 40
       -2.7847643 -3.190453 -1.2093046 2.2316806
000040 fc c8 11 40 c3 f0 74 3f 41 81 70 c0 bd f0 95 40
       2.277892 0.95679873 -3.757889 4.685637
000050 d5 11 86 40 87 a3 02 c1 84 80 fd bf 1a 23 f0 3f
       4.189677 -8.164924 -1.9804845 1.8760712
000060 64 f7 75 40 45 d2 82 3f f6 a2 36 40 9f 10 96 40
       3.8432245 1.0220419 2.8536963 4.689529
000070 36 fd 0a c0 54 5d 79 3f 29 1c bb 3f c6 5c f2 3f
       -2.1717048 0.9740803 1.4617969 1.8934562
000080 b4 c0 2c 40 4a 94 2d 40 86 f7 e7 bf ed 13 5b 40
       2.6992617 2.7121758 -1.8122413 3.4230912
000090 cc 32 54 3f 5c 96 8f 40 0c 2d 7a bf 0b 4d b5 40
       0.8289001 4.4871044 -0.97724986 5.6656547
0000a0 f3 52 67 c0
       -3.6144378

lin2.bias f4 [41]
000000 ce e9 00 3d b5 c1 3a 40 b0 60 0f bf 45 b2 16 bf
       0.031472974 2.918073 -0.5600691 -0.5886577
000010 a7 67 92 c0 82 7a a0 c0 18 b8 91 be 3a 6d 6b c0
       -4.575153 -5.0149546 -0.28460765 -3.6785417
000020 93 26 05 c1 91 ef 9c c0 0f 0b 6e c0 f1 40 03 c0
       -8.321918 -4.904244 -3.719425 -2.0508387
000030 43 6d 8c c0 19 54 37 c0 5b 46 f4 3f a4 49 46 bd
       -4.3883376 -2.864508 1.9083971 -0.048410073
000040 b7 7f 0a 3f 8a 40 65 3f c6 a9 0d 40 43 84 98 bf
       0.5410113 0.89551604 2.2134871 -1.1915363
000050 0d 3a df be d9 51 05 bf e7 2c f0 3f 0f 67 27 c0
       -0.43598977 -0.52078015 1.8763703 -2.6156652
000060 95 06 e0 bf 80 fb 6d 3f bf 18 cc 3e dc 19 19 3f
       -1.7502009 0.92961884 0.3986263 0.59805083
000070 b9 7b e8 3f 50 4e d7 3e 35 eb 19 c0 40 22 99 3f
       1.8162757 0.42051935 -2.404981 1.1963577
000080 0f 16 a3 3f 42 29 cc 3f 12 d0 31 3f 8f 15 4f bf
       1.2741107 1.5950091 0.69458115 -0.8089227
000090 f5 f7 17 3f 45 68 13 c0 ee 73 8e 3e f7 36 a5 c0
       0.5936273 -2.303239 0.27822822 -5.1629596
0000a0 bb 23 77 c0
       -3.8615558
