Models_Q1/Model-b3-e5-h9.pth (torch, 5323 bytes, 5 tensors)

emb.weight f4 [41, 5]
0	0x3f114305	0.5674289
1	0x3f9590b2	1.1684783
2	0xbe3baa28	-0.18326628
3	0x3f67fa84	0.9061663
4	0xbefa640f	-0.48904464
5	0x3ff10bd4	1.8831735
6	0x3f468527	0.77546924
7	0xbf673c92	-0.903268
8	0x3f925523	1.1432232
9	0x3ff30303	1.8985294
10	0x405a06a0	3.4066544
11	0x40a189b1	5.048058
12	0xbe0bcb28	-0.13651717
13	0x3f1f2f98	0.62182
14	0x3ec6785c	0.38763702
15	0x3dc5e01e	0.096618876
16	0xbcdeae3c	-0.02718269
17	0x3f30f3ae	0.69121826
18	0x3e6a9d8b	0.2291166
19	0xbfa4d898	-1.2878599
20	0x4061b3cc	3.526599
21	0x3f97c809	1.1857921
22	0x3ecaee8a	0.39635116
23	0x4007fac5	2.1246808
24	0x40218e3d	2.5243065
25	0xbf17c596	-0.5928587
26	0x3f816887	1.0110024
27	0x3ee97c78	0.45602775
28	0x3fb90ac3	1.4456409
29	0xbfbdbdb0	-1.4823513
30	0x3ed3dddf	0.41380212
31	0x3f9ab5d7	1.2086743
32	0x3f5b0256	0.8555044
33	0x3e290c0f	0.16508506
34	0xbe6d345c	-0.23164505
35	0xbe7bae77	-0.24578272
36	0x40161e1a	2.3455873
37	0xc0914bb0	-4.540489
38	0x409b8502	4.8599863
39	0x3f20ecbe	0.6286124
40	0xbe9740ec	-0.2954172
41	0xbeda933e	-0.42690462
42	0xbcb17506	-0.021662246
43	0xbf8ab241	-1.0835649
44	0xbf68552d	-0.9075497
45	0x403854f6	2.8801856
46	0x3fd2a01c	1.6455112
47	0x403a3b51	2.9098704
48	0x3fb06f51	1.3783971
49	0xbed7dbf1	-0.4215999
50	0xbf9d13eb	-1.2271703
51	0xc05268f5	-3.287656
52	0x3fb6479e	1.4240606
53	0xbf3bc8e7	-0.7335343
54	0xc048e3da	-3.138907
55	0x3f126ff1	0.5720206
56	0x3fe2bacd	1.7713257
57	0x3e587118	0.21136892
58	0x3f41e571	0.75740725
59	0xbf9833ee	-1.1890848
60	0xbfc8d4f0	-1.5689983
61	0xbf6ee0e7	-0.93311924
62	0x3f7abd6c	0.97945285
63	0x3faf4e66	1.36958
64	0xbec1d845	-0.37860313
65	0xbfa50edb	-1.2895159
66	0xbe30f57e	-0.17281148
67	0x3ff8338c	1.9390731
68	0xbe681152	-0.22662857
69	0xbdb56e27	-0.088589005
70	0x3ec086bb	0.3760279
71	0x3e60507a	0.219057
72	0x3e03464e	0.12819788
73	0xbe4cc87b	-0.19998352
74	0xbfca0ca2	-1.5785105
75	0xbf09d757	-0.5384421
76	0x40227aaf	2.538738
77	0x3f6e0ddf	0.92989916
78	0x3fa0ca19	1.2561675
79	0xbff24041	-1.8925859
80	0xbf52554e	-0.82161415
81	0x3fa2908e	1.2700365
82	0x3f84bf37	1.0370854
83	0xbf46dc4e	-0.7767991
84	0x3fb17bcf	1.3865908
85	0xbf2c946e	-0.67413986
86	0x3fdb37ef	1.7126445
87	0x3f43fbb4	0.76555943
88	0x3f19909d	0.5998629
89	0xbed9dc6f	-0.4255099
90	0x3f8a2bbd	1.0794598
91	0x3f0c3191	0.5476313
92	0x3f66bb90	0.9012995
93	0x3ea040be	0.31299394
94	0xbf2d81c0	-0.6777611
95	0xbfeec519	-1.86539
96	0xbe977097	-0.29578087
97	0x3fc878ba	1.5661843
98	0xbf1d50ea	-0.6145159
99	0xbe8b9bd9	-0.2726734
100	0xbe9e6f16	-0.30944127
101	0x3f87d5d0	1.0612125
102	0x3f8eaee5	1.1147124
103	0x4004281e	2.0649486
104	0xbf117744	-0.5682261
105	0xbe3c440a	-0.1838533
106	0xbd88b60b	-0.06675347
107	0xbdaf6eae	-0.08566032
108	0xbe59b861	-0.21261741
109	0x3ecf11ff	0.40443417
110	0x3ebbae85	0.36656585
111	0xbe8ae21f	-0.27125642
112	0xbf639dfe	-0.8891295
113	0x4020ed67	2.51449
114	0xbf70c8cc	-0.9405639
115	0x401ef65a	2.483786
116	0xbe094b22	-0.13407567
117	0x3d766006	0.06015017
118	0xc06ee396	-3.7326407
119	0xbfce9813	-1.6140159
120	0x3ebf5251	0.3736749
121	0x3f822c82	1.0169833
122	0x3f208580	0.62703705
123	0x3ff22771	1.8918287
124	0x3d60aa30	0.054849803
125	0xbffa50b2	-1.9555876
126	0x400c0f72	2.1884427
127	0xbfd0cb05	-1.6311957
128	0x3e6e6def	0.23284124
129	0x3eed60af	0.46362826
130	0xbef3d889	-0.4762614
131	0x3f851dfc	1.0399776
132	0xbf9c953e	-1.2233045
133	0xbec55d4e	-0.38547748
134	0xbedf3005	-0.43591323
135	0xbff43342	-1.9078143
136	0xbf0b41b2	-0.5439712
137	0x3e905207	0.28187582
138	0x3f442906	0.76625097
139	0xbe8f9ce4	-0.28049386
140	0x3f7d7152	0.9900104
141	0xbcd60141	-0.026123645
142	0x3fb0bf1a	1.380832
143	0x3f8535a7	1.0406998
144	0xbf214dd1	-0.63009363
145	0xbff5a003	-1.9189457
146	0x3d8ee53a	0.06977315
147	0x3f907e1a	1.1288483
148	0x3f82e7ec	1.0227027
149	0xbff9e419	-1.9522735
150	0xc00c39d0	-2.1910286
151	0x3efe7b66	0.4970352
152	0x4006631f	2.0997999
153	0x40b8d084	5.7754536
154	0x3f9ad0f8	1.2095022
155	0xbff47921	-1.9099466
156	0x3e7c40d9	0.24634112
157	0xbf6b566f	-0.9192876
158	0xbe58bb28	-0.21165144
159	0xbf76a503	-0.9634554
160	0xc00fbfa7	-2.2460725
161	0xbf34ff34	-0.7070191
162	0x3f867acf	1.0506228
163	0x3f071f30	0.52781963
164	0xbf24ef79	-0.64427906
165	0xbfc4d151	-1.5376378
166	0xbf0f809a	-0.56055605
167	0x3fbdb191	1.4819814
168	0xbea18494	-0.31546462
169	0x3f4eaaaf	0.8072919
170	0x3f214b48	0.63005495
171	0xbe447a56	-0.19187292
172	0xbf0b856a	-0.5450045
173	0x3ef35740	0.47527504
174	0xbf7e3213	-0.9929516
175	0x3d32a4f2	0.043614335
176	0x3fd3316f	1.6499461
177	0xbf1b0855	-0.6055959
178	0xbfe1232c	-1.7588859
179	0xbe19ac1e	-0.15007064
180	0x3dbf353c	0.093363255
181	0x3f01be4c	0.50680995
182	0x3f91aab6	1.1380222
183	0xbfb8a66a	-1.4425786
184	0x3efb514d	0.49085465
185	0xbfd29c42	-1.6453936
186	0xc00c710c	-2.1943998
187	0xbfe9df7b	-1.8271326
188	0xbed653cb	-0.41860804
189	0x3ed242e9	0.41066673
190	0x3ed91abb	0.42403206
191	0x3f4b2e07	0.7936711
192	0x3f77be68	0.9677491
193	0xbe8084c3	-0.2510129
194	0xbf121bf5	-0.5707391
195	0xbf991619	-1.1959869
196	0x3fd0e038	1.6318426
197	0xbf0e69a5	-0.5562995
198	0x3f6f9136	0.9358095
199	0xc01d61f6	-2.459104
200	0x404d0f8a	3.2040734
201	0x3fe4a77a	1.786361
202	0xbfafa05e	-1.3720815
203	0x3fe25d0c	1.7684646
204	0x401f8f78	2.4931316

lin1.weight f4 [9, 15]
0	0x3b7e638c	0.0038816659
1	0x3cede0e6	0.029037904
2	0x3dd3a206	0.10333638
3	0x3e83240d	0.25613442
4	0xbe4712ea	-0.19440809
5	0xbe24980e	-0.1607363
6	0x3e840998	0.2578857
7	0x3e36852f	0.17824243
8	0xbdd6d57f	-0.1048994
9	0x3d78045a	0.060551025
10	0xbe37e457	-0.17958198
11	0xbd943481	-0.07236577
12	0x3f415d05	0.7553256
13	0x3e357f03	0.17724232
14	0xbd8c3993	-0.06846919
15	0x3dcf5ed4	0.10125509
16	0xbe1563db	-0.14588873
17	0xbd3dd038	-0.04634115
18	0xbe704959	-0.2346548
19	0x3ee5b5a5	0.44865146
20	0xbf010b84	-0.50408196
21	0xbdc49892	-0.09599413
22	0x3cbbe76b	0.022937497
23	0x3c07711f	0.008266716
24	0x3c2bb096	0.010479113
25	0x3ea438a3	0.3207446
26	0xbe176022	-0.14782766
27	0xbf57fa7a	-0.8436657
28	0xbf53f468	-0.8279481
29	0xbefe7d49	-0.4970496
30	0xbd91852d	-0.071054794
31	0xbd739297	-0.05946597
32	0x3e658400	0.22413635
33	0x3cf34f95	0.029701034
34	0xbe8afa6e	-0.27144188
35	0x3e5142e1	0.20435669
36	0x3bd616bc	0.006533472
37	0x3f15b1ac	0.5847423
38	0xbe812a49	-0.25227574
39	0x3e5bba67	0.21457826
40	0x3f6c038f	0.9219293
41	0xbf0cca79	-0.5499645
42	0x3eabf846	0.33587855
43	0xbdca7f8c	-0.09887609
44	0xbe1d1b3c	-0.1534242
45	0x3e1a91ab	0.1509463
46	0xbda95a49	-0.08269174
47	0xbc95d667	-0.018290712
48	0xbec1655e	-0.3777265
49	0x3e4b94db	0.19881003
50	0x3ec04e00	0.3755951
51	0x3e987dc5	0.29783455
52	0xbe95588c	-0.29169118
53	0x3de9787a	0.11399932
54	0x3f0159bf	0.50527567
55	0x3e093b7a	0.13401595
56	0xbe2d532a	-0.16926256
57	0xbf111d5a	-0.5668541
58	0x3f618d7a	0.881065
59	0x3f859b31	1.0437986
60	0xbd99a85f	-0.07502817
61	0x3dd5d86d	0.104416706
62	0xbd1e8284	-0.03869869
63	0x3e252598	0.16127622
64	0xbe2f5119	-0.1712078
65	0x3f319534	0.6936829
66	0xbe918a03	-0.28425607
67	0xba994a92	-0.0011695197
68	0x3e5b2207	0.21399699
69	0xbf1cc9cf	-0.61245435
70	0xbdd2eeec	-0.10299477
71	0xbe0e4b95	-0.1389602
72	0x3e2b0fac	0.16705197
73	0x3f1bbf05	0.6083835
74	0x3f27eb7a	0.65593684
75	0x3c5bea4a	0.013422558
76	0xbd1bb209	-0.038011584
77	0xbd2c5aa8	-0.042078644
78	0xbcec43e9	-0.028840976
79	0xbdc60b9d	-0.09670184
80	0x3e1b49b3	0.15164833
81	0xbd873a49	-0.06602914
82	0x3c1544a1	0.009110601
83	0xbdd4f91b	-0.103990756
84	0x3c7f803c	0.015594538
85	0x3f21a270	0.63138485
86	0xbe94ff98	-0.29101253
87	0x3d200b22	0.039073117
88	0xbddc5284	-0.10757926
89	0xbf46b682	-0.77622235
90	0x3d4b36ea	0.049612917
91	0xbe5e02bd	-0.21680732
92	0xbd270a36	-0.040781222
93	0x3c1487a9	0.009065547
94	0xbd2c9181	-0.04213095
95	0xbedc23e2	-0.42996126
96	0x3e217743	0.15768151
97	0x3e6cc25e	0.2312102
98	0x3e18f8e5	0.14938696
99	0x3f3bf5cd	0.7342194
100	0xbe3187df	-0.17336987
101	0xbe8e90d5	-0.27844873
102	0xbf7b0c22	-0.9806539
103	0xbf5536df	-0.8328685
104	0x3fa30360	1.2735405
105	0x3ac9075d	0.0015337277
106	0x3cf9d7a3	0.030498331
107	0x3d623d50	0.055234253
108	0xbd70b71b	-0.058768373
109	0x3c95c3de	0.018281873
110	0x3bb8a107	0.0056344303
111	0x3d6d388d	0.05791526
112	0xbd8e1bce	-0.06938897
113	0x3d5f6410	0.054538786
114	0xbd13f75f	-0.036124583
115	0x3f47a239	0.7798191
116	0xbfa03821	-1.2517129
117	0xbf3a4d23	-0.7277395
118	0x3d9a69f0	0.07539737
119	0xbed6c33d	-0.4194583
120	0x3e32b03b	0.17450039
121	0xbc79319a	-0.01520958
122	0x3e3823d3	0.17982416
123	0xbd7007fa	-0.058601357
124	0x3ee30624	0.44340622
125	0x3e872faf	0.26403567
126	0x3f32cadb	0.6984078
127	0xbd829db2	-0.06377734
128	0x3e4f0392	0.20216206
129	0xbdc142d1	-0.09436572
130	0x3e9c5ed5	0.305411
131	0xbe5927ab	-0.21206538
132	0x3f95236e	1.1651437
133	0xbe84e6a8	-0.25957227
134	0x3e9f0bec	0.31063783

lin1.bias f4 [9]
0	0xbfb9c920	-1.4514503
1	0xbf91f107	-1.1401681
2	0x3f57b8aa	0.8426615
3	0xbf32fcc4	-0.6991694
4	0xbf0fc2e5	-0.5615676
5	0xbef0d88c	-0.47040212
6	0x3e7def60	0.24798346
7	0x3f18c410	0.5967417
8	0xbf858084	-1.0429845

lin2.weight f4 [41, 9]
0	0x40173ffa	2.3632798
1	0xc02d915a	-2.7119966
2	0x3f7cb9d2	0.9872104
3	0xc0411114	-3.0166674
4	0x3da6323a	0.08115049
5	0x3f132e00	0.57492065
6	0xbf86f1dd	-1.0542561
7	0xc021ec77	-2.5300577
8	0xbfad76f7	-1.355193
9	0x3ea1b4ac	0.31583154
10	0xc055ba1b	-3.339484
11	0x4006d51d	2.1067574
12	0xc032b814	-2.7924852
13	0x3e593864	0.21212918
14	0xbe60d78d	-0.21957226
15	0xbfc7de2d	-1.5614678
16	0xc069dbf9	-3.654051
17	0xbfa6e8ed	-1.3039833
18	0xbe9eb051	-0.30993894
19	0xc0300a94	-2.7506456
20	0x3fece2c2	1.8506701
21	0xbe3c0647	-0.1836177
22	0xbe6b36c4	-0.2297011
23	0xbf90e507	-1.1319894
24	0x3de61b94	0.11235729
25	0xbfcded41	-1.6088029
26	0xbfc37b68	-1.5272036
27	0xbf825eb3	-1.018515
28	0xc01a515a	-2.4112153
29	0x3fafce15	1.3734766
30	0xbfadf750	-1.3591099
31	0x3fb79ef1	1.434538
32	0x401422fb	2.314635
33	0xbfdb023a	-1.7110054
34	0xc0896420	-4.2934723
35	0xbcd175a9	-0.0255688
36	0x40800ddf	4.0016932
37	0xbf7a9cbe	-0.9789542
38	0x3f15d437	0.5852694
39	0x3f387749	0.72057015
40	0x400780b2	2.11723
41	0xbf58bd5a	-0.8466393
42	0x3fb81600	1.4381714
43	0x3ff618b8	1.9226294
44	0x40089723	2.1342247
45	0x3f28ee6a	0.6598879
46	0xbfaea2f2	-1.3643477
47	0xc032b6ac	-2.7923994
48	0xbf7f4521	-0.9971486
49	0x401948b9	2.3950636
50	0x40811022	4.0332193
51	0x3f915fd7	1.1357373
52	0x4009eba4	2.1550074
53	0x40468868	3.1020756
54	0x3fa710e2	1.3052027
55	0xc0465c29	-3.099375
56	0x3fd8f9bb	1.6951212
57	0xc03b41d6	-2.9258933
58	0x3ed29b98	0.41134334
59	0x3eaefdd7	0.3417804
60	0xbefe478e	-0.49663967
61	0xc04e8b5a	-3.2272553
62	0xc00193cd	-2.024646
63	0x4024c320	2.5744095
64	0xbefb9caa	-0.49142963
65	0xbff9aa8f	-1.9505175
66	0x3e6fe709	0.23427977
67	0x3ee0a242	0.43873793
68	0x3fb7f9a8	1.4373064
69	0x3fa72779	1.3058921
70	0xbf5800bf	-0.8437614
71	0x3fa8c73a	1.3185799
72	0x40101a6c	2.2516127
73	0x3eb33718	0.3500297
74	0xbfa6d640	-1.3034134
75	0x3fa58e59	1.2934066
76	0x3f257e6b	0.64646024
77	0x40081543	2.1262977
78	0x3f3561f2	0.7085258
79	0x3e3573d2	0.17719963
80	0x3f3567a3	0.7086126
81	0x40722fc8	3.7841663
82	0xc01befef	-2.4365194
83	0xc034c32e	-2.8244128
84	0x405533db	3.33129
85	0x3ffd8d9e	1.9808843
86	0x40eeb031	7.4590077
87	0xbfcdcde9	-1.6078464
88	0xc08c838a	-4.391057
89	0x40899b65	4.300219
90	0x3fd6f842	1.6794512
91	0xbf5ae5dd	-0.85506994
92	0xbe6ca1f6	-0.23108658
93	0x3f691365	0.9104522
94	0x3f3433ea	0.70391715
95	0xbdad515e	-0.08462785
96	0x3ff7c92d	1.9358269
97	0x3fcb7861	1.5896112
98	0x3e98aee5	0.29820934
99	0x40001ed4	2.0018816
100	0xc05a61da	-3.4122224
101	0x3f9484dd	1.1603047
102	0xbfedee2e	-1.8588312
103	0x3fe1cb1c	1.7640109
104	0x4018c758	2.387167
105	0xbf8d329f	-1.1031073
106	0xc094f2cc	-4.6546383
107	0xc007d27d	-2.1222222
108	0x40aee6c5	5.46567
109	0x3eeda25a	0.46412927
110	0xbfa2c0e9	-1.2715122
111	0x3c8ae0af	0.01695284
112	0x4029465e	2.6449199
113	0x4000c8d1	2.0122569
114	0xbffb0203	-1.9609989
115	0xbeaa4b06	-0.33260363
116	0xbf2574ac	-0.6463115
117	0x3fd1a2fd	1.6377865
118	0xc02587b7	-2.5864084
119	0x3f6dbc00	0.9286499
120	0xc003f044	-2.0615396
121	0x3f9fc1c2	1.2481005
122	0x400cfb09	2.202822
123	0x3f27bdec	0.6552417
124	0xc0397f54	-2.8983965
125	0xbf3037a1	-0.6883488
126	0xbf8da6ff	-1.1066588
127	0x3f81e1cc	1.0147033
128	0xbf1c311f	-0.6101245
129	0xbea8f98c	-0.3300289
130	0xbfc2dda2	-1.5223887
131	0xc018a83a	-2.3852677
132	0x3fd1eea3	1.6400951
133	0x3fd6b9e5	1.677548
134	0x3fb53b59	1.4158736
135	0xbc11814b	-0.0088809235
136	0x3e23a6fb	0.15981667
137	0xbf7a0b4a	-0.97673476
138	0xbd121f94	-0.035674646
139	0x3f49fbb5	0.788997
140	0xbe96fc00	-0.29489136
141	0xbe9e9a72	-0.30977207
142	0x4068d49e	3.6379771
143	0xbe9dcbb2	-0.3081947
144	0x3eb15304	0.34633648
145	0x3f219419	0.63116604
146	0x3f46c3c6	0.77642477
147	0xbf607010	-0.87670994
148	0x3f278c84	0.65448785
149	0xc0009da3	-2.0096214
150	0xbfd66dff	-1.6752318
151	0x403fc0fb	2.9961536
152	0xbea2b799	-0.317807
153	0x3f4cae64	0.799536
154	0xc02a0a0f	-2.656864
155	0xbfb1f55c	-1.3903003
156	0xbf5c2659	-0.85996014
157	0x40014c10	2.0202675
158	0x3f44a7c6	0.768185
159	0xbe7338de	-0.23752162
160	0x3fc16aad	1.511068
161	0xbf42367c	-0.75864387
162	0xbff83172	-1.939009
163	0x3ea8f357	0.32998154
164	0x3b5df50c	0.0033867983
165	0xbf28d593	-0.6595089
166	0xbfb72207	-1.4307259
167	0xbf7823fd	-0.96929914
168	0x3f8f4367	1.1192445
169	0xbffbe978	-1.9680624
170	0xbf13ae5b	-0.5768792
171	0xbe35a79d	-0.1773972
172	0x3d7ba507	0.06143668
173	0xbf8366c3	-1.0265735
174	0x401cfeeb	2.453059
175	0x404293eb	3.0402782
176	0x3f53b396	0.826959
177	0xbfef225b	-1.868236
178	0x400b77f5	2.1791966
179	0x3f8e42f6	1.1114185
180	0xbfc12a26	-1.5090988
181	0xbe90b168	-0.2826035
182	0xc060ed20	-3.514473
183	0x3f7771c9	0.96658
184	0x3fb999fc	1.4500117
185	0x3f0bf334	0.54667974
186	0xbfc9e897	-1.5774106
187	0x4073294b	3.7993953
188	0xc02b2ee8	-2.674738
189	0xbfdd565d	-1.7291981
190	0x3eb1cf19	0.34728315
191	0x3f46efc5	0.7770961
192	0x3f109aed	0.564864
193	0x3f2c5645	0.67319137
194	0xc03ac3f5	-2.9182103
195	0x40028e63	2.0399406
196	0xc0065de5	-2.0994809
197	0x3fbe8ae4	1.4886136
198	0xbfed9f37	-1.8564214
199	0xbce8580c	-0.028362297
200	0x3f896a3f	1.0735549
201	0x3e503fe8	0.20336878
202	0xbf21da46	-0.63223684
203	0xbfa3038d	-1.2735459
204	0x3f45b7c2	0.7723352
205	0xbfdfde4f	-1.7489718
206	0x3d9b1719	0.07572765
207	0xbfb3517f	-1.4009246
208	0xbf056398	-0.52105093
209	0x3fe409e2	1.7815516
210	0x3f15a77c	0.58458686
211	0x3fabf2f0	1.3433514
212	0xbf34a579	-0.7056499
213	0x3f12fd40	0.5741768
214	0x3e80f0ec	0.2518381
215	0xbf8c6430	-1.0968075
216	0xbfa1506a	-1.2602665
217	0xbed0cb5b	-0.40780148
218	0xc0338791	-2.8051493
219	0x3f34ecc2	0.70673764
220	0x3fab31e3	1.3374599
221	0x3f9f7fc9	1.2460872
222	0xbcbabaca	-0.022794146
223	0x406ed2e9	3.731623
224	0xbef49b07	-0.47774526
225	0x3e9ead8d	0.30991784
226	0xbed9df39	-0.42553118
227	0xbf794f5a	-0.97386706
228	0x3f8b05b7	1.0861119
229	0x3f690f45	0.91038924
230	0x40461835	3.0952275
231	0x3f510c81	0.81659704
232	0xbf34e919	-0.7066818
233	0xbf4019de	-0.7503947
234	0x3ff4c550	1.9122715
235	0x3fde428a	1.7364056
236	0xbf5b2cfc	-0.85615516
237	0x3d9ec8e5	0.07753161
238	0xbf170603	-0.5899355
239	0xbff613f4	-1.9224839
240	0xbf76c470	-0.9639349
241	0x409d0d82	4.907899
242	0x3e92c283	0.28664026
243	0xbeea8e40	-0.45811653
244	0xbf0738b3	-0.5282089
245	0x3f8b6366	1.0889709
246	0x3eb60a12	0.35554558
247	0x401145ff	2.2698972
248	0x3ffdae23	1.9818767
249	0xbfad8861	-1.3557245
250	0x3f51c059	0.81934124
251	0x3f2eb9c2	0.68252194
252	0xbd498930	-0.049203098
253	0x3f7bc8d5	0.9835332
254	0xbda05d70	-0.07830322
255	0x3f822adb	1.0169328

lin2.bias f4 [41]
0	0xc01dd6ff	-2.4662473
1	0xbf7e96dd	-0.9944895
2	0xc049f492	-3.1555524
3	0xc03c6756	-2.9438071
4	0xc09e1304	-4.9398212
5	0xc0c2438b	-6.070745
6	0xc0459b7d	-3.0876153
7	0xc00894fb	-2.134093
8	0xc0d953fe	-6.791503
9	0xc0dba4a0	-6.863846
10	0xc06e5401	-3.7238772
11	0xc085d147	-4.1817966
12	0xc0aa8474	-5.3286686
13	0xc04b53d4	-3.1769915
14	0x3f821946	1.0163963
15	0xbe81ffb4	-0.25390399
16	0xbf2d53d6	-0.6770605
17	0x3d9368f3	0.07197752
18	0x3fb49f24	1.4111066
19	0xbf3c2ffe	-0.7351073
20	0xc0393fc1	-2.8945162
21	0xc00bcf87	-2.1845415
22	0x3f75c9e3	0.9601118
23	0xc0b5e2ca	-5.683934
24	0xbfd116d9	-1.6335098
25	0x40368ee7	2.852472
26	0x3f5261ab	0.8218028
27	0x3f8a432c	1.0801749
28	0x4004fbb5	2.077863
29	0x3ff05fac	1.8779197
30	0xc02d8d47	-2.711748
31	0x4021c7ab	2.5278118
32	0x3fe76095	1.807635
33	0x3e8fd4dd	0.2809209
34	0x402431e0	2.5655441
35	0xbfaf4099	-1.3691589
36	0xbf2a8481	-0.66608435
37	0xc0322eae	-2.784099
38	0xbf96f2b0	-1.1792812
39	0xc08c339e	-4.381301
40	0xc09c33ac	-4.8813076
