Models_Q1/Model-b2-e6-h10.pth (torch, 5588 bytes, 5 tensors)

emb.weight f4 [41, 6]
0	0xbe513b0f	-0.20432685
1	0xbf24294f	-0.6412553
2	0xbf3914cf	-0.72297376
3	0xbcfe32d8	-0.031030104
4	0x3e8d50ad	0.27600613
5	0xbf83f680	-1.0309601
6	0xbe8f8fef	-0.280395
7	0xbfa9dae6	-1.3269928
8	0xbfa6d8a2	-1.3034861
9	0x3f32f57b	0.69905823
10	0xbe5fb3c7	-0.21845923
11	0x3fb08f7e	1.379379
12	0xbf16ec9f	-0.58954805
13	0xbf704a27	-0.9386315
14	0xbfa02677	-1.2511739
15	0xbf720fd5	-0.9455541
16	0xbf00e4bc	-0.5034902
17	0xbecbf321	-0.3983393
18	0x3f4a0a4b	0.78921956
19	0x3fecfee2	1.8515284
20	0x3e6c55d7	0.2307962
21	0xbd8565d7	-0.06513565
22	0x3eff8439	0.49905565
23	0x3f1044ae	0.56354797
24	0x3ec46b42	0.3836308
25	0xbf995b33	-1.1980957
26	0x3fa8b46f	1.3180064
27	0x3f6beb07	0.921555
28	0x3e8f69d5	0.2801043
29	0x3fb4485b	1.4084581
30	0x3f966385	1.1749121
31	0xbfdb162d	-1.7116143
32	0x3f5eb0ac	0.8698833
33	0xbfee5e4c	-1.8622527
34	0x3f695a54	0.91153455
35	0xbfd96579	-1.6984092
36	0xbfaff91d	-1.3747898
37	0xbfb69b66	-1.4266174
38	0x3e97d592	0.2965513
39	0xbf87c7b2	-1.0607817
40	0x3f307de4	0.68942094
41	0xbe1a1dad	-0.15050383
42	0xc02371b3	-2.5538146
43	0xc054a91c	-3.3228216
44	0xc00016d2	-2.0013928
45	0x40328178	2.7891521
46	0x3d446c62	0.047954924
47	0xc014695c	-2.3189306
48	0x3f9e638f	1.2374133
49	0xbefb82bc	-0.4912318
50	0x3f071148	0.52760744
51	0xbf0439ab	-0.51650494
52	0x3f79241b	0.9732072
53	0x3f915d2f	1.1356562
54	0x3f5e6d40	0.8688545
55	0x3faf252e	1.3683221
56	0xc009ab66	-2.1510863
57	0x3fe3ffc3	1.7812427
58	0xbe96b410	-0.29434252
59	0x3cab62e5	0.02092118
60	0xbef1b415	-0.47207704
61	0x3f29c9b5	0.66323406
62	0x3fba9494	1.4576592
63	0x3fbfaabe	1.4973981
64	0x3ffeaf32	1.9897215
65	0xc00324d6	-2.0491233
66	0xbf882e29	-1.0639087
67	0x3e9bcbd9	0.3042896
68	0xbf3645b5	-0.71200114
69	0xbf41edf2	-0.757537
70	0x3dc6850e	0.09693347
71	0xbf2a615f	-0.66554826
72	0x3f1f334c	0.6218765
73	0x406295eb	3.5404003
74	0x3c770abe	0.015078245
75	0xc0dc96ee	-6.893424
76	0xbfe887d7	-1.8166455
77	0x406418e8	3.5640202
78	0x3e6c4fb8	0.23077285
79	0xc0c5e057	-6.183635
80	0x4037a568	2.8694706
81	0xc01574b1	-2.3352473
82	0xbeb417ea	-0.35174495
83	0x3ed207f7	0.41021702
84	0x3f28250f	0.65681547
85	0x3fc48d9d	1.5355717
86	0xbd4e3538	-0.050343722
87	0x3f10ca26	0.56558454
88	0xbe3774d9	-0.17915668
89	0xbf07e520	-0.5308399
90	0xbfeda795	-1.8566767
91	0x3fc14814	1.5100121
92	0x3ebde6e5	0.3709022
93	0x3f07d85c	0.53064513
94	0xbfb00b77	-1.3753499
95	0xbeea9910	-0.45819902
96	0x3f98b883	1.1931309
97	0xbfa41af3	-1.2820724
98	0x3ff9e186	1.9521949
99	0xbe323490	-0.17402864
100	0x3ecc4443	0.3989583
101	0x3fb41127	1.4067734
102	0xbe81ce44	-0.2535268
103	0xbf4f9a16	-0.8109449
104	0x3eca7560	0.39542675
105	0xbe987b7b	-0.29781708
106	0x3f9d65d0	1.2296696
107	0x3ead9884	0.33905423
108	0xbe2dcf2e	-0.16973564
109	0xbc7cbe2f	-0.015426203
110	0xbfb5614a	-1.4170315
111	0xbff39e7c	-1.903274
112	0x3f091417	0.5354628
113	0xbf3790f2	-0.71705544
114	0xbfc65fdf	-1.5498008
115	0x3f2ceb10	0.67546177
116	0xbd08a0df	-0.033356544
117	0xbf1721e0	-0.59036064
118	0x3f652c7b	0.89520997
119	0x3faf9229	1.371648
120	0xbf8eecef	-1.1166056
121	0x3f0e0686	0.55478704
122	0x3fe66da2	1.8002207
123	0xbe09cdbf	-0.13457392
124	0xbf3cc39a	-0.73735964
125	0x3f9d4b2e	1.2288568
126	0xbfb0b4ac	-1.3805137
127	0x3d17694a	0.036965646
128	0x3d32444e	0.04352217
129	0x3e2b0679	0.16701688
130	0xbe46ae9c	-0.19402546
131	0x3fbe96d4	1.4889779
132	0x3f9c2043	1.2197345
133	0x3f88d485	1.0689856
134	0xbf02262d	-0.508395
135	0xbeb840b3	-0.35986862
136	0x3f435ba1	0.7631169
137	0x3fca9fd3	1.5830024
138	0x405016f6	3.2514014
139	0xbe3d30a7	-0.1847559
140	0x3dc0015b	0.093752585
141	0xc00c79a1	-2.1949236
142	0x3fd412ac	1.6568198
143	0xbea6fccb	-0.3261474
144	0xbeeccb84	-0.4624902
145	0x3fda295d	1.7043873
146	0x3e203f37	0.15649115
147	0xbdd19b98	-0.10234755
148	0x3f8fc6c5	1.1232535
149	0x3e0e1142	0.13873771
150	0xbe1e45df	-0.15456341
151	0x3f145799	0.57946163
152	0x4000c0bb	2.0117633
153	0xbd7a89f9	-0.061166737
154	0x3e4c482f	0.19949411
155	0x3d8ca780	0.068678856
156	0xbfe61efe	-1.7978208
157	0x3ef7be92	0.4838758
158	0xbca9ca27	-0.020726277
159	0xbf4552e5	-0.7707961
160	0xbe5de8ae	-0.21670792
161	0x3f33c131	0.7021666
162	0xc0041a95	-2.0641224
163	0x3f53832c	0.8262203
164	0xbf4375cc	-0.7635162
165	0x3e8e333d	0.27773467
166	0x3ec44895	0.38336626
167	0xbe3a6986	-0.18204316
168	0x3f1ca9f7	0.61196846
169	0x3fc37f50	1.5273228
170	0xbeef1377	-0.46694538
171	0x3e613e00	0.21996307
172	0x3f36301d	0.71167165
173	0xbfcd9eac	-1.6064048
174	0xbf3ff44c	-0.7498214
175	0x3ff476c0	1.909874
176	0x3f04dd0a	0.5189978
177	0xc0057b02	-2.0856328
178	0x3d7d102e	0.06178301
179	0x3fc09ed1	1.5048467
180	0x3fa9a5e8	1.3253756
181	0xc0139d3e	-2.3064723
182	0xc04fd9c3	-3.2476661
183	0x407ca398	3.947485
184	0x3f48e7f8	0.78478956
185	0xc001ac8a	-2.026156
186	0xbf55c5fe	-0.8350524
187	0xbde49cb9	-0.11162705
188	0xbe9f3dda	-0.31101876
189	0x3f8bb25e	1.0913808
190	0xbf18b8de	-0.59657085
191	0xbfcc9bfc	-1.5985103
192	0x3e52072e	0.20510551
193	0xbf51a5b6	-0.8189348
194	0xbe35cf9d	-0.1775498
195	0x3e63dccb	0.22252195
196	0x3ebedd3d	0.37278166
197	0xbf9c6934	-1.2219605
198	0xbf4d5677	-0.8021006
199	0xbfedbc18	-1.8573027
200	0x3edf59c6	0.4362318
201	0x3eb8b352	0.3607431
202	0x3fb761fe	1.432678
203	0xbf132842	-0.57483304
204	0xbeef79bd	-0.46772566
205	0x3fe6bae2	1.8025782
206	0xbf8ab9fb	-1.0838007
207	0xbf839c4d	-1.0282074
208	0xbf3f690e	-0.74769676
209	0x3ee8204f	0.4533715
210	0xbf31fba3	-0.6952459
211	0x3f168cac	0.588084
212	0x3fc2049d	1.5157658
213	0xbf003a4f	-0.5008897
214	0x3f5102bb	0.8164479
215	0x3fb096a9	1.3795978
216	0xbf927517	-1.1441983
217	0x3dfd7527	0.12375861
218	0xbda5865b	-0.08082267
219	0x3f223e98	0.6337676
220	0x3f96593b	1.1745981
221	0x3e0afd1f	0.1357312
222	0xbf01d91b	-0.507219
223	0xbf69fbab	-0.9139964
224	0x3fb9c048	1.4511805
225	0x3fa523ba	1.2901528
226	0xbe95469e	-0.2915544
227	0xbfba32c5	-1.4546744
228	0xbf938a31	-1.1526548
229	0xbe986c6a	-0.29770213
230	0xbdc2fbc9	-0.095206805
231	0xbe1dbef6	-0.15404877
232	0x3fb771bf	1.4331588
233	0xbe75213c	-0.23938459
234	0xc03cc1cd	-2.9493287
235	0xbf03f127	-0.51539844
236	0x3f871598	1.0553465
237	0x3f4d1e94	0.80124784
238	0x3f76fe6c	0.96481967
239	0xbf917459	-1.1363631
240	0xbfb64e60	-1.4242668
241	0xbfd05830	-1.6276913
242	0xc01a6520	-2.4124222
243	0x3eb4f7da	0.35345346
244	0xbf1d1bbf	-0.6137046
245	0xbfb0aac4	-1.3802114

lin1.weight f4 [10, 12]
0	0xbf0fab72	-0.5612098
1	0x3f00617e	0.5014876
2	0x3eb91e26	0.36155814
3	0xbe8cfe1e	-0.27537626
4	0x3eba12ab	0.36342368
5	0x3c1da517	0.00962188
6	0x3cf34628	0.029696539
7	0x3f2cc9c6	0.6749538
8	0x3d9a51b6	0.075351164
9	0xbdd7032b	-0.10498651
10	0x3ed4e533	0.41581115
11	0xbf30cc32	-0.6906158
12	0xbec43872	-0.38324314
13	0x3f13f534	0.57796025
14	0xbe9beeab	-0.30455527
15	0x3e8d6bca	0.276213
16	0x3ec49464	0.38394463
17	0x3e8b90df	0.27258965
18	0xbed2c1fe	-0.4116363
19	0x3ec24ddd	0.3795003
20	0xbe751dae	-0.23937103
21	0xbe84fc2e	-0.25973648
22	0xbf3b227a	-0.7309948
23	0x3f1a4226	0.60257185
24	0xbdc7b6cb	-0.09751662
25	0x3d1e2a21	0.038614396
26	0xbe3911ab	-0.18073146
27	0x3ea93999	0.33051756
28	0x3e056d3c	0.13029951
29	0xbdf5c9fe	-0.120014176
30	0x3f330735	0.6993287
31	0x3f33b2eb	0.7019488
32	0x3f8c8a15	1.0979639
33	0x3f55ff28	0.8359246
34	0xbddd381c	-0.10801718
35	0xbe94f566	-0.29093474
36	0xbf1e7c79	-0.6190868
37	0xbe9a14b4	-0.3009392
38	0x3f30f231	0.69119555
39	0xbe0af527	-0.1357008
40	0x3e803026	0.25036734
41	0xbda45e01	-0.08025742
42	0xbf33325e	-0.6999873
43	0xbf04c54f	-0.5186357
44	0x3e89f066	0.26941222
45	0xbed93e45	-0.4243032
46	0xbde8ec21	-0.11373163
47	0xbd8ea5aa	-0.06965192
48	0xbf052da2	-0.52022755
49	0x3f01228a	0.5044333
50	0xbdfc31d2	-0.1231419
51	0x3ea8db1c	0.32979667
52	0x3ea4df79	0.32201746
53	0x3d26b4e6	0.040699862
54	0xbf45bcea	-0.77241385
55	0xbe97b565	-0.2963058
56	0x3e8ff4a8	0.28116345
57	0x3eed7b4c	0.4638313
58	0xbe9ac7fe	-0.30230707
59	0xbebf1abf	-0.37325093
60	0xbe6637d2	-0.22482231
61	0xbe16c1c8	-0.14722359
62	0x3f363591	0.71175486
63	0xbe4d6f5c	-0.20062011
64	0xbc88cfa0	-0.016700566
65	0x3d98cd49	0.0746103
66	0xbf216a8c	-0.630532
67	0x3e9b60de	0.3034734
68	0x3f5261f8	0.8218074
69	0x3f97bf8c	1.185533
70	0xbf9fbd08	-1.2479563
71	0x3f67b15c	0.90505004
72	0xbd0b73f7	-0.03404614
73	0x3dacbed0	0.08434832
74	0xbefbcbac	-0.49178827
75	0x3db3a1c3	0.08771088
76	0x3f3b2db2	0.731166
77	0x3e9f4f87	0.31115362
78	0xbf90471c	-1.1271701
79	0x3ec49c17	0.38400337
80	0x3f07806e	0.52930343
81	0xbed96c79	-0.4246557
82	0x3f1a0fb0	0.6018019
83	0xbf19a842	-0.60022366
84	0xbc9cef30	-0.019157022
85	0x3dc8d138	0.0980553
86	0xbd9f09af	-0.07765519
87	0xbe235517	-0.15950428
88	0xbe2429f5	-0.1603163
89	0x3da3d66b	0.07999881
90	0x3f2c8c94	0.67402005
91	0x3f164f36	0.58714616
92	0xbefc431f	-0.4926996
93	0x3d3f08e1	0.046639327
94	0xbe6b4715	-0.22976334
95	0xbf3a402a	-0.72754157
96	0x3ccda137	0.025101287
97	0xbe048a8b	-0.12943475
98	0x3d950a2a	0.07277329
99	0x3e8f1dbb	0.2795237
100	0x3e95cf20	0.29259586
101	0x3d9b0dbd	0.0757098
102	0xbf0a8d23	-0.5412161
103	0xbcac80fa	-0.021057595
104	0x3f6c76e2	0.923689
105	0xbf227f3d	-0.634754
106	0x3e39785e	0.18112323
107	0xbe8cf765	-0.27532497
108	0xbd198250	-0.03747779
109	0x3e7e7778	0.24850261
110	0x3dc9dc3c	0.098564595
111	0xbe46c215	-0.19409974
112	0xbeee8434	-0.46585238
113	0xbe733920	-0.2375226
114	0x3f109466	0.5647644
115	0x3f63de42	0.89011014
116	0x3f7914ed	0.97297555
117	0xbe6bff92	-0.23046711
118	0xbf825734	-1.0182862
119	0x3dbee1ce	0.093204126

lin1.bias f4 [10]
0	0x3f1dd9e9	0.6166063
1	0x3f113361	0.56719023
2	0x3fa49d91	1.2860585
3	0x3eec78b3	0.46185836
4	0x3e16756e	0.14693233
5	0xbe6bd723	-0.23031287
6	0x3eefb0b1	0.46814492
7	0xbef80659	-0.48442343
8	0xbf11c23a	-0.5693699
9	0xbf10b9d9	-0.5653358

lin2.weight f4 [41, 10]
0	0x3fdbd044	1.7172933
1	0xbe4216ef	-0.18954061
2	0xbf8d3bfc	-1.1033931
3	0x401606da	2.3441682
4	0x3ee82977	0.45344135
5	0xc034869d	-2.8207161
6	0x3f137a0f	0.5760812
7	0x3fe06618	1.7531157
8	0x3fc1166e	1.508497
9	0xbfab0119	-1.335971
10	0x4021af0e	2.5263095
11	0x3eada2d3	0.33913288
12	0xc0304ca0	-2.7546768
13	0x3fa0ded3	1.2568
14	0x3fdf3813	1.7438987
15	0xc07b868d	-3.9300873
16	0x400db4ba	2.2141557
17	0x3fc2be5c	1.5214343
18	0x3fe336d2	1.7751105
19	0xbfe9fd53	-1.8280433
20	0xbf147616	-0.57992685
21	0xbf5f6ffc	-0.8728025
22	0xbf426056	-0.75928247
23	0x404b5433	3.177014
24	0xbf1629f7	-0.58657783
25	0xbebbafad	-0.36657467
26	0x3f961162	1.1724055
27	0xbf9e938b	-1.2388777
28	0xbfcb0ac4	-1.586266
29	0x3e50bf55	0.20385487
30	0x3fed3ed6	1.8534801
31	0xbf2e10bc	-0.67994285
32	0xbffb1a9c	-1.9617496
33	0x3fc9f8a3	1.5779003
34	0x3e8e5aca	0.27803642
35	0xc0217db2	-2.5232968
36	0xbd7d7f93	-0.061889242
37	0xbf86e078	-1.0537252
38	0xbefb2ceb	-0.49057707
39	0xbf10a965	-0.56508476
40	0xbfda0f1d	-1.7035862
41	0xbf15d1cc	-0.5852325
42	0xbff7e852	-1.9367774
43	0xbfbfe877	-1.4992818
44	0xbf46e0e2	-0.77686894
45	0xbebded02	-0.37094885
46	0xbfde5913	-1.7370933
47	0x3fb6e27d	1.4287869
48	0x3fe72e25	1.8060957
49	0xbe531893	-0.20614843
50	0xc0435c0d	-3.0524933
51	0xc02ef4ca	-2.7336907
52	0xbfa90aeb	-1.3206457
53	0xc08106f2	-4.032098
54	0x3ff277c9	1.8942806
55	0x407c145e	3.938743
56	0x3ed1bea3	0.40965757
57	0x400caeac	2.1981611
58	0x3f8b46bc	1.0880961
59	0x3f007856	0.5018362
60	0x3fd9a0e9	1.7002231
61	0xbd9b30d2	-0.07577671
62	0xbcedbdbd	-0.029021138
63	0x40020147	2.031328
64	0x3f34f5c3	0.706875
65	0xbfcf60c7	-1.6201409
66	0x3ffef9ac	1.9919944
67	0x3f9d6350	1.2295933
68	0x4005b280	2.0890198
69	0xbfb8ee71	-1.4447767
70	0x3fba8284	1.457108
71	0x3f116cea	0.56806815
72	0x3fc01a4b	1.5008024
73	0xbf863688	-1.0485392
74	0x3e805f07	0.250725
75	0x401107fc	2.2661123
76	0x3f4b967e	0.7952651
77	0x3eb8c2ff	0.3608627
78	0x4021d2b2	2.5284848
79	0xbf52f2d1	-0.8240176
80	0xbf4cb09a	-0.7995697
81	0xbf97728f	-1.1831836
82	0xbe2e96f3	-0.1704977
83	0xbf84037e	-1.0313566
84	0x3e4bb798	0.19894254
85	0x3ef0f066	0.4705841
86	0xc007eb0a	-2.1237206
87	0x404ee41f	3.2326734
88	0x402ff763	2.7494743
89	0xbc471f56	-0.012153467
90	0x3f708375	0.9395059
91	0xbf180be6	-0.59393156
92	0xc04c2222	-3.1895833
93	0xc02d589b	-2.708533
94	0x400b829e	2.1798472
95	0x4013969a	2.306067
96	0xc0c58276	-6.1721754
97	0x40eb51f4	7.353754
98	0x40ac104a	5.3769884
99	0xc002e6bf	-2.0453336
100	0xbf6d9f0b	-0.92820805
101	0xbfa160ec	-1.2607703
102	0xbf87bc20	-1.0604286
103	0xbf86d967	-1.0535096
104	0x4049c65f	3.1527326
105	0x3fc3349d	1.5250431
106	0xc0199d85	-2.4002392
107	0x3fab10a6	1.3364456
108	0xbdaa1146	-0.08304076
109	0xbfacc083	-1.349625
110	0x4053e0ab	3.3105876
111	0xbe443fed	-0.19165011
112	0xc05405f6	-3.3128638
113	0xbded4060	-0.11584544
114	0x3dcdd9da	0.100513175
115	0xc039a2d8	-2.9005642
116	0x4008d40e	2.1379428
117	0xbfddbc69	-1.7323123
118	0x3f84e0d3	1.0381111
119	0xbeb58a85	-0.35457245
120	0x3f8af687	1.0856484
121	0xc04393c2	-3.0558934
122	0xbe21dacd	-0.15806122
123	0x3e7d41b1	0.2473209
124	0x3f050eb4	0.5197556
125	0xbe2d1bb3	-0.16905098
126	0x3e1a5f46	0.15075406
127	0x3eefa370	0.4680438
128	0xbfdd8720	-1.7306862
129	0xbfb004bb	-1.3751444
130	0x3fb1df42	1.3896258
131	0x3f642dc0	0.8913231
132	0x3f4c8e5b	0.7990472
133	0x40113aec	2.2692213
134	0x3f3a1f64	0.7270415
135	0xc00290b0	-2.040081
136	0xbf2d6cfa	-0.6774441
137	0x402caa3b	2.69789
138	0x406eeb61	3.7331164
139	0xc0043bec	-2.0661573
140	0xbf907d6a	-1.1288273
141	0x3eb5ba7c	0.3549384
142	0x3fca3bc2	1.5799487
143	0x3eeb7be8	0.4599297
144	0x3cc431c7	0.023949517
145	0x40114fad	2.270488
146	0x3f43f1ba	0.7654072
147	0xbf8dd40e	-1.1080339
148	0x3e872ced	0.26401463
149	0xbf8751a3	-1.0571789
150	0x3f4d4ee5	0.8019851
151	0xbfd06bda	-1.6282914
152	0xc024b64b	-2.5736263
153	0xbff1bb7f	-1.8885344
154	0x3f06b235	0.5261567
155	0x3e0bd832	0.1365669
156	0xbebf3cab	-0.37350973
157	0xbfa41d3f	-1.2821425
158	0xc02c3362	-2.6906362
159	0x3ebd3ec1	0.3696194
160	0x3f8f8724	1.1213117
161	0x3f141697	0.5784697
162	0xbfd02ef1	-1.6264325
163	0x3f968f78	1.1762533
164	0xbd01422d	-0.03155725
165	0xbfebacad	-1.8412071
166	0xbf6a5eca	-0.91550887
167	0x3ea92f3e	0.33043855
168	0xc0099c2e	-2.1501575
169	0xbe375ced	-0.17906542
170	0x3f54fb84	0.8319628
171	0x3f8298a8	1.0202837
172	0xbf936e3d	-1.1518017
173	0xc018b72d	-2.3861802
174	0x3e4b4f9d	0.19854589
175	0x3f3f9ae6	0.7484573
176	0x3ff844db	1.9396013
177	0xc02a8dec	-2.6649122
178	0xbfcb0d4c	-1.5863433
179	0xbf9f05ad	-1.2423607
180	0x3d9a1467	0.07523423
181	0x3fae5ea1	1.3622628
182	0x401ad5a9	2.4192908
183	0x3f6d2d25	0.9264701
184	0x3f3d1f37	0.73875755
185	0x3f2645d8	0.64950323
186	0xbd751c2d	-0.059841324
187	0x3efae17f	0.49000165
188	0x4001a183	2.025483
189	0xbed7160b	-0.42009005
190	0x3fa95b57	1.3231
191	0xbf441b2f	-0.7660398
192	0xbeb23d76	-0.34812516
193	0xc0498b97	-3.149145
194	0xbf8ff1f6	-1.1245716
195	0x4004c71b	2.0746524
196	0xbf90218f	-1.1260241
197	0xbfd45ba6	-1.6590469
198	0xbfb0e190	-1.3818836
199	0xc0122531	-2.28352
200	0x4022f837	2.5463998
201	0x3f32d881	0.6986161
202	0x3cc766c0	0.024340987
203	0xbf8a3821	-1.0798379
204	0x3f17dc5c	0.59320617
205	0x3f66f1c9	0.90212685
206	0xc0190867	-2.3911378
207	0x3eaf88f7	0.34284183
208	0xbfdac752	-1.7092078
209	0x3e107531	0.14107205
210	0xc00688bb	-2.1020954
211	0xbfd91ae5	-1.6961333
212	0x401d175b	2.4545505
213	0xbfc1b664	-1.5133786
214	0x40001af5	2.0016453
215	0x3fad1231	1.3521177
216	0x3e1291b5	0.14313395
217	0xc049815e	-3.148521
218	0xbf2769d3	-0.6539585
219	0x3fa2043d	1.2657543
220	0xbf6dfeed	-0.9296711
221	0x3f23b188	0.63942766
222	0x3f7ac0c6	0.979504
223	0x3e028f70	0.1275003
224	0x3f0d655c	0.5523279
225	0x3f3426b1	0.7037154
226	0x401fb41e	2.4953685
227	0xc033c11d	-2.8086617
228	0xbfa69e67	-1.301709
229	0x3edc27b6	0.42999047
230	0xbf9f1aa5	-1.2430006
231	0xc06dc8d8	-3.7153835
232	0xc0521a7b	-3.2828662
233	0xc007c09d	-2.1211312
234	0xbd3a6334	-0.045504764
235	0x40562c5a	3.346457
236	0xc04cb75f	-3.198692
237	0x3f19936d	0.5999058
238	0xbf8afba2	-1.0858042
239	0xbf5aa4fa	-0.85407984
240	0x3f466093	0.7749111
241	0x3ea6b87c	0.32562625
242	0x3e8e93ca	0.2784713
243	0xbfe148d1	-1.7600347
244	0x3e21b4ed	0.15791674
245	0x3fcea008	1.6142588
246	0xbf749dbe	-0.95553195
247	0xbe41ef8c	-0.18939036
248	0xc0012428	-2.0178318
249	0x3ef37b8c	0.47555196
250	0x3fada0e3	1.3564724
251	0xbeb2d2ee	-0.34926552
252	0x3ddcc609	0.1077996
253	0xbfad507a	-1.3540184
254	0xbf3dd42d	-0.7415188
255	0x3fc2eb8f	1.5228137

lin2.bias f4 [41]
0	0xbfbf3c50	-1.4940281
1	0xbee0ddd3	-0.43919238
2	0xc01581ad	-2.3360398
3	0xc0110907	-2.266176
4	0xc0765727	-3.8490694
5	0xc0a58664	-5.172655
6	0xc02196e6	-2.524835
7	0xc0847f29	-4.1405225
8	0xc0cd8186	-6.422061
9	0xc103c1da	-8.234827
10	0xc0971721	-4.7215734
11	0xc0b1880c	-5.5478573
12	0xc0b9c028	-5.8047066
13	0xc0661055	-3.5947468
14	0x3fb40afb	1.4065851
15	0xbeba4e6d	-0.3638796
16	0xbe1100a3	-0.14160399
17	0xbf53d341	-0.8274422
18	0x400ab7ba	2.1674638
19	0xbf75b371	-0.9597693
20	0xbf8ef000	-1.1166992
21	0xbf4a2c74	-0.7897408
22	0x3ee2ebd2	0.44320542
23	0xc0907ef7	-4.5154986
24	0xbfa2552a	-1.268224
25	0x3fafd549	1.3736964
26	0x3fd3083c	1.6486888
27	0x40047666	2.0697265
28	0x3f61e70d	0.8824318
29	0x3f9a4fcd	1.2055603
30	0xc0ca1f4a	-6.3163195
31	0x3fd0ac8d	1.6302658
32	0x3f7d0718	0.9883895
33	0x3fdef255	1.7417704
34	0x4033aacb	2.8072994
35	0xbfa5db00	-1.2957458
36	0xbfe3c5c8	-1.7794733
37	0xc09d1bcc	-4.909643
38	0x3eb161ac	0.3464483
39	0xc0aa985e	-5.3310995
40	0xc0ab3a8d	-5.3508973
