Models_Q1/Model-b1-e8-h2.pth (torch, 4235 bytes, 5 tensors)

emb.weight f4 [41, 8]
0.25992474 1.7596867 0.37588716 -0.37515438 0.98273873 0.64689934 -0.5566837 -1.2223935
-1.5787605 -0.17904468 0.5176035 -1.7328504 -0.98078734 -0.08977339 -2.0724852 -0.650795
0.87200266 -0.020146267 1.503796 -0.15576252 -0.65991366 0.46185473 -1.1451313 0.084506534
2.7231338 0.7430467 0.115693934 0.83430254 0.24569528 -1.8575747 1.2014647 -0.8410235
0.013820594 -0.85533994 0.3357481 -1.2925669 -1.1427816 1.5542247 -0.2127718 -1.9562508
-0.45416445 3.2926097 1.4593271 -1.1843358 -0.6744276 -0.36641836 0.9141258 1.0785254
1.3783782 0.670247 0.6252378 0.74545103 -0.43980384 0.1590708 0.22827953 -0.043221794
-1.632077 2.4276004 -0.38093048 -1.3473532 0.055236667 1.1697782 -1.7396299 -1.1919321
0.36431444 0.10160744 -0.85873425 0.18605144 -0.3089344 -0.5767983 0.19215368 0.33567443
-2.0362813 -1.9938414 0.6401206 0.6095071 -0.65874547 1.8350081 -1.2211436 -0.06853281
1.7712207 2.2388513 1.9475095 0.5912719 0.013819807 -1.4938381 0.18669318 0.085771486
0.40150163 0.5008368 1.8801715 -0.40598458 -1.1046029 0.67492425 1.4368308 -0.5641399
-0.92620444 1.7292956 0.9640845 -1.2571541 -1.4663103 -0.60280323 2.1245959 -1.5569408
1.1391246 1.5460261 0.102899015 -1.3988775 -0.3821588 0.1468501 1.5937799 0.34478995
0.7714145 0.38337994 0.96703595 0.79623365 0.04026096 -1.4685532 0.5740597 0.63868904
-0.7965455 1.4557395 -1.6531585 -2.0396326 -1.9603384 -0.21349639 -0.011149254 -1.7066262
1.284307 -1.1811631 0.41916794 -2.3789198 1.3032221 1.0644488 -1.2788283 1.0432853
0.98552686 -0.3639765 0.19717795 0.7303484 -0.19236009 1.8797967 0.79384094 -1.221766
-0.032742854 0.8394085 0.5002287 -0.29702392 0.302355 -0.4243831 1.2975035 -0.056685153
0.2043174 0.3142261 1.2693633 -0.5362924 0.4409128 -1.0770369 -1.7476121 0.69072366
-0.20705289 0.8080057 -0.22991976 -0.012447512 -0.25037867 -0.33584094 -1.4014715 -0.25647494
0.072920024 -0.6177423 0.4515406 -2.036606 -1.2441334 0.27044722 -0.5711929 0.4764641
0.09224967 0.6802994 -0.4444677 0.23982215 -0.2313702 -0.42851296 0.3938644 1.2436106
0.12419374 -2.4144416 -0.43929008 0.79400146 1.0398023 0.80931157 -2.7401302 -1.7276804
1.4665171 0.9158538 0.31791064 -0.39809552 0.5578666 -1.2765423 -1.6248658 -1.1023245
-0.77069306 1.088627 -0.8146873 0.4023907 -0.50823396 0.07257731 0.72984797 -1.5966088
0.34569034 -0.09118853 -0.18332574 1.3099018 -1.1956817 -1.2338018 -0.46751788 -0.9688935
-0.6341136 1.3250574 0.3401116 0.99363965 0.4732045 -0.69468594 0.22299358 -0.1014591
0.4059565 0.88196826 -0.06175818 -0.313799 -1.3830428 1.1526576 0.90518534 1.4204034
1.2838525 0.23560713 -1.6857315 1.1014831 -0.6003937 -0.74416 -1.2744145 -0.6929801
0.9129532 -1.1743293 0.082198925 -0.6295219 -0.43932593 -0.79874617 -0.4248878 0.99545145
-0.41952723 0.7695245 0.4895425 -0.4658268 -1.4714297 0.54796565 -0.40364134 -0.94579387
00000000: db14 853e 6a3d e13f 4874 c03e 3c14 c0be
00000010: c494 7b3f 329b 253f d382 0ebf 6477 9cbf
00000020: d314 cabf 7d57 37be aa81 043f 0bce ddbf
00000030: e114 7bbf 1cdb b7bd 99a3 04c0 809a 26bf
00000040: 913b 5f3f c909 a5bc 637c c03f 3680 1fbe
00000050: 1af0 28bf 3978 ec3e aa93 92bf c311 ad3d
00000060: d347 2e40 4f38 3e3f f1f0 ec3d da94 553f
00000070: 8b97 7b3e 02c5 edbf 98c9 993f 514d 57bf
00000080: c66f 623c 8ff7 5abf 2de7 ab3e d572 a5bf
00000090: ab46 92bf d6f0 c63f dae0 59be 6d66 fabf
000000a0: 3e88 e8be 1eba 5240 3bcb ba3f 5198 97bf
000000b0: 4aa7 2cbf 309b bbbe 2604 6a3f 1f0d 8a3f
000000c0: b26e b03f 4f95 2b3f 960f 203f e1d5 3e3f
000000d0: f82d e1be 75e3 223e 1cc2 693e 5609 31bd
000000e0: e6e7 d0bf ce5d 1b40 5209 c3be 1276 acbf
000000f0: d83f 623d 4bbb 953f 31ac debf 3b91 98bf
00000100: 6c87 ba3e 9017 d03d 02d6 5bbf 4584 3e3e
00000110: a62c 9ebe 0ea9 13bf efc3 443e 85dd ab3e
00000120: 6f52 02c0 3236 ffbf f2de 233f a808 1c3f
00000130: 8ba3 28bf 8ce1 ea3f 6f4e 9cbf ee5a 8cbd
00000140: 5cb7 e23f 5749 0f40 fe47 f93f 985d 173f
00000150: 796c 623c 1636 bfbf 7f2c 3f3e f6a8 af3d
00000160: 9f91 cd3e d736 003f 76a9 f03f 36dd cfbe
00000170: a163 8dbf d6c7 2c3f 12ea b73f 796b 10bf
00000180: bc1b 6dbf 8f59 dd3f 3ece 763f 6dea a0bf
00000190: 0eb0 bbbf 5051 1abf 61f9 0740 d649 c7bf
000001a0: d6ce 913f 2fe4 c53f b8bc d23d 6b0e b3bf
000001b0: 51aa c3be df5f 163e fb00 cc3f 4f88 b03e
000001c0: 6c7b 453f 604a c43e ab8f 773f f8d5 4b3f
000001d0: ade8 243d 8df9 bbbf 94f5 123f 2081 233f
000001e0: 68ea 4bbf ac55 ba3f b39a d3bf 5789 02c0
000001f0: 5eec fabf cc9e 5abe 5cab 36bc ba72 dabf
00000200: 2c64 a43f 5a30 97bf 2e9d d63e 3940 18c0
00000210: fbcf a63f dc3f 883f a5b0 a3bf 5f8a 853f
00000220: 7d4b 7c3f 215b babe 04e9 493e 1df8 3a3f
00000230: 0bfa 44be 2e9d f03f 2939 4b3f d462 9cbf
00000240: 5f1d 06bd 7ae3 563f fd0e 003f 8513 98be
00000250: 46ce 9a3e be48 d9be 9814 a63f b12e 68bd
00000260: 9538 513e 3ee2 a03e 7f7a a23f 754a 09bf
00000270: 53bf e13e 58dc 89bf c1b1 dfbf 44d3 303f
00000280: ac05 54be 76d9 4e3f 1670 6bbe a6f0 4bbc
00000290: a231 80be 58f3 abbe 6b63 b3bf af50 83be
000002a0: 1857 953d 5c24 1ebf 5430 e73e c157 02c0
000002b0: c33f 9fbf 0f78 8a3e b339 12bf 1af3 f33e
000002c0: 65ed bc3d 1a28 2e3f 4591 e3be f093 753e
000002d0: 4fec 6cbe 0d66 dbbe 98a8 c93e a22e 9f3f
000002e0: 4a59 fe3d 3686 1ac0 a1ea e0be ae43 4b3f
000002f0: 3e18 853f 0b2f 4f3f 4b5e 2fc0 a224 ddbf
00000300: d5b6 bb3f 6575 6a3f 2fc5 a23e 2dd3 cbbe
00000310: 58d0 0e3f bd65 a3bf 9afb cfbf f818 8dbf
00000320: 244c 45bf 2158 8b3f 598f 50bf 2706 ce3e
00000330: 9f1b 02bf 6aa3 943d 51d7 3a3f ad5d ccbf
00000340: 53fe b03e 0dc1 babd beb9 3bbe ddaa a73f
00000350: 190c 99bf 38ed 9dbf 815e efbe 6809 78bf
00000360: 4555 22bf 7b9b a93f 1c23 ae3e 2b5f 7e3f
00000370: dc47 f23e f0d6 31bf 6e58 643e cac9 cfbd
00000380: 88d9 cf3e acc8 613f 25f6 7cbd 43aa a0be
00000390: 8c07 b1bf 498a 933f 3aba 673f c7cf b53f
000003a0: 4755 a43f ff42 713e 0dc6 d7bf 66fd 8c3f
000003b0: 67b3 19bf 4581 3ebf 0420 a3bf 2567 31bf
000003c0: 4db7 693f 6c50 96bf e957 a83d 5928 21bf
000003d0: 54ef e0be a17a 4cbf e58a d9be e8d5 7e3f
000003e0: 46cc d6be 8fff 443f 51a5 fa3e da80 eebe
000003f0: cf57 bcbf 7a47 0c3f 14aa cebe 8c1f 72bf

lin1.weight f4 [2, 8]
-0.55366117 -0.635964 -0.30374494 0.01535513 0.10331962 0.13704121 -0.36751112 -0.24806839
0.08522086 0.30575952 0.72885084 -0.7323586 -0.22120953 0.25179175 -1.0526623 -0.7529534
00000000: bdbc 0dbf 89ce 22bf 7584 9bbe 1594 7b3c
00000010: 3d99 d33d 8854 0c3e 6b2a bcbe a405 7ebe
00000020: 4688 ae3d 838c 9c3e f895 3a3f da7b 3bbf
00000030: c084 62be d9ea 803e a3bd 86bf 8ec1 40bf

lin1.bias f4 [2]
-0.042875133 0.3891588
00000000: d69d 2fbd d23f c73e

lin2.weight f4 [41, 2]
-4.920744 4.3607616 -5.5077863 5.063794 0.7729586 -0.6054152 -3.6514766 4.3594503
2.2254932 -1.2515947 -1.7862924 -1.229019 -4.030508 4.328541 -0.34032187 1.534181
0.4937023 0.101351365 3.7837012 3.4662013 2.1967444 -1.481227 -2.2633467 3.2580771
-1.1853849 1.8767862 -0.25157365 1.597261 1.0980692 -0.11852167 0.3441496 -2.1591427
-0.1108523 -1.5833281 -0.094184466 -0.92626107 0.55786914 1.2578937 -0.715863 -2.1664693
-0.8782647 -1.7358121 6.893728 3.748848 1.3846318 0.45945734 2.6557622 -2.0203981
-0.29960632 -2.6864603 -0.4675313 -0.39711583 -0.35541892 -1.7655889 -1.6832126 -2.698295
0.8303365 0.2920071 0.57413423 -0.86648494 0.5767278 -2.2622364 -0.9744649 -0.8920318
-0.30851498 -1.5364332 0.03431024 -1.7958891 -0.15185349 0.44651583 -0.9107361 -1.5711116
1.1354063 -1.2321296 -2.9681249 -0.710421 0.014429521 0.13661674 -1.3578123 -3.5856187
-0.89794093 2.6459954
00000000: bc76 9dc0 5c8b 8b40 c93f b0c0 9a0a a240
00000010: 9de0 453f 7efc 1abf cbb1 69c0 9e80 8b40
00000020: 7b6e 0e40 4134 a0bf 3ba5 e4bf 7f50 9dbf
00000030: ecf9 80c0 6883 8a40 ab3e aebe 0b60 c43f
00000040: 8cc6 fc3e 4e91 cf3d 2928 7240 3ed6 5d40
00000050: 7697 0c40 d998 bdbf acda 10c0 5684 5040
00000060: b1ba 97bf 883a f03f 43ce 80be 0c73 cc3f
00000070: 888d 8c3f 7dbb f2bd 6034 b03e 652f 0ac0
00000080: 8806 e3bd 7faa cabf c9e3 c0bd 721f 6dbf
00000090: 83d0 0e3f a902 a13f cc42 37bf 6fa7 0ac0
000000a0: f5d5 60bf 172f debf 6b99 dc40 20ed 6f40
000000b0: 9d3b b13f fe3d eb3e 02f8 2940 344e 01c0
000000c0: 0066 99be f7ee 2bc0 4360 efbe c452 cbbe
000000d0: 78f9 b5be d1fe e1bf 8373 d7bf deb0 2cc0
000000e0: ef90 543f f481 953e 76fa 123f f5d1 5dbf
000000f0: 6fa4 133f 7bc8 10c0 8876 79bf 325c 64bf
00000100: adf5 9dbe d8a9 c4bf e588 0c3d b2df e5bf
00000110: 7b7f 1bbe b99d e43e 0026 69bf 2f1a c9bf
00000120: fe54 913f 6cb6 9dbf c2f5 3dc0 27de 35bf
00000130: cc69 6c3c 42e5 0b3e cbcc adbf c77a 65c0
00000140: 75df 65bf fd57 2940

lin2.bias f4 [41]
-2.2304428 0.26512602 -0.46953684 -2.3649704 -5.4310904 -5.2050195 -2.104684 -3.7177868
-7.6639614 -5.3844566 -4.9357986 -3.0315824 -4.6122694 -2.7957742 2.0388594 -0.29545203
0.70032996 1.0534174 2.5307662 -0.6703738 0.02697386 -1.5523212 2.0119863 -4.588464
-1.7960249 1.114746 0.579516 0.18697657 2.0785317 0.6116181 -3.0018563 1.191433
1.5380878 1.7753791 0.8535777 -0.6008596 0.3665746 -2.866178 0.45937282 -5.4228244
-4.178781
00000000: 93bf 0ec0 99be 873e 2267 f0be ad5b 17c0
00000010: 7ecb adc0 858f a6c0 25b3 06c0 38f0 6dc0
00000020: 2c3f f5c0 784d acc0 10f2 9dc0 7205 42c0
00000030: b697 93c0 f7ed 32c0 ac7c 0240 7d45 97be
00000040: d348 333f 62d6 863f 13f8 2140 9e9d 2bbf
00000050: 49f8 dc3c 76b2 c6bf 62c4 0040 b2d4 92c0
00000060: 25e4 e5bf ffaf 8e3f 295b 143f c976 3f3e
00000070: aa06 0540 0193 1c3f 6a1e 40c0 e080 983f
00000080: 10e0 c43f 9f3f e33f 1184 5a3f efd1 19bf
00000090: aaaf bb3e 766f 37c0 ea32 eb3e c787 adc0
000000a0: 93b8 85c0
