Models_Q1/Model-b2-e8-h7.pth (torch, 5451 bytes, 5 tensors)

emb.weight f4 [41, 8]
-2.168809 -1.1787686 0.79868084 -0.16284959 0.120271675 -2.5329578 0.45949775 0.7774225
-0.78211755 1.0028261 -1.5017523 2.5661705 0.6611267 -1.1679689 -1.8052785 0.089602135
-0.90984386 -2.9204257 0.56222767 0.30486727 0.5423623 0.3580967 -0.8318381 1.007609
-0.16200283 -0.4860243 -2.3904645 1.1937643 -1.4846503 -0.73435766 -2.5567997 2.7762637
-0.6927119 1.8069104 0.25798717 1.8487766 1.8102894 -2.5430331 -1.3425331 -1.0351068
-1.292883 -1.1334355 -1.5586662 -3.4105155 1.6539297 -4.617758 -0.19145554 2.1036913
-2.2102554 -1.8821661 0.18278034 -0.75215954 0.5790708 -0.60741687 -0.7090412 0.9886518
1.8565348 -1.989125 -0.3663459 -2.3890011 3.10707 -3.3907323 4.0035505 0.65712374
0.7152204 0.06883639 0.069705196 0.5599924 0.89038056 0.76329064 -0.38939992 -0.24465911
0.7894759 -0.17909695 0.7635819 -1.9740027 -1.6333125 -4.44265 6.556923 -1.146591
1.939649 0.6430691 1.1878374 -1.1970905 1.7881318 1.9423621 1.8953007 0.5191515
-0.36030003 -1.510106 0.57012314 0.19778906 -0.49015358 1.1726598 0.74163884 2.1156356
-1.474046 -3.424068 -3.058949 4.8657928 4.795983 4.5975056 -6.478431 -1.5494101
-0.2251726 0.39212698 1.6739142 -1.0299784 -1.0924418 2.0177472 2.4134612 1.099449
-0.12885949 0.1520391 -1.0321677 -0.33623794 -1.5607145 -0.1062339 -1.1247718 -0.49068657
0.6500372 1.5718365 0.7508903 2.6524873 -0.8632068 0.5322272 1.0918559 -0.7212988
-1.0648504 -1.2231942 -0.16358976 0.7126613 -1.5336821 -1.0083896 0.12538439 1.097219
-1.0234002 1.4596509 0.44360217 -0.3736535 -1.3266441 0.12187875 0.2076317 0.9792878
-0.6990805 -0.3894486 -1.0799527 -0.1720988 1.0871093 1.5941145 -0.6316107 -0.17485885
0.51287353 -0.8793157 -0.074733 0.34147975 1.227042 -1.0218642 0.41152924 1.3422923
-1.6359644 -0.92190653 -0.8772491 0.510333 -0.5022392 -1.174021 0.041038685 1.399327
-0.3639245 2.5613484 0.45130935 0.4781747 0.11388655 0.3577888 -0.54572827 -0.0695115
-0.43460202 1.6779976 -0.78894615 0.7643612 -1.1587447 -0.33773956 -0.97158754 -1.5128039
-0.46290082 2.0064032 0.52639157 -0.11511966 -0.35286373 1.8281263 5.4461937 -2.8224525
0.23847273 2.0564578 -0.66168094 -0.050128333 0.8986517 -0.16276464 -1.0731015 -0.4071023
-0.551057 1.234485 -0.6458845 0.49143514 -2.2256072 -1.2192562 2.972589 0.18844889
0.8416108 0.93459123 0.9342394 1.1457983 -0.66286856 0.54029894 1.2364444 0.38839322
-0.54345006 0.9386647 0.32978454 -2.240795 -0.81945586 -0.65313643 0.4709734 1.2772626
-0.12663601 -0.03393616 -2.0630295 -0.2932838 0.18930116 -0.011346144 1.5101577 -0.81178236
2.4214823 0.46290076 -0.2557247 0.53274214 0.97953147 -0.74443847 1.27774 0.468693
-0.14156814 -1.5753229 -0.6538364 2.2478247 2.9673018 2.5439937 2.2625546 1.3914034
-1.4620177 1.3074791 0.3765803 -0.58482426 -1.0411125 -0.16919728 -0.68284374 0.42980132
00000000: c4cd 0ac0 e4e1 96bf 5976 4c3f 0bc2 26be
00000010: ff50 f63d fb1b 22c0 4a43 eb3e 2905 473f
00000020: db38 48bf 9b5c 803f 6b39 c0bf 233c 2440
00000030: 993f 293f 0180 95bf 5e13 e7bf 5381 b73d
00000040: 87eb 68bf 41e8 3ac0 27ee 0f3f 9017 9c3e
00000050: 41d8 0a3f 7358 b73e 57f3 54bf 55f9 803f
00000060: 12e4 25be 2dd8 f8be 5ffd 18c0 45cd 983f
00000070: 0509 bebf ddfe 3bbf 9ba2 23c0 4eae 3140
00000080: 9155 31bf d748 e73f e516 843e b6a4 ec3f
00000090: 90b7 e73f 0ec1 22c0 20d8 abbf 617e 84bf
000000a0: 317d a5bf 6a14 91bf 6082 c7bf e345 5ac0
000000b0: f8b3 d33f acc4 93c0 ec0c 44be e1a2 0640
000000c0: d374 0dc0 d2ea f0bf c52a 3b3e 878d 40bf
000000d0: fc3d 143f ac7f 1bbf b983 35bf 4918 7d3f
000000e0: efa2 ed3f a69b febf b191 bbbe 65e5 18c0
000000f0: 3cda 4640 c201 59c0 161d 8040 4339 283f
00000100: af18 373f 18fa 8c3d 99c1 8e3d a95b 0f3f
00000110: fbef 633f 0467 433f 6d5f c7be eb87 7abe
00000120: 181b 4a3f 3165 37be 1a7a 433f 1fac fcbf
00000130: 6210 d1bf 302a 8ec0 50d2 d140 7ec3 92bf
00000140: 6b46 f83f 2da0 243f 0e0b 983f 433a 99bf
00000150: 81e1 e43f 529f f83f 3799 f23f 1de7 043f
00000160: 3f79 b8be 274b c1bf 97f3 113f 3789 4a3e
00000170: 69f5 fabe b719 963f 0bdc 3d3f 9366 0740
00000180: 8aad bcbf ee23 5bc0 d2c5 43c0 93b4 9b40
00000190: b178 9940 c41e 9340 4f4f cfc0 1253 c6bf
000001a0: a593 66be dec4 c83e d242 d63f 55d6 83bf
000001b0: 22d5 8bbf c522 0140 2676 1a40 bfba 8c3f
000001c0: bef3 03be 23b0 1b3e 121e 84bf 6127 acbe
000001d0: 7ec5 c7bf 2991 d9bd 86f8 8fbf 453b fbbe
000001e0: d768 263f f031 c93f 593a 403f 5ac2 2940
000001f0: 1ffb 5cbf 0b40 083f efc1 8b3f 0aa7 38bf
00000200: 054d 88bf a191 9cbf 1384 27be f970 363f
00000210: b24f c4bf e912 81bf c464 003e ac71 8c3f
00000220: c7fe 82bf d7d5 ba3f d31f e33e 834f bfbe
00000230: 79cf a9bf 919b f93d 689d 543e 9bb2 7a3f
00000240: f1f6 32bf cf65 c7be e43b 8abf ab3a 30be
00000250: 6626 8b3f f20b cc3f 3db1 21bf 330e 33be
00000260: ae4b 033f d51a 61bf 9d0d 99bd 6fd6 ae3e
00000270: b60f 9d3f 72cc 82bf f6b3 d23e 3cd0 ab3f
00000280: 4867 d1bf 1102 6cbf 6693 60bf 2fa5 023f
00000290: c092 00bf 5246 96bf 2e18 283d 261d b33f
000002a0: 5054 babe 22ed 2340 0512 e73e 50d3 f43e
000002b0: 5a3d e93d 1830 b73e d9b4 0bbf 0c5c 8ebd
000002c0: 2884 debe a0c8 d63f 60f8 49bf 2dad 433f
000002d0: bf51 94bf 33ec acbe f6b9 78bf 8fa3 c1bf
000002e0: 5601 edbe e968 0040 99c1 063f dbc3 ebbd
000002f0: 8eaa b4be 0b00 ea3f 3847 ae40 10a3 34c0
00000300: 3232 743e 019d 0340 ec63 29bf 5e53 4dbd
00000310: 0a0e 663f c6ab 26be 645b 89bf b66f d0be
00000320: 1212 0dbf 9b03 9e3f b058 25bf 639d fb3e
00000330: 5970 0ec0 9610 9cbf e63e 3e40 bff8 403e
00000340: ce73 573f 5f41 6f3f 502a 6f3f 85a9 923f
00000350: c1b1 29bf 0851 0a3f cf43 9e3f 7adb c63e
00000360: 8b1f 0bbf 544c 703f 85d9 a83e 2f69 0fc0
00000370: dcc7 51bf f333 27bf 6d23 f13e 577d a33f
00000380: dfac 01be a500 0bbd ad08 04c0 4b29 96be
00000390: 2ad8 413e 2de5 39bc d94c c13f f8d0 4fbf
000003a0: 91f9 1a40 5401 ed3e 59ee 82be ca61 083f
000003b0: 93c2 7a3f 8593 3ebf fc8c a33f 87f8 ef3e
000003c0: 3df7 10be 2ea4 c9bf d361 27bf 5cdc 0f40
000003d0: 46e8 3d40 cbd0 2240 b2cd 1040 8219 b23f
000003e0: 6523 bbbf 7a5b a73f 22cf c03e 0bb7 15bf
000003f0: 2d43 85bf 0d42 2dbe d9ce 2ebf eb0e dc3e

lin1.weight f4 [7, 16]
0.23526067 0.16784976 0.10540613 0.102997996 0.10495377 0.08793875 0.26457098 0.6189221
0.14975028 -0.30653858 0.063177526 0.5749344 0.3674641 -0.43255028 0.2800033 0.9645665
-0.0527668 -0.1391097 0.44609365 0.23319374 -0.18718599 0.5281288 -0.29660842 -0.29101548
0.22521737 -0.7332098 0.9241778 -0.4700283 -0.18573323 0.013321657 0.044627786 -0.099551864
-0.24244682 0.016537793 -0.1139737 -0.264922 0.10127513 -0.057455376 -0.013709919 -0.6212357
-1.2509011 0.030314213 -0.14192988 1.0476172 -0.6660594 0.038939018 0.33131653 0.032584634
-0.40515885 0.23439552 0.0038178023 0.09469398 0.4709385 -0.21253926 -0.09593006 -0.09500274
-0.3234427 0.29587856 -0.5316222 -0.20911244 0.16004856 0.476972 0.2918809 0.38739106
-0.010953267 0.36970863 -0.25917804 0.22916812 0.32033685 0.21542846 0.44931322 0.8406115
-0.11104314 0.32326537 0.17937724 -1.081374 0.21886717 0.5172441 -0.6469174 0.1479232
0.0055062273 -0.018292908 -0.15395768 0.0975684 0.15929884 0.05162785 -0.07179243 0.016136017
0.5598101 -0.6980377 -1.0333166 0.19691235 -0.39703083 0.06114713 -0.11657281 -0.74322706
-0.34996393 0.15363969 -0.518889 -0.48544672 -0.35177693 0.42266768 0.14201657 0.10661102
-0.67596346 -0.1261302 0.05787659 -0.121669136 0.924187 0.45937237 0.7538319 -0.0176841
00000000: 2ce8 703e cfe0 2b3e 2bdf d73d 9df0 d23d
00000010: 01f2 d63d 3b19 b43d d975 873e ae71 1e3f
00000020: 2358 193e a0f2 9cbe 3863 813d e72e 133f
00000030: 4124 bc3e 3b77 ddbe 985c 8f3e d5ed 763f
00000040: 0022 58bd c672 0ebe 6366 e43e 57ca 6e3e
00000050: afad 3fbe 7333 073f 0fdd 97be fbff 94be
00000060: 629f 663e a3b3 3bbf eb96 6c3f 8da7 f0be
00000070: da30 3ebe 1443 5a3c a0cb 363d d9e1 cbbd
00000080: fb43 78be 447a 873c 0b6b e9bd dba3 87be
00000090: 5669 cf3d 5456 6bbd 919f 60bc 4e09 1fbf
000000a0: 871d a0bf 8355 f83c 1156 11be 5218 863f
000000b0: de82 2abf 857e 1f3d 52a2 a93e 7777 053d
000000c0: fb70 cfbe 6105 703e 1834 7a3b ebee c13d
000000d0: da1e f13e e4a3 59be fb76 c4bd cc90 c2bd
000000e0: 489a a5be 657d 973e 6418 08bf 9221 56be
000000f0: c5e3 233e ad35 f43e 6a71 953e 1f58 c63e
00000100: 5575 33bc 734a bd3e fcb2 84be 0cab 6a3e
00000110: 3103 a43e 4799 5c3e 620c e63e 5132 573f
00000120: 966a e3bd 0a83 a53e abae 373e 776a 8abf
00000130: b71e 603e 1c6a 043f 619c 25bf 2e79 173e
00000140: 956d b43b 02db 95bc 15a7 1dbe f1d1 c73d
00000150: 3c1f 233e b977 533d e907 93bd ae2f 843c
00000160: b74f 0f3f 99b2 32bf b843 84bf 64a3 493e
00000170: a047 cbbe 6a75 7a3d babd eebd 2144 3ebf
00000180: 792e b3be b953 1d3e e9d5 04bf 798c f8be
00000190: 1b1c b4be e667 d83e cb6c 113e e156 da3d
000001a0: f10b 2dbf 4628 01be 0110 6d3d ab2d f9bd
000001b0: 8597 6c3f db32 eb3e 21fb 403f 3fde 90bc

lin1.bias f4 [7]
0.29359746 -0.4245435 0.61349374 1.2485262 0.42927173 -0.29294553 -0.400405
00000000: 6852 963e c45d d9be ed0d 1d3f b5cf 9f3f
00000010: 81c9 db3e f5fc 95be e201 cdbe

lin2.weight f4 [41, 7]
1.67128 -0.4083989 0.81987405 2.354396 2.255161 -0.8906357 3.0921824 1.8401937
0.42913663 1.0995883 1.5145488 2.8309045 -1.5035245 3.2623627 1.9669763 1.3317575
1.0018721 0.074319355 0.9157184 -0.4403628 0.89153105 -0.9869822 0.9511901 -2.16184
-1.2776438 1.2446303 -1.6745534 2.1621296 -0.9009139 0.9264632 -1.7318089 -1.3217932
-1.3424158 2.4820473 -0.8806699 -3.6054695 5.7446523 1.3126696 -1.3252302 -2.7294877
2.7326093 3.6269774 1.8095163 -0.37695533 0.44181153 1.6523846 2.5618484 -2.0317445
2.8260555 -2.8181126 -0.8312829 -4.729609 -2.3006475 1.2720007 -1.5504286 1.9175808
-0.93754756 2.8346002 -1.6687934 -3.7017748 0.19350407 0.27270445 0.4412795 -1.297361
7.243576 -0.08811016 -8.827292 -3.6903114 -2.7526171 2.610355 -0.30496767 3.4623756
0.06763279 -2.8410661 -0.904918 0.99650383 -0.7049476 0.8033164 -1.5226557 -0.33986968
3.955019 1.6752212 -1.5251162 1.4546331 1.7351983 1.4934852 1.845002 0.44307166
-0.6951366 0.5028658 2.5999913 3.0628178 -1.0624461 1.0155993 -0.23730259 3.095844
-2.776706 1.1055613 1.3763392 -0.78842664 0.6153501 1.0050246 0.20228362 -1.0513709
-1.941511 -2.3363864 1.6094192 1.4191421 0.6396164 -2.646746 0.7941722 -0.52120024
-0.8953144 1.4682852 -0.0574342 1.0311655 0.15042108 0.4740094 0.18856966 -2.484685
1.8790066 -1.9012783 3.6310313 0.16520014 1.3337328 1.8416674 0.041680254 -3.043998
-0.05384519 1.0696863 -1.3397771 -1.6567155 -2.0172067 -2.329803 1.4372944 1.3477036
-0.93715626 -2.2134178 0.4843104 -0.58738035 -2.8106928 2.0251493 -0.12933227 1.2245429
0.51626474 0.29139373 -1.3947839 4.635822 -0.21247484 -1.9709798 -2.5771403 1.8128586
-1.3380442 -1.4964974 2.4716268 -0.028979065 -0.5980956 0.42746896 1.8959103 -2.053754
-1.5202051 -0.91456884 4.0162454 0.07918629 -1.0713629 -1.5924315 0.4260796 -3.6111062
-2.0607846 2.1692817 0.2984267 1.2420069 -0.38470313 1.3090118 -0.3782495 -2.2544372
-2.4050996 -1.9887255 0.6095041 -1.5831032 1.5220475 -0.61227465 0.98177445 -0.5183713
2.8851721 2.1176243 -1.39747 2.3379061 0.22880816 -4.1896524 0.42484292 -1.5579077
-0.1338287 -1.5121785 2.5154305 0.102496065 2.0386329 -1.3752253 0.48161265 -0.4947636
0.45327482 -0.7027242 -2.6256685 -0.50352067 0.6086048 2.6249073 0.9828228 -2.1193473
0.4288408 -0.27421802 0.008014915 2.2944875 -0.4968746 -1.069317 0.35495782 2.236112
0.7970044 1.8426386 -1.7100046 -0.70196444 -0.056118563 1.894996 1.8239475 -1.1938157
0.15135255 0.33641788 1.0918406 2.607371 0.6793309 0.7198025 0.13701868 -0.78928685
1.3795276 1.2944757 1.833886 -0.15971571 0.5707242 -0.25983748 -1.2142534 -1.9443384
0.526039 -0.48862106 -3.299761 -0.36068988 -1.3186059 -1.7794774 -0.31910926 0.8124273
0.96909887 -0.62834066 0.39813176 -0.4747036 3.7896738 4.050069 2.0330403 -3.3550398
00000000: 81ec d53f a919 d1be 44e3 513f 6dae 1640
00000010: 8f54 1040 b400 64bf 51e6 4540 788b eb3f
00000020: ccb7 db3e 4fbf 8c3f bcdc c13f 8a2d 3540
00000030: 7e73 c0bf 8dca 5040 e1c5 fb3f 0877 aa3f
00000040: 583d 803f bf34 983d 856c 6a3f 3c77 e1be
00000050: 613b 643f deaa 7cbf 3281 733f 965b 0ac0
00000060: d589 a3bf 0c50 9f3f c457 d6bf 5560 0a40
00000070: 4ba2 66bf b12c 6d3f eaab ddbf 8530 a9bf
00000080: 48d4 abbf ddd9 1e40 9573 61bf 03c0 66c0
00000090: 31d4 b740 8f05 a83f 25a1 a9bf edaf 2ec0
000000a0: 12e3 2e40 6620 6840 3b9e e73f 4a00 c1be
000000b0: 1f35 e23e 5781 d33f 53f5 2340 1a08 02c0
000000c0: 18de 3440 f55b 34c0 f5ce 54bf f558 97c0
000000d0: cf3d 13c0 ebd0 a23f 7274 c6bf 4a73 f53f
000000e0: 1e03 70bf 176a 3540 069b d5bf e1e9 6cc0
000000f0: ee25 463e eb9f 8b3e 63ef e13e ed0f a6bf
00000100: 60cb e740 1973 b4bd 973c 0dc1 102e 6cc0
00000110: e12a 30c0 0e10 2740 b924 9cbe 9097 5d40
00000120: 0f83 8a3d 07d4 35c0 b5a8 67bf e01a 7f3f
00000130: 7277 34bf 25a6 4d3f 62e6 c2bf 6603 aebe
00000140: 081f 7d40 a66d d63f 0237 c3bf 6b31 ba3f
00000150: fa1a de3f 862a bf3f 0729 ec3f 4ada e23e
00000160: 79f4 31bf d0bb 003f 4266 2640 3505 4440
00000170: 3cfe 87bf 28ff 813f 73ff 72be 4f22 4640
00000180: 8db5 31c0 0883 8d3f e22b b03f 54d6 49bf
00000190: 9687 1d3f a5a4 803f 7023 4f3e 5293 86bf
000001a0: 6f83 f8bf 5b87 15c0 7301 ce3f 73a6 b53f
000001b0: e6bd 233f 4964 29c0 df4e 4b3f 616d 05bf
000001c0: 5333 65bf c5f0 bb3f 2040 6bbd 3bfd 833f
000001d0: fc07 1a3e 5cb1 f23e 6818 413e 1405 1fc0
000001e0: 4a83 f03f 165d f3bf d162 6840 3a2a 293e
000001f0: c2b7 aa3f c2bb eb3f eab8 2a3d ddd0 42c0
00000200: c68c 5cbd 7beb 883f d17d abbf 410f d4bf
00000210: ea19 01c0 7e1b 15c0 43f9 b73f 8d81 ac3f
00000220: 79e9 6fbf a3a8 0dc0 88f7 f73e 8f5e 16bf
00000230: 64e2 33c0 0c9c 0140 ae6f 04be d2bd 9c3f
00000240: ed29 043f 8f31 953e 4788 b2bf a758 9440
00000250: 0193 59be 1149 fcbf deef 24c0 c00b e83f
00000260: 0845 abbf 3a8d bfbf 222f 1e40 8165 edbc
00000270: cb1c 19bf 36dd da3e 30ad f23f b570 03c0
00000280: 1596 c2bf 2f21 6abf 1585 8040 6c2c a23d
00000290: 6b22 89bf ccd4 cbbf 1b27 da3e 5d1c 67c0
000002a0: e5e3 03c0 83d5 0a40 62cb 983e 15fa 9e3f
000002b0: cff7 c4be b38d a73f eba9 c1be b348 10c0
000002c0: 27ed 19c0 8f8e febf 7608 1c3f 20a3 cabf
000002d0: 74d2 c23f 08be 1cbf 9255 7b3f fbb3 04bf
000002e0: a9a6 3840 2887 0740 4ce0 b2bf 41a0 1540
000002f0: b04c 6a3e a211 86c0 0385 d93e 8569 c7bf
00000300: 640a 09be 118f c1bf d0fc 2040 75e9 d13d
00000310: f678 0240 6207 b0bf ef95 f63e a851 fdbe
00000320: a313 e83e bce5 33bf f40a 28c0 bbe6 00bf
00000330: 86cd 1b3f 7bfe 2740 469a 7b3f 63a3 07c0
00000340: 0591 db3e 4e66 8cbe fd50 033c e2d8 1240
00000350: 5966 febe 61df 88bf 08bd b53e 761c 0f40
00000360: 7b08 4c3f 95db eb3f 6ee1 dabf f1b3 33bf
00000370: 94dc 65bd 3b8f f23f 1d77 e93f f4ce 98bf
00000380: 2afc 1a3e f73e ac3e 6fc1 8b3f 2bdf 2640
00000390: a1e8 2d3f fa44 383f a04e 0c3e b40e 4abf
000003a0: 5c94 b03f 61b1 a53f c7bc ea3f 848c 23be
000003b0: fb1a 123f 6b09 85be a86c 9bbf 15e0 f8bf
000003c0: 7eaa 063f 8a2c fabe 492f 53c0 58ac b8be
000003d0: 14c8 a8bf eac5 e3bf 4a62 a3be 3cfb 4f3f
000003e0: dd16 783f efda 20bf edd7 cb3e 5a0c f3be
000003f0: 048a 7240 2a9a 8140 551d 0240 f9b8 56c0

lin2.bias f4 [41]
-2.951815 0.5971578 -0.30633065 -0.2874828 -4.281381 -5.5543985 -2.774021 -4.8357096
-6.768801 -6.4877553 -2.4743116 -5.8539605 -5.23404 -4.086587 1.4054148 0.40838182
1.4089559 -0.8825747 0.78646934 1.093187 -0.3245467 0.36532924 1.701244 -4.8400035
-1.073258 0.19432107 -1.4738321 1.7886275 1.5339406 0.052238073 -1.3761547 0.51525366
0.6437981 1.6599925 0.50850624 -0.26704934 -0.60069656 -3.096543 1.2537324 -4.6932473
-5.1728706
00000000: 89ea 3cc0 55df 183f 5fd7 9cbe f230 93be
00000010: 1301 89c0 a2bd b1c0 8f89 31c0 22be 9ac0
00000020: 059a d8c0 b19b cfc0 1f5b 1ec0 a553 bbc0
00000030: 417d a7c0 52c5 82c0 a2e4 b33f 6c17 d13e
00000040: ab58 b43f 6af0 61bf 0e56 493f 8ded 8b3f
00000050: fc2a a6be 6f0c bb3e 5dc2 d93f 4fe1 9ac0
00000060: 8560 89bf 1afc 463e 88a6 bcbf bff1 e43f
00000070: 2a58 c43f 97f7 553d d625 b0bf aae7 033f
00000080: f4cf 243f a27a d43f 772d 023f b1ba 88be
00000090: 40c7 19bf c32d 46c0 4e7a a03f 152f 96c0
000000a0: 2888 a5c0
