Models_Q1/Model-b1-e4-h8.pth (torch, 4619 bytes, 5 tensors)

emb.weight f4 [41, 4]
0.6601941 1.3682709 -1.0335282 -1.3087001 -0.24634734 1.3449804 -0.58251053 0.5026084
0.71520966 0.19079517 -1.5293689 -0.14077848 0.21266349 -0.29852444 -0.2660974 1.2035675
-1.6275465 1.2093787 0.7836423 -0.4180855 -0.7051199 -2.7448118 3.594934 1.5929253
0.23717318 0.0051252306 -1.172749 -0.6686752 -2.353886 -1.2111572 -2.0016603 -0.24727888
-0.3406477 -0.8639448 0.12166471 -1.2595605 -1.8451526 -0.406011 -4.2574306 -3.0359278
-0.26414207 -2.6086793 -0.3934964 -0.14182411 0.0770712 -0.82577467 -0.82249033 -0.36574346
0.07697936 -0.8259148 -0.8224405 -0.36558953 0.14039043 -0.22772013 -1.8435469 -0.6029857
0.05958509 -0.63486594 -0.37471354 1.8704131 0.6130247 0.2856457 1.276295 0.8346372
1.1161519 -0.8037838 1.6860796 -0.16345875 1.1021898 1.4531498 0.37516785 -0.24648403
0.94264925 -1.5360736 -0.537235 1.1270001 -0.48114696 -1.2838581 0.2628796 -0.98426646
0.42976716 -1.0782138 1.1350262 0.7841706 -1.3586218 0.008320416 1.6744468 -1.0387282
0.9032623 1.2283664 -0.022381898 0.66350454 -1.3128908 -2.8557634 0.8079887 0.8712909
1.6360242 -0.04904732 -0.91145116 0.07508592 -1.3679135 -0.62328637 -0.25454795 -0.5003311
-0.8466042 -0.107499495 -0.50127983 -0.3630595 1.9484388 0.39919496 0.8657532 -0.025318904
0.113730595 -0.35211486 -1.4705535 -2.1183636 -0.17382792 -0.88047564 1.0645913 -1.0433496
-1.3128656 -2.8557851 0.8079954 0.8712891 1.5338024 -0.24804619 1.2851537 0.2863995
-0.4326973 0.51189387 -0.83650154 -1.7098173 1.320322 -1.0472554 -1.5179576 -0.88605773
-0.314686 -0.24850334 -0.48473677 1.4364936 0.14507705 1.0058914 1.2909048 -0.2546577
0.52349794 1.7472025 0.23488073 -0.70124775 -0.94754726 0.15372749 -0.83158547 -0.46294916
0.7292052 -1.5651177 -1.2007804 -0.7982398 1.7746822 -0.34997785 -0.85671645 -0.3756656
0.11394208 1.1551746 -1.1023892 0.29386264
00000000: 7b02 293f 8023 af3f a74a 84bf 7c83 a7bf
00000010: 7a42 7cbe 5128 ac3f 691f 15bf f2aa 003f
00000020: fb17 373f cf5f 433e 5cc2 c3bf 3c28 10be
00000030: 75c4 593e 32d8 98be eb3d 88be 800e 9a3f
00000040: 7253 d0bf eccc 9a3f c89c 483f 4d0f d6be
00000050: bd82 34bf ffaa 2fc0 6613 6640 fae4 cb3f
00000060: 87dd 723e 8df1 a73b a41c 96bf 4c2e 2bbf
00000070: 11a6 16c0 3307 9bbf 341b 00c0 ad36 7dbe
00000080: 6069 aebe 7d2b 5dbf 592b f93d 4739 a1bf
00000090: f62d ecbf ace0 cfbe df3c 88c0 a44c 42c0
000000a0: a13d 87be 9af4 26c0 5c78 c9be 573a 11be
000000b0: 81d7 9d3d f865 53bf ba8e 52bf ba42 bbbe
000000c0: 5ba7 9d3d 276f 53bf 768b 52bf 8d2e bbbe
000000d0: 82c2 0f3e 772f 69be 58f9 ebbf 455d 1abf
000000e0: 7f0f 743d 9386 22bf 74da bfbe b269 ef3f
000000f0: 30ef 1c3f 2740 923e a25d a33f c9aa 553f
00000100: 11de 8e3f c6c4 4dbf 75d1 d73f bb61 27be
00000110: 8e14 8d3f d000 ba3f 0016 c03e 4f66 7cbe
00000120: 7651 713f 0f9e c4bf 3c88 09bf 8a41 903f
00000130: e558 f6be 7655 a4bf 2898 863e e3f8 7bbf
00000140: 710a dc3e e902 8abf 8a48 913f 68bf 483f
00000150: 52e7 adbf 5b52 083c 4654 d63f 0cf5 84bf
00000160: 333c 673f 1c3b 9d3f 3e5a b7bc 6fdb 293f
00000170: ce0c a8bf d4c4 36c0 59d8 4e3f ec0c 5f3f
00000180: 3e69 d13f d8e5 48bd dd54 69bf a6c6 993d
00000190: ca17 afbf b28f 1fbf 1c54 82be b315 00bf
000001a0: 0ebb 58bf b228 dcbd e053 00bf efe2 b9be
000001b0: 7166 f93f 4863 cc3e 00a2 5d3f 9769 cfbc
000001c0: 96eb e83d 6648 b4be 193b bcbf 4593 07c0
000001d0: f2ff 31be da66 61bf 8744 883f 7b8c 85bf
000001e0: fb0b a8bf 2fc5 36c0 c9d8 4e3f cd0c 5f3f
000001f0: a353 c43f d2ff 7dbe eb7f a43f f5a2 923e
00000200: 808a ddbe 7a0b 033f f724 56bf 4bdb dabf
00000210: 5000 a93f 770c 86bf 6f4c c2bf aed4 62bf
00000220: 861e a1be a977 7ebe 6b2f f8be 06df b73f
00000230: 148f 143e 0dc1 803f 5e3c a53f 7e62 82be
00000240: f603 063f 55a4 df3f 9384 703e f984 33bf
00000250: 7592 72bf bd6a 1d3e c9e2 54bf ac07 edbe
00000260: 31ad 3a3f c755 c8bf 2cb3 99bf 7259 4cbf
00000270: c928 e33f 4c30 b3be c551 5bbf 3e57 c0be
00000280: 775a e93d c3dc 933f 171b 8dbf 2a75 963e

lin1.weight f4 [8, 4]
-1.0884198 0.5049914 1.1988422 0.0529952 0.7361149 -0.5298582 0.67187184 -1.6631974
-0.99413925 0.7639209 -0.3056212 0.16303384 -0.81962276 -1.0153093 -0.19530074 -0.8837323
0.106803715 0.86624193 -1.1831099 -0.30924466 0.5770737 -0.27215296 0.01229848 0.7770009
-0.48595655 -0.09149127 0.6223092 -0.30112103 -0.5583007 -0.78308296 -0.52655196 -0.05434454
00000000: 5751 8bbf 1e47 013f a973 993f 7f11 593d
00000010: 0772 3c3f c9a4 07bf cbff 2b3f a7e3 d4bf
00000020: e97f 7ebf 5290 433f 627a 9cbe 58f2 263e
00000030: ccd2 51bf a8f5 81bf ebfc 47be 483c 62bf
00000040: e8bb da3d 08c2 5d3f 2570 97bf 5155 9ebe
00000050: 1abb 133f a257 8bbe 907f 493c 88e9 463f
00000060: 4ccf f8be c65f bbbd a84f 1f3f 892c 9abe
00000070: cbec 0ebf 2078 48bf 1ccc 06bf 6198 5ebd

lin1.bias f4 [8]
-0.2661791 0.6063425 -0.7895801 1.1399193 -1.2233964 -1.2420428 0.57928187 -0.7892644
00000000: a148 88be 4339 1b3f ec21 4abf e0e8 913f
00000010: 4198 9cbf 42fb 9ebf d14b 143f 3b0d 4abf

lin2.weight f4 [41, 8]
-0.72083056 3.8770714 -2.4157453 0.48279756 0.7323329 2.1425488 0.0064897817 2.7619514
-1.9396482 2.3288212 -2.2745707 1.527108 -0.40355408 -0.96601903 0.020142624 1.1168289
-2.32467 1.1456136 5.231605 2.9979186 -1.1509848 -2.0804882 -4.7829823 -0.382124
0.81111085 1.349101 0.39995635 -2.17049 -2.4104805 -0.52414745 -4.8089104 2.2492528
2.6601608 -0.9874135 2.487896 -2.0169165 1.51241 2.2985334 -1.3618065 0.9091374
0.006374948 -0.2507638 0.742857 -2.3933442 2.7815506 2.770291 -1.9131312 3.1423416
-0.4877749 4.358404 -0.79588544 1.8761225 -1.2412573 0.7356625 0.2510952 0.97552556
2.490873 -0.13018481 -2.22453 -2.7553113 -1.1406139 1.4271847 1.0099418 1.1946307
3.1889226 0.14661431 2.8702626 -3.1187437 2.4580457 5.5698633 -2.0776658 2.3152425
-2.0914168 5.785492 6.323615 -5.80531 2.6453714 4.98923 -2.7987013 8.021533
2.6946573 -1.141207 2.271468 -1.8761662 1.3851625 2.1102657 -1.1913698 0.6833424
1.5174592 6.0684953 -2.4185114 0.1613249 -1.0373175 3.342436 0.74178207 2.7490792
-0.24191575 1.6239076 4.9504147 0.001560047 2.892483 3.843229 -0.16169436 2.1079628
0.9003316 2.735227 5.149281 0.64073163 -0.62070185 1.9456372 -1.0959368 0.6616321
0.95984083 0.65768045 2.5521257 1.5164623 -2.2217283 -0.007430262 0.12548864 -2.5333607
-3.1269522 -2.137436 1.8936546 -0.6773162 -0.6719581 -1.0362663 1.6761163 1.5439892
-2.7167897 0.1579946 2.4007242 -0.40669155 -0.9103257 -1.0710406 -2.657108 0.55519795
-1.7832305 0.35404697 3.6700916 -1.552851 -0.3075278 1.2965975 -0.5917013 1.976639
1.0952686 1.1784569 -0.5167813 0.86599326 -1.254669 -0.7031149 1.1574584 -1.6904652
-0.89797044 -1.4999536 -0.0072983694 -2.5175056 -0.07529357 -0.90493786 0.7422574 1.8666934
-1.730569 -0.5001769 -0.18253238 -1.4588675 -1.3650805 0.059297897 -0.4593527 -1.8256079
4.1622458 1.4375298 0.8401114 0.31622747 3.4451432 -0.6462126 -0.12931256 -0.955182
1.0190357 0.8459358 0.546684 -0.48526445 0.22951306 -1.1795597 0.5548762 -0.20017669
2.897427 -1.6222767 2.718079 -1.8678907 1.8358307 2.067086 -1.2220409 0.6374517
-1.8774065 -1.9468006 1.1377336 -2.2161562 0.49081373 2.8884542 1.3567685 -0.81973326
1.9587895 -2.078145 -0.7177614 -0.61889213 -0.8601682 1.6511786 2.008448 0.91021574
-2.6052833 -1.4697771 0.5501375 0.36182207 0.57267344 -0.5314183 0.49930125 0.93154925
-0.32148784 -1.0243759 -1.048174 -1.956748 2.5208318 4.4514523 -2.574445 -1.5008669
0.16847141 0.23821163 -0.8933077 0.32130292 -0.18377715 -1.9271936 0.49242154 -0.99158174
-1.9827877 -0.93695194 1.2634776 1.0797395 0.29453608 -1.739559 0.5477392 1.4533601
1.1156311 -2.5405946 2.6318302 0.60751194 0.59818953 2.1647735 -2.299888 0.55726635
0.0010066791 -2.5624735 -1.9029918 1.6700757 0.23300098 -0.24338728 0.7195112 0.47608885
00000000: 5a88 38bf f021 7840 929b 1ac0 3e31 f73e
00000010: 2b7a 3b3f 851f 0940 3ca8 d43b d0c3 3040
00000020: 6446 f8bf 680b 1540 9192 11c0 4678 c33f
00000030: a49e cebe 064d 77bf 2502 a53c 40f4 8e3f
00000040: 65c7 14c0 77a3 923f 4f69 a740 e6dd 3f40
00000050: 7853 93bf b826 05c0 310e 99c0 c2a5 c3be
00000060: f6a4 4f3f 57af ac3f 14c7 cc3e 4fe9 0ac0
00000070: 5045 1ac0 872e 06bf 98e2 99c0 c2f3 0f40
00000080: 1340 2a40 22c7 7cbf b039 1f40 2915 01c0
00000090: a796 c13f 2c1b 1340 ad4f aebf 3bbd 683f
000000a0: f1e4 d03b 1d64 80be e02b 3e3f 8d2c 19c0
000000b0: ed04 3240 734c 3140 7ce1 f4bf 201c 4940
000000c0: a2bd f9be 0c78 8b40 26bf 4bbf c824 f03f
000000d0: 85e1 9ebf 6154 3c3f 8d8f 803e 0bbc 793f
000000e0: 776a 1f40 2b4f 05be b35e 0ec0 0557 30c0
000000f0: a3ff 91bf fdad b63f c645 813f a9e9 983f
00000100: 4f17 4c40 1022 163e 62b2 3740 7f99 47c0
00000110: 9f50 1d40 523c b240 7af8 04c0 ef2c 1440
00000120: c6d9 05c0 c022 b940 0e5b ca40 19c5 b9c0
00000130: c44d 2940 c6a7 9f40 ec1d 33c0 3358 0041
00000140: 4475 2c40 1213 92bf bb5f 1140 3726 f0bf
00000150: 014d b13f 980e 0740 ce7e 98bf 87ef 2e3f
00000160: 1a3c c23f 1d31 c240 e4c8 1ac0 5b32 253e
00000170: d2c6 84bf 79ea 5540 6ee5 3d3f eaf0 2f40
00000180: c3b8 77be 34dc cf3f cc69 9e40 7e7a cc3a
00000190: 711e 3940 77f7 7540 3593 25be dde8 0640
000001a0: 227c 663f f60d 2f40 e9c6 a440 fd06 243f
000001b0: 51e6 1ebf a40a f93f a847 8cbf b960 293f
000001c0: 21b8 753f bf5d 283f 0756 2340 701b c23f
000001d0: cc30 0ec0 8e79 f3bb 1880 003e 9522 22c0
000001e0: fc1f 48c0 c0cb 08c0 4663 f23f 9864 2dbf
000001f0: 7205 2cbf 60a4 84bf fb8a d63f 70a1 c53f
00000200: e2df 2dc0 56c9 213e 77a5 1940 e039 d0be
00000210: 1b0b 69bf dc17 89bf 0f0e 2ac0 7421 0e3f
00000220: e640 e4bf a545 b53e c8e2 6a40 d2c3 c6bf
00000230: 4974 9dbe e8f6 a53f bd79 17bf 8202 fd3f
00000240: c331 8c3f add7 963f c74b 04bf bcb1 5d3f
00000250: fe98 a0bf 57ff 33bf 9927 943f 2a61 d8bf
00000260: 64e1 65bf 7bfe bfbf 2927 efbb d01e 21c0
00000270: 8433 9abd 02aa 67bf 9504 3e3f cfef ee3f
00000280: 4983 ddbf 980b 00bf c5e9 3abe 2cbc babf
00000290: f5ba aebf 5ae2 723d 4730 ebbe 85ad e9bf
000002a0: 1e31 8540 fa00 b83f 8a11 573f 91e8 a13e
000002b0: 3a7d 5c40 306e 25bf 836a 04be cf86 74bf
000002c0: c36f 823f 408f 583f 7cf3 0b3f 9574 f8be
000002d0: 7905 6b3e d0fb 96bf 5e0c 0e3f 1efb 4cbe
000002e0: 726f 3940 c3a6 cfbf 02f5 2d40 0b17 efbf
000002f0: 80fc ea3f 234b 0440 d66b 9cbf 0930 233f
00000300: db4e f0bf c330 f9bf 41a1 913f 81d5 0dc0
00000310: f04b fb3e 6fdc 3840 97aa ad3f 0ada 51bf
00000320: 9db9 fa3f 5400 05c0 36bf 37bf b76f 1ebf
00000330: fc33 5cbf d259 d33f 698a 0040 e603 693f
00000340: f6bc 26c0 a821 bcbf d0d5 0c3f be40 b93e
00000350: ba9a 123f 080b 08bf 6aa4 ff3e 037a 6e3f
00000360: 0e9a a4be c01e 83bf 912a 86bf b876 fabf
00000370: 4f55 2140 4c72 8e40 b5c3 24c0 681c c0bf
00000380: c583 2c3e c0ed 733e d0af 64bf d181 a43e
00000390: 1430 3cbe 48ae f6bf ad1e fc3e 4dd8 7dbf
000003a0: fdcb fdbf 15dc 6fbf a2b9 a13f e734 8a3f
000003b0: 6fcd 963e dfa9 debf a338 0c3f b407 ba3f
000003c0: 00cd 8e3f 1a99 22c0 e86f 2840 e785 1b3f
000003d0: f322 193f a68b 0a40 5d31 13c0 02a9 0e3f
000003e0: 8cf2 833a 91ff 23c0 3c95 f3bf 0ac5 d53f
000003f0: cf97 6e3e 843a 79be e331 383f ebc1 f33e

lin2.bias f4 [41]
-1.1983354 0.7170183 -2.0852885 -1.4935143 -2.9206564 -3.1202278 -2.3258476 -4.241058
-5.5938663 -3.6514766 -2.5502903 -4.0172243 -3.0378034 -1.2566428 0.9655398 -0.90176666
0.5645316 2.5753393 1.0149536 -0.7593939 -1.6787592 -0.62839246 1.5736231 -2.2826087
-1.3400227 1.6273876 0.37958676 2.1209068 0.6268518 0.06342904 -1.8503469 0.42373526
0.5584255 0.25774938 1.6533122 -0.008650499 -0.096198276 -1.048092 1.800825 -3.493882
-2.9421995
00000000: 0e63 99bf 838e 373f 5e75 05c0 7a2b bfbf
00000010: 09ec 3ac0 d0b1 47c0 b0da 14c0 bfb6 87c0
00000020: f400 b3c0 cbb1 69c0 f537 23c0 1a8d 80c0
00000030: 5f6b 42c0 acd9 a0bf 9e2d 773f 2eda 66bf
00000040: 2585 103f 5cd2 2440 00ea 813f a367 42bf
00000050: 95e1 d6bf 54de 20bf 7b6c c93f 4316 12c0
00000060: dd85 abbf 3d4e d03f 3259 c23e f0bc 0740
00000070: 5c79 203f 16e7 813d 2bd8 ecbf d4f3 d83e
00000080: f9f4 0e3f baf7 833e bc9f d33f d3ba 0dbc
00000090: 9a03 c5bd e127 86bf 6f81 e63f c39b 5fc0
000000a0: ff4c 3cc0
