Models_Q1/Model-b2-e7-h2.pth (torch, 4107 bytes, 5 tensors)

emb.weight f4 [41, 7]
000000 98 33 db bd dc 27 46 3e 53 20 9e bf ee 73 3d 3f
       -0.107032 0.19351143 -1.2353615 0.7400502
000010 38 35 0c 3d 95 09 c5 bf 48 98 e7 3f 2a 3e 75 3f
       0.03423044 -1.5393549 1.8093348 0.9579798
000020 24 17 c2 3f 02 93 3d bf 8a dc 66 bf ae d7 5f 3e
       1.5163312 -0.7405244 -0.90180266 0.21859619
000030 25 59 1c c0 a5 f0 18 bf 50 ff 38 bf 90 56 b4 3e
       -2.442941 -0.59742194 -0.72264576 0.35222292
000040 6d 26 84 3e b4 14 6e bf 97 ca 41 3e c6 16 d0 be
       0.25810567 -0.9300034 0.18924938 -0.40642375
000050 47 5d cd be 0b b9 fd bf c2 d6 0e bf f0 ae bd bf
       -0.40110227 -1.9822096 -0.55796444 -1.4819012
000060 58 d6 8d bf 20 00 75 bf a6 ab fc 3f f9 ca 92 be
       -1.1081038 -0.95703316 1.9739883 -0.2867048
000070 6a c0 91 3f 29 2c c2 3f 6d 5c cd 3e 7d ee 05 bf
       1.1386845 1.5169727 0.40109578 -0.5231703
000080 bd ab 93 bf 9e e4 0f bf 4c 80 b2 bd 52 bd 8f 3d
       -1.1536785 -0.5620822 -0.08715877 0.07018532
000090 b5 74 42 3e ba b0 85 3e a8 a7 b4 3f d3 4f f6 3e
       0.18989833 0.26111394 1.4113665 0.48107776
0000a0 fa 22 ac 3f 30 38 a4 bf 92 8c 1b 40 44 ee 81 3f
       1.3448174 -1.2829647 2.4304547 1.0150838
0000b0 a1 3e 83 be c9 2a b5 3f fb bf 7b c0 3f b5 8f bf
       -0.2563372 1.4153682 -3.9335926 -1.1227187
0000c0 94 d4 c8 bf 18 8c 83 3d 0e 1c c0 3f c9 01 be 3f
       -1.5689874 0.06423205 1.5008562 1.4844295
0000d0 f8 04 eb bf 38 5a 25 c0 69 7c 9d 3d 9e 6f 88 3f
       -1.8360891 -2.5836315 0.07689745 1.0659063
0000e0 00 1d 84 3f 2c d8 f5 3f 8c 05 a4 bf e8 85 5d 3e
       1.032135 1.9206595 -1.2814193 0.21633112
0000f0 34 85 3c bd 24 6e 22 bf 7d f4 a8 bf 8c 2e 43 bf
       -0.04602547 -0.6344931 -1.3199612 -0.762429
000100 b9 49 76 bf 4a 08 61 bf ff c7 18 bf 97 f9 75 c0
       -0.9620624 -0.87903273 -0.5968017 -3.8433588
000110 34 70 43 40 fb a2 34 40 71 ff 1b 3f 8d 2e 40 3f
       3.0537233 2.8224475 0.6093665 0.7507103
000120 9d 91 e3 3f 2e e0 c3 bf f9 a4 10 bf fe 62 7b bf
       1.7778813 -1.5302789 -0.5650173 -0.98197925
000130 4c fc 08 c0 d8 ca 95 3e 5a 5f 35 3f 8c d2 f2 3f
       -2.140399 0.2925632 0.7084862 1.8970504
000140 89 2f 4e bf 56 dd 7c bf 2e 98 0c 3f 58 3e 28 bf
       -0.8054128 -0.9877523 0.5491971 -0.6572013
000150 04 ef 51 c0 1c 55 9e bf b4 6b 7c bf b6 62 50 3f
       -3.2802134 -1.2369723 -0.9860184 0.8140062
000160 b9 43 2d 40 ce e7 33 c0 47 76 08 3f 29 f1 50 bf
       2.7072585 -2.8110232 0.53305477 -0.8161798
000170 9f 94 e4 3f 48 e2 a0 bf 73 a5 2f 3f 06 62 dc 3e
       1.7857856 -1.2569056 0.6861183 0.43043536
000180 be e2 b8 bf ff e2 e1 3f da 7b ae bb da 13 9b 3f
       -1.4444196 1.7647399 -0.005324823 1.2115433
000190 19 6f 3f bf 33 08 1d c0 f4 47 c8 bf 09 8e 9e 3f
       -0.74778897 -2.4536254 -1.5646958 1.2387096
0001a0 59 19 ab 3f 80 b9 1d 3f 11 96 ba bf 3b 0c de 3f
       1.336711 0.61611176 -1.4577047 1.7347482
0001b0 1b b7 bf bf a7 ca 15 3e b1 98 a7 bf 29 aa b4 be
       -1.4977754 0.14628087 -1.3093473 -0.35286072
0001c0 7f ce bf 3e bb d1 3e bf cd 88 90 3f 77 45 98 be
       0.37462232 -0.74538773 1.1291748 -0.29740497
0001d0 02 91 16 3f ab 38 35 be 15 81 c3 be 2b 2b 39 be
       0.58815014 -0.17697398 -0.3818442 -0.18082874
0001e0 cc 14 82 bf 8b c6 09 40 b7 cf 2f bf ce 34 1f bf
       -1.0162597 2.152743 -0.6867632 -0.6218995
0001f0 a6 eb 66 bf bd 4c 22 bf 0c d3 78 be 34 87 c9 3f
       -0.9020332 -0.63398343 -0.24299258 1.5744386
000200 f5 c0 82 3f b4 f9 02 3f 93 08 1b 3f e6 32 18 3f
       1.0215136 0.51162267 0.6055996 0.59452665
000210 47 07 ff bf c2 1a 83 3e 61 8b 68 be 45 42 8e 3e
       -1.9924096 0.25606352 -0.22709419 0.27784935
000220 aa 43 16 3e 9d f3 1d be 49 6b 7d 3f b2 88 24 bf
       0.1467425 -0.15424962 0.9899183 -0.6427108
000230 1a d1 d5 3f 10 f0 8e bf ef e0 2e bc cd 1a ff bf
       1.6704438 -1.1167011 -0.010673746 -1.9930054
000240 59 a0 01 bf 1f 1e 92 be 7d 4d 59 3e 66 7f bb 3e
       -0.50635296 -0.28538606 0.21220966 0.36620635
000250 58 fd 05 bf b3 a3 dc 3e a6 d5 8f 3d a4 43 75 3d
       -0.52339697 0.43093643 0.07023172 0.05987896
000260 09 89 2c 3f 14 a2 0c be f1 fe ac bf 43 78 bf 3e
       0.673966 -0.13733703 -1.3515302 0.3739644
000270 53 93 01 be 3f ce f0 be 02 59 3c bf dc 68 30 3f
       -0.12653856 -0.47032353 -0.73573315 0.6891
000280 79 9f 0f bf a7 50 a0 3d f8 7a c4 3e 31 f1 9c 3e
       -0.5610271 0.07827883 0.38375068 0.30652764
000290 74 d4 ef bd 1c 13 b7 3d 22 43 ad 3e ea d0 9f bf
       -0.11710444 0.08939192 0.3384028 -1.248563
0002a0 59 30 d3 3e ae 13 8a 3f 71 87 a1 bc f1 1b d1 bf
       0.41247824 1.0787256 -0.019717904 -1.6336652
0002b0 66 62 05 bf b1 b2 eb 3d 0c de 0e bf 99 a7 3d bf
       -0.5210327 0.11508692 -0.55807567 -0.7408386
0002c0 3a b0 f0 3f 62 75 fc 3f 57 6f cf be ee 96 dc 3e
       1.880378 1.9723322 -0.40514633 0.430839
0002d0 fa 8c e7 bc 3d bf 80 bf e2 4d ed 3f 7b 91 6e 3e
       -0.028265465 -1.0058361 1.8539393 0.23297684
0002e0 37 b0 6a 3e 79 0a e7 bf 34 90 e7 3e 9c 62 c1 3e
       0.22918783 -1.8050071 0.45227206 0.37770545
0002f0 13 ad 70 3f fc 60 d7 3d 4d 53 07 bf 5a 22 2c 3d
       0.9401409 0.10516545 -0.5286148 0.042024948
000300 39 e3 ae be a1 f9 9b be e8 65 4d 3f f3 05 c6 bc
       -0.34157732 -0.3046389 0.8023362 -0.024172759
000310 82 00 5b bf eb 64 0a 3f 55 c3 91 3f 5d c7 9f bf
       -0.8554765 0.5406024 1.1387736 -1.2482716
000320 5a 22 a0 bf 65 ba f4 3c 52 7a 0a be 59 a2 88 3f
       -1.2510483 0.029874036 -0.13523224 1.0674545
000330 3f d5 04 3f ff 1b 55 3f 99 d5 7f 3c 4d f3 8b 3f
       0.5188789 0.83245844 0.0156148905 1.0933625
000340 39 fd 95 3f 59 c3 b1 be dd c0 09 40 73 0c bd 3f
       1.1717902 -0.3471935 2.1523964 1.4769424
000350 25 3a c6 be 47 be 15 40 1b 0b 65 c0 47 d3 be 3f
       -0.38716236 2.3397386 -3.5788028 1.4908227
000360 f2 b2 b2 3f 9d 83 ab 3c ce a2 90 3e 41 f7 93 bd
       1.396086 0.020936782 0.2824921 -0.07224894
000370 68 75 3e bf 35 73 a1 3e db 67 68 be 3a 24 0d c0
       -0.743979 0.31533208 -0.22695868 -2.205336
000380 ae 0f 6f be 4b 5c 0a bf aa 34 cb 3f 16 9a f4 be
       -0.23345825 -0.5404708 1.5875447 -0.47773808
000390 ef ab 40 bf fb ec bb bd a0 0d e3 3d 37 c9 8e 3f
       -0.7526235 -0.0917606 0.11086583 1.1155156
0003a0 5d a3 7c bd 78 d0 49 bf 42 71 04 3f 90 16 05 3e
       -0.061679233 -0.78833723 0.5173532 0.12996888
0003b0 80 0a e6 3f 8b 82 80 bf 9f db a3 bf 64 a3 30 3d
       1.7971954 -1.0039839 -1.2801398 0.04312457
0003c0 de 84 3f 3f 6f 33 0c bf 9e ed c2 bf df a0 85 3e
       0.74812114 -0.5476598 -1.5228765 0.26099297
0003d0 61 40 ab bf 89 b3 ee 3e 7d 3c e3 be 88 03 80 3f
       -1.3379022 0.4662135 -0.44382086 1.0001078
0003e0 b4 df 83 3f 5f e4 08 3f d8 5b 6f 3f 69 37 12 bf
       1.0302644 0.53473467 0.9349952 -0.571158
0003f0 f1 de 0c 3e 02 8c f4 be 90 64 8b 3f cf 4a 3a bd
       0.1375692 -0.47763067 1.0890064 -0.0454815

lin1.weight f4 [2, 14]
000000 c5 a0 19 3e 61 76 8b 3e 0e e2 a6 be 3e 9b f0 3e
       0.15002735 0.27238753 -0.3259434 0.4699344
000010 03 c2 8f be 70 7d 1f bf 72 18 4c 3e e1 8b 1c 3f
       -0.28077707 -0.6230078 0.199312 0.6115094
000020 d8 44 4f bf eb 25 ce 3e 89 06 0f 3f 3c af 7a 3e
       -0.8096442 0.40263304 0.55869347 0.24480909
000030 64 5a 56 3e 70 86 02 3f 63 81 98 be 74 24 b1 3d
       0.20932919 0.50986385 -0.29786214 0.08649531
000040 f7 f1 bc be 2a 12 89 3e 3d 06 cc 3e 27 1b 0d bf
       -0.36903355 0.2677167 0.3984851 -0.55119556
000050 29 df da 3e ad ce 29 bf b2 6d 59 be 78 c0 d1 be
       0.42748383 -0.6633099 -0.21233252 -0.40967155
000060 37 a7 00 bd ce fb 29 bf a2 d9 19 3f f3 29 de 3e
       -0.03140947 -0.6639985 0.60097706 0.4339138

lin1.bias f4 [2]
000000 00 65 ac be 30 c6 74 be
       -0.33670807 -0.23903728

lin2.weight f4 [41, 2]
000000 67 48 5b c0 db 0e 26 c0 36 2e b6 c0 41 64 60 c0
       -3.426294 -2.5946567 -5.693141 -3.506119
000010 24 35 29 3e 1d 2d e3 3e 32 4f 39 c0 93 69 c6 bf
       0.16524178 0.44370356 -2.8954587 -1.5500969
000020 94 5e 5a 3f 04 c9 05 40 52 a4 fe bf 68 b8 29 bd
       0.85300565 2.090394 -1.9893897 -0.04143563
000030 0b 53 17 c0 75 95 60 c0 a3 1b f4 3e 90 9a f2 be
       -2.3644435 -3.5091221 0.47677335 -0.47383547
000040 e1 82 0d 40 6d b7 cc 3c ee 75 a7 3f e4 26 39 c0
       2.2111132 0.024989808 1.3082864 -2.8929987
000050 d4 2b c3 3f c0 5e ce 3f ba 34 ff bf 6c d4 04 c0
       1.524775 1.6122665 -1.9937966 -2.0754652
000060 fe b5 16 3d 45 a0 23 c0 f1 6b 4b 3f a0 fb 1d c0
       0.036794655 -2.556657 0.7946158 -2.468483
000070 37 ab 1f 40 12 78 de be 09 28 0a bf c9 1a f6 3f
       2.4948251 -0.4345098 -0.5396734 1.9226924
000080 f3 99 68 bf 2a e7 95 3f 8a e6 02 c0 bb 30 77 3f
       -0.9085991 1.1711171 -2.045321 0.9655873
000090 f3 92 6b 40 58 a3 21 c0 8d 3c 82 c0 77 5c 78 40
       3.680844 -2.5255947 -4.0698915 3.8806436
0000a0 f5 df 9d c0 13 4c 4a 40 af 25 92 40 18 a7 59 3c
       -4.9335885 3.1608932 4.5671 0.013284467
0000b0 ba a7 3f 40 47 b6 3e bf 8d fa 92 3f 1f 39 86 40
       2.9946122 -0.74496883 1.1482712 4.194473
0000c0 dd f1 48 bf 86 4f 16 40 fc 3b e9 be f4 95 49 3f
       -0.78494054 2.3486037 -0.45553577 0.78744435
0000d0 17 5f fd be a9 db b2 3f 6b 3e e6 c0 58 d9 72 40
       -0.4948661 1.3973285 -7.1951194 3.7945156
0000e0 70 26 6c 40 dc 6b 1a bf 8a f7 ac 3f c4 35 52 3f
       3.689846 -0.6032083 1.3513043 0.8211329
0000f0 67 b4 aa bd 6f ba da 3f 29 69 a1 3e 8b 5b 1a 3f
       -0.0833519 1.7088145 0.31525543 0.60295933
000100 df 97 08 c0 fa 52 f9 3f d4 74 f0 be 9f 53 e4 3f
       -2.1342695 1.9478447 -0.46964133 1.7838019
000110 8d 60 42 40 3a 7c 10 bf bf 10 41 c0 75 29 17 40
       3.037143 -0.56439555 -3.016647 2.3619053
000120 a8 ed 80 3f c5 19 b2 3f ee db 11 40 af 38 4f bf
       1.0072527 1.3914114 2.2790484 -0.8094587
000130 bf 91 87 3f 26 cb 77 be 9c 11 4e c0 e6 56 59 40
       1.0591353 -0.24198589 -3.2198248 3.3959289
000140 92 37 39 bc 2f c1 2e c0
       -0.011304753 -2.730541

lin2.bias f4 [41]
000000 8f 9a 22 c0 ae 12 b4 bf f6 be 17 be b2 75 0e c0
       -2.5406835 -1.40682 -0.1481894 -2.2259336
000010 b6 85 83 c0 93 ac 95 c0 94 50 3b c0 29 c8 53 c0
       -4.110072 -4.677316 -2.926793 -3.3090918
000020 cf 48 03 c1 31 23 8b c0 71 16 51 c0 89 bb 60 c0
       -8.205276 -4.348046 -3.2669947 -3.5114462
000030 b6 b3 a7 c0 6f 29 56 c0 b4 42 23 40 cc 0a 06 3f
       -5.2406874 -3.346279 2.5509462 0.52360225
000040 d9 78 95 3f f8 2b 5b 3f 3d c5 17 40 35 6c 94 bf
       1.1677505 0.85613966 2.3714135 -1.1595522
000050 26 d1 18 bf 9a c9 bb 3f 12 6f 20 40 61 53 63 c0
       -0.59694135 1.4670899 2.5067792 -3.551964
000060 5d c0 54 bf 02 16 b1 3f 23 61 a3 3f 61 a9 a4 be
       -0.83106023 1.3834841 1.2764019 -0.32160476
000070 25 25 18 40 a2 8d 94 3f 85 6b f2 bf 1a ff ff 3f
       2.3772671 1.1605723 -1.8939062 1.9999726
000080 9a 84 d2 3f 3a ef 16 40 c7 c8 aa 3f ca f7 03 bf
       1.6446717 2.3583512 1.3342522 -0.5154997
000090 4a 2a 94 3f 78 0a 0b bf 0a c5 43 3f 3e 32 88 c0
       1.1575406 -0.5431285 0.7647253 -4.256133
0000a0 86 74 96 c0
       -4.701724
