Models_Q1/Model-b1-e2-h7.pth (torch, 4043 bytes, 5 tensors)

emb.weight f4 [41, 2]
000000 4e 22 82 be 37 e6 b8 bd 7f 20 c7 bf 5d 36 c1 3f
       -0.25416797 -0.09028285 -1.5556792 1.5094715
000010 d1 cd 9c be 47 4a 8e 3d 4c 1d c3 bf e2 fc e5 bf
       -0.30625775 0.06947761 -1.5243316 -1.7967799
000020 3f 87 6f bd 71 ad 5d 3f 9b 92 30 3e 6c 12 a3 be
       -0.05847859 0.86592776 0.17243426 -0.31849992
000030 11 c6 fc bd a8 fb 17 bf 68 c7 a4 bf 19 51 bb 3f
       -0.12342466 -0.5936837 -1.2873354 1.4634124
000040 5c 4c 3e 3f ee ef 17 be 09 0a 49 40 55 42 0f 3e
       0.74335265 -0.1483762 3.1412375 0.13990147
000050 96 85 2c 3f 8e 16 00 40 08 0a de bd 85 8c 12 bf
       0.67391336 2.0013766 -0.10841757 -0.57245666
000060 6a f4 dd bd c1 8c 12 bf 03 e1 a5 bd 40 a2 9d bf
       -0.10837634 -0.57246023 -0.08099558 -1.231514
000070 80 6a 84 bf 39 f0 8f bf 90 3b a9 3f 43 5f 0a bf
       -1.0345001 -1.1245185 1.3221302 -0.5405161
000080 ad 1a 26 3e c1 ca 90 3f 64 86 1a be 63 fa 3e 3d
       0.16221114 1.1311876 -0.15090328 0.046625506
000090 3d d4 1c bf 48 1d 96 bf ae c9 28 3f 35 9c 6f bf
       -0.6126135 -1.1727686 0.6593274 -0.9359773
0000a0 25 90 1d 3f 1e 10 19 bf 68 05 8b 3d 88 7c c6 3e
       0.6154807 -0.5979022 0.067881405 0.38766885
0000b0 a3 4b 10 c0 ec 1d 9f bd a9 75 b7 be 21 b6 1e c0
       -2.2546165 -0.07769379 -0.35831955 -2.4798663
0000c0 88 bd 36 be ba 07 8a 3e ec e0 97 3f 7d 88 64 bf
       -0.17845738 0.2695902 1.1865516 -0.89270765
0000d0 bb b0 26 bd ec 34 a5 3e f7 6e d4 be b9 8c 3a 3e
       -0.040695887 0.3226694 -0.4149091 0.18217744
0000e0 5a f8 0f bf 6d 44 b6 bf 1e ae 94 3f fe 2b 5b bf
       -0.5623833 -1.4239632 1.1615636 -0.85614
0000f0 0e f5 cd 3f 6f 19 34 40 f0 92 2c be ec 0e 9e 3e
       1.609041 2.8140523 -0.16852927 0.3087076
000100 53 fe 45 be 74 8f 07 3e 31 56 04 3f a1 68 b3 3f
       -0.19335298 0.13238317 0.5169402 1.4016305
000110 63 00 c4 be 33 2e b1 3f 23 a4 90 3f e9 b9 10 3d
       -0.38281545 1.3842224 1.130009 0.035333548
000120 72 98 c8 3f 6b 9f 42 3f c4 cb 0a be 56 af 83 3f
       1.5671523 0.760245 -0.13554293 1.0287883
000130 7a 8e c5 3e 8d e6 84 bf 0c 2f 86 3f a6 b1 ba 3d
       0.38585263 -1.0382859 1.0483108 0.09115915
000140 1e f2 cc bf 7c 56 b4 3f
       -1.6011388 1.4088893

lin1.weight f4 [7, 2]
000000 2d 16 3d bf b9 c8 36 bf 92 fb c0 3f 95 85 1b bf
       -0.7386196 -0.7140003 1.5076773 -0.60750705
000010 7a b0 fe be 6c 09 e7 be 0c 4e c7 3f e0 34 c0 be
       -0.49744016 -0.45124376 1.5570693 -0.3754034
000020 e4 9e b4 3f 0a cf f8 3f 50 b6 4e bc 14 b1 ae 3f
       1.411099 1.9438183 -0.012616709 1.364779
000030 1d 1d 81 be a4 2d a7 3f
       -0.25217524 1.3060803

lin1.bias f4 [7]
000000 b8 26 16 3f 04 08 8d bd 31 24 47 bf 38 d1 48 3f
       0.5865283 -0.068862945 -0.777896 0.7844424
000010 bf a1 02 3e 1f ae 0f 3f 45 b9 6d bf
       0.12757014 0.5612506 -0.92860824

lin2.weight f4 [41, 7]
000000 f6 68 ca bf 50 cb 71 bf 63 23 dc 3f 78 48 6b 40
       -1.5813282 -0.94450855 1.7198299 3.6762981
000010 6b c7 7d bf ad 7d 24 3e 6c f6 2d c0 9e 32 25 bf
       -0.9913241 0.16063567 -2.7181654 -0.6453036
000020 01 cd b1 bf fe 65 98 be 4e 8d 20 40 c9 a1 dc bf
       -1.3890687 -0.29765314 2.5086246 -1.7236873
000030 78 a8 28 be ed f7 01 c0 b3 aa 14 40 ac 77 2a bf
       -0.16470516 -2.0307572 2.3229187 -0.66588855
000040 a3 5f 34 bf d6 8a 86 bd ad 4c 2e c0 fc 40 97 be
       -0.7045843 -0.065694496 -2.72343 -0.29541767
000050 53 80 28 40 a4 53 fb 3f 59 e2 df be ee 06 0f 3f
       2.6328323 1.96349 -0.43727377 0.5586995
000060 ef 9a ac 3e 33 83 a5 c0 cc 91 43 3f f3 4f 03 40
       0.33711955 -5.1722655 0.76394343 2.0517547
000070 04 62 12 c0 1d 1d b4 3f 1b 97 fc 3f e9 09 f2 bf
       -2.2872324 1.4071385 1.9733614 -1.8909274
000080 9c ce 97 3e 7c 49 89 bf 49 a7 0e 40 25 28 fc bf
       0.29649818 -1.0725551 2.2289603 -1.9699751
000090 5c 18 98 3f 9a ac 72 40 60 0e 86 3f 24 35 db 3d
       1.1882434 3.7917848 1.0473137 0.10703495
0000a0 e3 40 1b c0 2c 5a 87 3f 89 94 dc bf 6f 3d cf bf
       -2.4258354 1.0574393 -1.7232829 -1.6190623
0000b0 28 11 5c be 0a b7 60 40 37 d7 57 bf 8c 07 b0 be
       -0.2149092 3.5111718 -0.84312767 -0.34380758
0000c0 0e cf 38 c0 69 08 0f c0 84 da 53 40 6a d6 0b 3f
       -2.8876376 -2.2348883 3.3102121 0.54624045
0000d0 a7 83 f8 3e 30 17 22 3f 60 a8 ba bf 80 c6 70 bf
       0.48537943 0.6331663 -1.4582634 -0.94052887
0000e0 74 26 8c c0 9c b3 ee 3f d3 e9 a3 40 2a bb fa bf
       -4.379694 1.8648562 5.122293 -1.9588368
0000f0 a2 55 63 c0 aa 54 06 c0 0b 54 1b 40 80 01 cd c0
       -3.5521016 -2.0989175 2.4270046 -6.406433
000100 4c fd 7a bf b4 14 3b 40 29 9b a1 c0 9b dd fa c0
       -0.9804275 2.9231386 -5.0501904 -7.8395514
000110 8e 5d 57 c0 89 79 05 40 20 3e 08 c0 cd fb b4 3f
       -3.3650851 2.085543 -2.1287918 1.4139344
000120 cb 9b ea 3f d2 cc dd bf 64 b4 26 3f 79 4d 62 bf
       1.8328794 -1.7328131 0.65119004 -0.88399464
000130 12 0a 04 40 47 ce 58 bf bc 2f 00 3e f9 0c f5 bf
       2.0631146 -0.84689754 0.12518209 -1.9144584
000140 73 1a 7f 3f 79 56 a4 bf 66 78 5a bf 4f 95 00 c0
       0.99649733 -1.2838889 -0.85339963 -2.009113
000150 89 d8 b0 bf ef 3c 53 bf ec 15 b8 3f 52 3a a4 3f
       -1.3816081 -0.8251485 1.438169 1.2830298
000160 ca ca 1e bf 48 3f d8 3f 0d 90 17 c0 b9 c5 80 c0
       -0.6202818 1.6894312 -2.3681672 -4.024136
000170 68 bf af bf 8e 33 ab 3f f9 49 0c be 6d 33 75 bf
       -1.3730288 1.3375108 -0.13700093 -0.95781595
000180 7d f2 20 3f 89 e0 62 c0 e5 4b 4f 3f aa 1b 09 3f
       0.6287001 -3.5449545 0.8097518 0.53557837
000190 70 69 9c bf c9 97 69 3f 81 35 f8 3f 25 14 90 3e
       -1.2219677 0.9124723 1.9391328 0.2814037
0001a0 54 64 df 3e 32 e9 a7 3f 76 1c db be ce e3 45 3f
       0.43631232 1.311804 -0.4279515 0.7730073
0001b0 2d 24 67 bf bf ff 30 40 c6 a0 92 3e 56 17 d7 3c
       -0.90289575 2.7656095 0.28638285 0.026256245
0001c0 cb 7b 0f 40 4a 30 1b c0 2c 58 99 3f 93 4c c8 bf
       2.2419307 -2.4248223 1.1980033 -1.5648369
0001d0 85 b3 55 c0 37 2c 4c 3f 8b 61 14 40 54 f2 04 40
       -3.339082 0.79754966 2.3184536 2.0772905
0001e0 d2 be f1 be 4f 96 20 c0 5e 00 06 c0 0f 62 89 bf
       -0.47215897 -2.509174 -2.0937724 -1.073305
0001f0 15 a0 0e bd 84 ed 30 bf 37 92 36 bf cf af af 3f
       -0.034820635 -0.6911242 -0.71316856 1.3725528
000200 ad b3 99 bf cb 13 7f 3f 01 0c 8f 3f d8 d5 43 3f
       -1.2007958 0.99639577 1.1175538 0.76498175
000210 ef 07 92 bf a2 28 cb 3f 33 45 fd 3f 1b 3b d4 3f
       -1.1408671 1.5871775 1.9786743 1.6580538
000220 a8 fb 22 3f 29 95 06 3f 7a 27 18 3e 86 7b 2a 3f
       0.63665247 0.5257135 0.14858809 0.6659473
000230 08 d5 c3 3f 2f 12 d8 bf e5 e4 65 3f d5 93 56 c0
       1.5299387 -1.6880549 0.8980239 -3.352773
000240 47 b5 3a bf 36 b5 11 40 f9 1f b7 bf e5 9c 00 be
       -0.7293286 2.2766852 -1.4306632 -0.1255985
000250 03 5e 0f 40 a7 7c f0 bf ec 55 99 3f b3 4c 26 bf
       2.240113 -1.8788041 1.1979346 -0.64960784
000260 54 11 b3 3f 71 65 c6 3f 3c 2a ab be e9 57 b4 3f
       1.3989663 1.5499707 -0.3343066 1.4089328
000270 11 c1 de bf 5b f8 f3 be da 88 46 3d ce bb 34 3f
       -1.7402669 -0.47650418 0.048470356 0.7059907
000280 b0 08 bf be 41 58 08 c0 47 4b ed 3f 43 c1 c2 3f
       -0.37311316 -2.1303866 1.8538598 1.5215229
000290 1b 39 1e c0 a1 f5 70 3f 5c dc 78 bf 85 9e 19 40
       -2.4722354 0.941248 -0.9721124 2.4003003
0002a0 9f 2d 64 3e 52 8f fd be ca f7 b6 3f 60 6f e8 bf
       0.22283028 -0.49523407 1.4294369 -1.8158989
0002b0 9c 80 9d 3f 2c 48 4b 3f 09 cb ff be cc f0 c3 bf
       1.2304873 0.79407 -0.4995959 -1.530786
0002c0 da 16 89 3e e8 ea 9d bf 37 8f 03 c0 8e 43 b9 bd
       0.26775247 -1.2337313 -2.0556161 -0.09046088
0002d0 f8 fd d6 bf 0f cb 90 bf 2b 89 04 40 f6 89 5c bf
       -1.6796255 -1.1311969 2.070872 -0.8614801
0002e0 70 d0 c3 3f fe c8 45 3f 42 94 05 40 6f 0f 6a 3e
       1.5297985 0.77259815 2.087174 0.2285745
0002f0 03 03 82 3f f3 e5 85 40 99 b8 8c 3e 2c bb 1f 40
       1.0157169 4.18432 0.27484587 2.495799
000300 97 3f 74 be d1 f0 2f 40 2a e7 81 3f b7 2d 9b bf
       -0.23852383 2.7490733 1.0148671 -1.2123326
000310 b8 c0 ad 3e 9a 1c b1 3f c2 26 25 bf e6 24 f5 3e
       0.33936095 1.3836854 -0.64512265 0.47879714
000320 db 02 a5 bd 8f c8 8e 3f e9 73 c2 3d 21 3d 7d 3f
       -0.08057185 1.1154956 0.09494764 0.989214
000330 05 e8 89 bd 9d 44 64 be d3 9c b1 3e d6 40 c7 3f
       -0.06733707 -0.22291799 0.3468996 1.5566661
000340 d6 51 e4 3d 69 53 01 3f 5c 39 9c 3f cb 48 94 3d
       0.111484215 0.505179 1.2205005 0.07240447
000350 bc b7 53 be ea 4f 01 c0 4a 73 da bf ed 0d eb bf
       -0.20675558 -2.0205026 -1.7066433 -1.8363625
000360 a5 2d 0b 40 24 14 59 bf 50 91 c5 bf a7 fe da bf
       2.174661 -0.8479636 -1.5434971 -1.7108964
000370 80 d5 0c bf 84 c6 84 3e 0e c9 34 c0 e2 82 1b 3f
       -0.55013275 0.25932705 -2.8247714 0.60746586
000380 bd 64 c1 bf 90 17 82 be d5 be 87 3f 8b ef e0 bf
       -1.5108868 -0.25408602 1.0605112 -1.7573103
000390 37 e4 94 be 74 89 5c 3e cb a4 c2 be 54 45 28 3f
       -0.29080364 0.21536809 -0.38016352 0.65730786
0003a0 f2 f9 89 bf 47 58 27 3f 1d 24 e0 bf cb 40 46 3f
       -1.0779402 0.65369076 -1.7511021 0.77442616
0003b0 28 94 5f 3f 82 68 75 be 88 36 93 bf bd 06 93 3f
       0.87335443 -0.23965648 -1.1501017 1.1486431
0003c0 4a 19 5d 3f ba 00 df 3f 81 4c 01 40 9c fb 8c be
       0.86366713 1.7422097 2.0202944 -0.27535713
0003d0 59 7c 9d 3d 12 05 d2 be ee 59 eb be c4 95 68 3e
       0.07689733 -0.41019493 -0.45967048 0.22713381
0003e0 3f a6 0b c0 b0 82 c2 3f b8 d5 89 3e 02 dd 07 c0
       -2.1820219 1.5196133 0.26920867 -2.1228642
0003f0 92 cc bc 3f 11 cd 94 3e 89 f9 38 3e 19 e9 d2 3e
       1.474993 0.29062703 0.1806394 0.41193464

lin2.bias f4 [41]
000000 f3 fd 8c bf 89 3c 94 3f e1 c7 c4 bf d8 c3 a8 bf
       -1.1014999 1.1580974 -1.5373498 -1.3184767
000010 ad bc 59 c0 27 82 58 c0 ea 25 0e c0 73 cd 7d c0
       -3.4021409 -3.3829439 -2.221064 -3.9656646
000020 f9 0d c4 c0 50 54 83 c0 ac d7 3d c0 4d 39 6a c0
       -6.1267056 -4.104042 -2.9662886 -3.6597474
000030 83 16 95 c0 c9 7a 05 c0 ec b7 3a 3e 8c 4a b1 bf
       -4.658998 -2.0856192 0.18234223 -1.3850875
000040 72 3b a9 3e 88 f5 9b bf a4 89 96 3f 0e a2 b3 be
       0.33053166 -1.2184305 1.1760755 -0.35084575
000050 9f 39 cd bf b8 0e 80 bf b0 28 7c 3f 6e 3b 3f c0
       -1.603321 -1.0004492 0.98499584 -2.9880023
000060 86 e8 a3 bf bb 55 90 3f 60 ce d2 be c2 4e d3 bf
       -1.2805336 1.1276163 -0.41173077 -1.650841
000070 56 58 9f 3f 73 ed fe be d5 21 3f c0 13 f0 50 3f
       1.2448833 -0.49790534 -2.98644 0.81616324
000080 1c ef 41 40 f5 23 a0 3f 81 56 69 3f 77 2d 65 bf
       3.030219 1.2510973 0.9114762 -0.895225
000090 64 af 72 3c 04 a6 2f bf a8 fa 93 3d d6 13 00 c0
       0.014812324 -0.68612695 0.07225543 -2.0012107
0000a0 91 1d 91 c0
       -4.534859
