Models_Q1/Model-b1-e7-h7.pth (torch, 5067 bytes, 5 tensors)

emb.weight f4 [41, 7]
00000000: f33a 96bf 2bba 10bf 62a6 89bd 3f5d ae3f
00000010: 0a8d 00c0 cf6d 07bf 5979 0540 59f1 e1be
00000020: c7fc c83f af62 e7bd 4f8d aabe 53fa b53f
00000030: 0039 d23c 24c5 623f ff36 40be b6cf 6bbf
00000040: c023 663f 7a1f 71bf 6fcd 803f 783f 2640
00000050: f29a 48bf 97e0 e13f 9997 173f 2ca7 7ebf
00000060: 2370 ca3f d88d 5c3f ada8 c6bf 503e 8fbf
00000070: 62d3 933f d536 e3bf bce8 03c0 50bb 95bf
00000080: 3f7a 3340 f2ec 9fbf a2e7 263f f268 b4bf
00000090: b01a 92bf 533e 1540 a53e 0940 b1b5 c9bf
000000a0: a440 153e 1358 1c40 61d2 53c0 93ea 96be
000000b0: 189a 90be 4f9c 913f 27be c9bf 36dd 01c0
000000c0: 293a be3f 0fe5 2c3f 8d14 5040 b204 b63e
000000d0: e86c ee3f 8b4e ad3f 1afc ae3f b15f 34bf
000000e0: 0007 453e a287 103e d65f c2be a1a7 83bf
000000f0: 7a9e 863f 45af bf3e a2da 933e 8b45 0e3f
00000100: fd55 1740 dea6 4340 5926 9340 3c5b 09c0
00000110: be1f 8540 b582 2ac0 2bab 3a40 ed4c c83f
00000120: 2c7d 5abe 6e1a 71bf d3e0 84bf 6cd9 933f
00000130: 2968 ecbf 2531 1bbf cfa0 2440 8bc0 3f40
00000140: 8515 3f40 0163 3ac0 3032 8140 32af ef3e
00000150: b3b3 19bf 005b 2440 f772 3f40 06bb 3e40
00000160: 5d05 3ac0 f302 8140 e1f0 ee3e d820 cebf
00000170: 29a4 ecbf ba79 86bf 13d5 4cbf cbba 183f
00000180: ed00 87c0 71cf ecbd 6000 34be 87ca 96bf
00000190: ad45 cbbd ca89 0d40 5252 513e b00d 13bf
000001a0: 29c1 03be 6361 4bbf e527 e7bf 2a92 f6be
000001b0: 0660 02c0 c0fe d13d e363 71bf 525e 0bbf
000001c0: ad65 b2bf 532a 0dbf eca6 be3d d7c1 99be
000001d0: 4b20 8f3f 07f5 61bf 4ec7 4cbe 9816 253f
000001e0: febc b73e 9e8d c63e 1df1 fbbe 9711 c03e
000001f0: e661 213f d9be da3f fc8e b93f f7f5 30be
00000200: 8c14 47bf 253b f9be ee75 3c3f 1e7f 42bf
00000210: 9549 27be a993 ee3e 8df1 f23b 52f5 75bd
00000220: db8b 83bf f92e 0bbd fe3f 803b 2f94 54bf
00000230: 1537 1e3f 7d88 38bf 288a 233d 0736 64bf
00000240: 66e1 93bd 8381 1e3f 50d7 8a3e 2364 05c0
00000250: d33f 0fbf add9 e8bf 41e2 e9be c75f 8a3f
00000260: d4fd 1e3f 6e70 fabe e3b2 ac3f a053 6fbf
00000270: 5438 863e e1a5 ff3f f707 5d3e 0ea8 5bbf
00000280: feea d33e 0655 b03e 5d9c b53f f47e f83e
00000290: a916 8dbf cce8 7040 ad93 6c3f 9f8a 32c0
000002a0: 67e4 debf 683d 85bf 552b a03f 5463 f93e
000002b0: f80f b0bf 7a7f 2fbe 34b4 323e 2a49 2abe
000002c0: 7392 e4bf a21c ab3e c423 d7bf f4a8 dfbe
000002d0: 3e13 7bbf d697 fc3e 1873 b8bf dc9a 4abf
000002e0: f416 77bf 1ce1 913e 5547 e33e f00f b5bf
000002f0: 3a42 623f fcda af3e 9bb3 5c3f d0eb edbf
00000300: 6560 9b3d e35d aabe f96e 8ebf 3a63 703f
00000310: d013 1e3f 26f9 823f c2db 5f3f c3a9 2ebf
00000320: c417 f5bd fa12 37bf 1f69 bdbf 08d2 adbe
00000330: 17e2 c6bf 2bc4 08c0 6092 6bbf 0f7e cabe
00000340: 8ae2 8b3f 2030 29bf 7c5d b03e bc99 b53f
00000350: 5265 f83e 6920 8dbf 37ee 7040 5280 6c3f
00000360: 668c 32c0 635d 56bf fc13 883f 136e 5bbf
00000370: 92d8 913e 9bb2 b3bf e9d0 903e 3a7c af3f
00000380: 6ed3 353e 749f fe3d 0ce0 0c3f 7aad b6bf
00000390: 3cae 493f 09fc a7bf 0344 a93e 3073 373f
000003a0: 0ec3 96be cb64 b83d 46da 54bf 0b14 a13f
000003b0: 48a6 d53f 4d51 923f 3509 25bd 3677 07bf
000003c0: 04c3 a0bf c362 0e3e c288 9f3f 3358 81bf
000003d0: 9ee8 f8be 47e6 6abf 9bd3 1fbf 8198 8abf
000003e0: c586 15c0 a189 713c 25cb 64bf 87f9 923e
000003f0: 8916 1dbf 3c32 b9bf ebe5 9f3f f1bb 76bf
-1.173674 -0.5653407 -0.06721188 1.3622206 -2.0086083 -0.5290193 2.0855315 -0.44129446
1.5702142 -0.11298119 -0.33310935 1.4217018 0.025661945 0.8858206 -0.1877098 -0.92113817
0.898983 -0.94188654 1.0062693 2.5976238 -0.7836143 1.7646664 0.59215695 -0.99473834
1.5815471 0.86153936 -1.5520226 -1.1190891 1.1548884 -1.7751108 -2.06108 -1.1697788
2.8043363 -1.2494185 0.65197194 -1.4094527 -1.1414394 2.331929 2.1444485 -1.5758573
0.1457544 2.4428756 -3.3097155 -0.2947584 -0.28242564 1.1375827 -1.5761155 -2.0291266
1.4861499 0.67537016 3.2512543 0.35550457 1.8626986 1.3539594 1.3670685 -0.70458513
0.19240952 0.1411424 -0.37963742 -1.0285531 1.0517113 0.37438408 0.2887774 0.55574864
2.3646233 3.0570598 4.598431 -2.1461935 4.160125 -2.6642277 2.9166973 1.5648476
-0.21336812 -0.94180954 -1.0381111 1.1550727 -1.8469287 -0.60621864 2.572315 2.996127
2.9856884 -2.9122927 4.0373764 0.4681335 -0.60039824 2.5680542 2.991392 2.980165
-2.9065773 4.03161 0.4666815 -1.6103773 -1.8487598 -1.0505898 -0.80012625 0.59660023
-4.218863 -0.11563004 -0.17578268 -1.1780556 -0.09925399 2.211535 0.20441559 -0.5744276
-0.12866654 -0.79445475 -1.805905 -0.4815839 -2.0371108 0.10253668 -0.9429304 -0.54440796
-1.3937279 -0.55142707 0.093091816 -0.300307 1.118173 -0.8826451 -0.19997904 0.644876
0.35886377 0.3877992 -0.49207392 0.3751342 0.63040006 1.7089492 1.449676 -0.17281328
-0.7776573 -0.48677936 0.73617446 -0.75975215 -0.16336663 0.4659703 0.007414049 -0.06004841
-1.0277056 -0.033980343 0.0039138785 -0.8303861 0.618028 -0.72083265 0.039926678 -0.8914494
-0.07220726 0.6191637 0.27117395 -2.0842369 -0.55956763 -1.8191429 -0.4568043 1.0810479
0.6210606 -0.48913902 1.3492092 -0.93486977 0.2621485 1.9972497 0.2158507 -0.85803306
0.41390222 0.34439868 1.4188343 0.48534358 -1.102254 3.7642088 0.92412835 -2.7897108
-1.7413453 -1.0409365 1.2513224 0.48708594 -1.3754873 -0.17138472 0.17451555 -0.16629472
-1.7857193 0.33420283 -1.680779 -0.43683589 -0.98076236 0.49334592 -1.4410124 -0.79142547
-0.965194 0.28492057 0.4439036 -1.4145489 0.88382304 0.3434676 0.86211556 -1.8587589
0.07586745 -0.33274755 -1.1127616 0.9390141 0.6174898 1.0232284 0.874447 -0.68227786
-0.119674236 -0.7151333 -1.4797705 -0.33949304 -1.5537747 -2.1369731 -0.92020226 -0.395493
1.0928509 -0.6608906 0.34446323 1.4187541 0.485148 -1.1025516 3.7645395 0.923833
-2.7898192 -0.83736247 1.0631099 -0.85714835 0.28485543 -1.4038881 0.28284386 1.3709786
0.17756435 0.12432757 0.5502937 -1.4271691 0.78781486 -1.312379 0.330597 0.7166014
-0.2944569 0.090036 -0.8314556 1.2584242 1.669137 1.1431061 -0.040291984 -0.52916276
-1.2559514 0.13904862 1.246361 -1.0105041 -0.48614973 -0.91757625 -0.6243226 -1.082779
-2.3363507 0.014742286 -0.89372474 0.28706 -0.6136251 -1.4468455 1.249204 -0.96380526

lin1.weight f4 [7, 7]
00000000: cf3b 903e 5f4c c33e eab0 51bf 0f79 363f
00000010: 04bf ca3e e615 07bd aff0 063f 753f 08bf
00000020: c260 eabe 6420 d1be a862 17bf 407e ef3e
00000030: 2894 783f 6872 053e 95fd e33e 0527 273d
00000040: cd0c d4bd db33 38bf e434 6cbf c4b7 c5be
00000050: 59db 813e 7198 8f3f 7173 92bf 256e b93e
00000060: d00b 4c3f d3c6 2a3e faf5 1cbe 1a7b 6fbd
00000070: 1593 fcbe 1301 47be 55af 1abf 1942 e93e
00000080: 1723 49be a485 17bf 4846 93bc 7165 5dbe
00000090: 4381 033f 430f 97be 2b0d b7be 36e4 6d3e
000000a0: 9751 043e 0c47 ae3f 4ede 83be b834 f83e
000000b0: ef21 f63e 64e8 aa3e ebf3 933f a9a2 a1be
000000c0: f26c 96be
0.2817063 0.38144204 -0.81910574 0.7127847 0.39598858 -0.03297987 0.52711004 -0.5322183
-0.45776945 -0.40845025 -0.5913491 0.4677601 0.9710107 0.13031924 0.44529405 0.040808696
-0.10354004 -0.71954125 -0.92268205 -0.38616765 0.2536266 1.1218396 -1.144148 0.36216846
0.79705524 0.16677408 -0.15328208 -0.05846701 -0.49330965 -0.19434004 -0.60423785 0.4555824
-0.19642292 -0.59188294 -0.017977849 -0.21620728 0.5136911 -0.2950383 -0.35752234 0.23231587
0.12921749 1.3615432 -0.25755543 0.4847772 0.48072764 0.33380425 1.1558813 -0.31569412
-0.29379994

lin1.bias f4 [7]
00000000: dafe 81bf 1fd8 b0be b18c 90bf c149 8fbe
00000010: 7003 683f 7817 a83e 18cd 21bf
-1.01559 -0.34539887 -1.1292936 -0.27985957 0.90630245 0.32830405 -0.63203573

lin2.weight f4 [41, 7]
00000000: a621 0ac0 7f4d c9bf ace5 4b3f abff 0d3f
00000010: 7cdb 3cbf d563 243f 83ff b7bf 423e eebf
00000020: 79fa febf c490 953e 5e20 a5bc c61d 6cbf
00000030: f65f 223f 8a37 0fc0 7514 2440 8be3 59c0
00000040: 0f33 fdbf b3ef 6340 dc8a 77c0 45fd 7d40
00000050: e2ca 4e40 6bbe 5540 338b 4dbf 3247 19bf
00000060: 7a61 de3f bdf8 2cc0 d1ab 703f 8146 fabf
00000070: 6b8e 0740 60d2 f83f 1c48 0c40 f3fa c23d
00000080: 19d0 b5bf 9918 37bf 849d 1340 ed6b 8ebe
00000090: 7ad1 58be 17b6 4d40 48ec 31be f533 f3bf
000000a0: 6a58 13c0 e451 ff3f 80f0 fbbf 0e86 88bf
000000b0: e1a2 4abf 0fef ce3e beb8 4b3f 1c94 2d40
000000c0: 1636 24c0 1f3e acbf 9dbc f23f c427 683f
000000d0: a1b0 1fbf f0a0 633f c51e 2ec0 6c34 f1bf
000000e0: dab9 1240 1d7c cc3f fa1f 8c40 e5a0 f93f
000000f0: 14e6 38c0 51c4 82bf 8d3b f63f 8714 8e3e
00000100: c016 d7bf 3ef5 e240 af68 9f40 6cc0 a8c0
00000110: 20ff c5bf f86b cebe 4f3a f93f f8c6 f43f
00000120: 534a e43f 156a 02bc 88dd 8bbf fab1 28bf
00000130: f9ea 0840 b104 f2be a97b 1cbf c1ac f13f
00000140: 136e e93f 120c c5bf 9b84 163f bc2e acc0
00000150: a58f 9fbf 4cd1 c1be 7548 8f40 b15a 65bf
00000160: c40a 86bf c7ac c03f 7236 1440 e883 5bbf
00000170: b9dc c4be 8d47 3440 88ca e93f bffe f1bf
00000180: 26af f63f 6670 b73f c3d5 0e3f e349 d73f
00000190: cc3f d5bf 8f8a 2b3f 91fc 6240 68bd 7440
000001a0: 4af7 a0bd fef3 3240 e482 3bc0 1f5b ebbf
000001b0: aa02 b4be f3bf 15c0 be2d fc3d e92e d53f
000001c0: 1010 fa3f 675e 04c0 3925 b2bf fe3a bb3d
000001d0: 53b7 c33e 90fe 773f 463e 183f 9b3f 793f
000001e0: 8b34 6cbf 338a d13f 8c97 e43d 629d 813f
000001f0: 8e8c 563f 96f5 803f 36c7 a5bf dabe c83f
00000200: 468d 3fbf 51f6 76bf 8c80 1d40 0da0 c83f
00000210: 5646 f6bf 3acd f23e 215f c03e 203f 6c3f
00000220: 0b08 03c0 efb0 493e 84f1 e0bf 1f8a 1e3c
00000230: ff7f 4540 e9e0 a8be 6e74 0abf 4cd7 94be
00000240: 8d68 02be a227 9cbf f235 94bf 0862 1ac0
00000250: ac8f 3a40 b1e4 963e 7418 6d3f c60b 61bf
00000260: 0837 9b3f cdd7 fe3f c1bd 47be 6b45 bd3f
00000270: 63c0 e53f 4115 1cbf 7b0a 07be 6045 953e
00000280: 608a ac3e dc1b 1940 7e9f 0940 e895 da3f
00000290: 93dc e8be a71b 97bf e1f0 39be 1dc8 3a40
000002a0: bdff c33f e9a3 5abf c3ee 733f e719 25bf
000002b0: 8eed d43f 666a 8abf 1d41 a53f 561e 8abf
000002c0: 544a 993f 180c 9e3f fa11 873f c1a2 1040
000002d0: 26d0 f2bf 2de5 a83d 87a6 b6be 633e f1bf
000002e0: 2402 91bf 4aa2 1bbe 6fc7 3a3f 2f2c 88be
000002f0: 1117 ad3f cc6d 6dbe 5378 09c0 e776 d9bf
00000300: b47c 16be 9d99 b83f e196 97bf e614 b6be
00000310: 96b7 21bf 2b0d 943f 2dcb e4be 4aee ccbf
00000320: 9049 403f c043 653e 5d49 32bf 368b 21be
00000330: a3d5 07c0 394f 1cc0 c63f fabe 6b2f fcbe
00000340: 7d2d 5f3f 7abf 943f 16d1 0640 e2da 57bf
00000350: 02ce 803d aea1 3040 ddca 0ebe f8b9 2e40
00000360: b354 2740 4cc2 1fc0 7608 443f 266b 86bf
00000370: 31f7 2a40 661e 313f a637 0ac0 0323 a63f
00000380: 13f3 d03f 41c1 1b3f 4839 32bf 7fa4 a13e
00000390: a1aa 773c b8a6 aabf 2079 32bf 1481 a63f
000003a0: 1736 18c0 0cd7 e03f a50e 06bf 003c 8c40
000003b0: e32d da3c b9e9 4640 6719 80bf 09dc 9b3f
000003c0: 1bff 0040 6cac 1fc0 2250 2abe 48e8 13bf
000003d0: e959 90be 496f dc3f cb88 4fbe 1a0e cd3f
000003e0: e1c3 833e af03 dc3f 6feb d9bf c438 463d
000003f0: 3ece ed3e 3a99 4fbf 9545 09bf 0833 773f
-2.1583037 -1.5726775 0.79647326 0.55468243 -0.73772407 0.6421483 -1.4374851 -1.861275
-1.9920188 0.2921201 -0.020157035 -0.9223293 0.63427675 -2.2377648 2.5637486 -3.4045131
-1.9781207 3.561505 -3.8678503 3.9685833 3.231133 3.3397472 -0.80290526 -0.5987426
1.7373497 -2.7026818 0.9401217 -1.9552766 2.1180675 1.9439201 2.1919012 0.09520521
-1.4204131 -0.7152191 2.306489 -0.27816716 -0.21173659 3.214239 -0.1737529 -1.9000231
-2.3022714 1.9946866 -1.968277 -1.066591 -0.79154783 0.40416762 0.7957877 2.7121649
-2.5658011 -1.3456458 1.896381 0.9068568 -0.6237889 0.88917446 -2.720628 -1.8844123
2.2925935 1.5975376 4.3789034 1.9502226 -2.8890429 -1.0216161 1.9236923 0.27750036
-1.6803818 7.092437 4.9815288 -5.273489 -1.5468483 -0.4031675 1.9470919 1.912322
1.7835182 -0.007959862 -1.0926981 -0.6589657 2.1393416 -0.47269204 -0.6112619 1.8880845
1.8236717 -1.5394309 0.5879609 -5.380705 -1.2465712 -0.37854993 4.477595 -0.8959151
-1.0472035 1.5052727 2.315823 -0.8574815 -0.38449648 2.816867 1.8264933 -1.8905867
1.9272201 1.4331176 0.55794924 1.6819423 -1.6660094 0.670083 3.5466654 3.8240604
-0.07859667 2.796142 -2.929864 -1.8387183 -0.35158283 -2.3398407 0.12313412 1.6654941
1.9536152 -2.0682619 -1.391761 0.09142111 0.38225803 0.96872807 0.5947002 0.9736268
-0.92267674 1.63703 0.11161718 1.0126154 0.8380822 1.0074947 -1.2951419 1.5683243
-0.7482494 -0.964696 2.4609709 1.5673844 -1.9240215 0.474222 0.37572578 0.9228382
-2.047366 0.19696401 -1.7573705 0.009676485 3.0859373 -0.32984093 -0.5408391 -0.29070508
-0.12735195 -1.2199595 -1.1578963 -2.4122334 2.915019 0.29471353 0.9261544 -0.8790859
1.2126169 1.9909607 -0.19505979 1.478681 1.7949337 -0.6096993 -0.13187592 0.2915449
0.33699322 2.3923254 2.1503596 1.7076998 -0.45480785 -1.1805314 -0.18158294 2.918464
1.531242 -0.8540636 0.95286196 -0.6449265 1.6634996 -1.081372 1.2910496 -1.0790508
1.1975808 1.2347441 1.0552361 2.2599337 -1.8969772 0.08246837 -0.35673925 -1.8847164
-1.1328778 -0.15198627 0.7296056 -0.2659621 1.3522664 -0.23186415 -2.147969 -1.6989411
-0.14696008 1.4421879 -1.184292 -0.3556282 -0.63170755 1.1566519 -0.4468626 -1.601022
0.7511225 0.22389126 -0.69643193 -0.15775761 -2.1224144 -2.4423354 -0.4887678 -0.49254927
0.87178785 1.1620934 2.1065116 -0.84318364 0.06289293 2.7598681 -0.13944574 2.7301006
2.6145446 -2.496234 0.7657541 -1.0501449 2.6713374 0.6918701 -2.1596465 1.2979435
1.632418 0.6084176 -0.69618654 0.31570813 0.015116365 -1.3332129 -0.6971607 1.3008142
-2.3783014 1.7565627 -0.52366096 4.382324 0.026633209 3.1080153 -1.0007752 1.2176524
2.0155704 -2.4948988 -0.1663213 -0.5777631 -0.28193596 1.7221462 -0.20267026 1.6019928
0.2573538 1.7188624 -1.7024974 0.04839398 0.46446413 -0.8109318 -0.536218 0.9656224

lin2.bias f4 [41]
00000000: d126 e8be 95e6 f53f c279 12c0 3ab6 aabf
00000010: 33ad 4fc0 40d2 63c0 fa27 3fc0 6f0c 82c0
00000020: 2440 bec0 67d6 d7c0 5ba3 37c0 8f33 7fc0
00000030: e539 7ec0 126b a8bf 1a64 9bbf 993f 88bf
00000040: a9a2 1ebf 0048 983f 278c a53e d993 a83d
00000050: 7e16 52be 3d55 213d dc52 4540 b663 35c0
00000060: 6e79 c8bf 3890 8e3f ff8f febe 65bc 0fbf
00000070: d02e a33f 746e b3bf 01d8 47c0 7533 353f
00000080: df7a 0240 c715 f9be 6949 933f ab37 4dbe
00000090: 92ac e73e 75bc f9bf a771 853f 3d1d 84c0
000000a0: 99c5 65c0
-0.45342115 1.9210993 -2.2886815 -1.3336861 -3.2449462 -3.5597076 -2.986815 -4.064018
-5.9453297 -6.744922 -2.8693454 -3.987522 -3.9722836 -1.3157675 -1.2139924 -1.0644408
-0.6196695 1.1896973 0.3233349 0.08231325 -0.20516393 0.03938793 3.0831823 -2.8342109
-1.5662057 1.1137762 -0.49719235 -0.5614684 1.2748661 -1.4018083 -3.1225588 0.7078164
2.0387495 -0.48649427 1.1506778 -0.20040767 0.45248848 -1.9510638 1.0425309 -4.128569
-3.5901854
