Models_Q1/Model-b2-e7-h4.pth (torch, 4555 bytes, 5 tensors)

emb.weight f4 [41, 7]
1.297451 1.1113113 0.057958614 0.50667363 0.6356736 1.5789841 -1.806789 -2.2512083
0.33573416 -0.47993028 0.4207937 0.2502209 0.9528013 -1.4276124 0.11983655 0.013527912
-0.840086 -0.08855004 0.41860077 0.88730574 -1.642841 -1.191943 0.90443474 -1.6566774
0.22497469 -0.35601383 0.22657353 0.27095318 1.5544746 -2.000083 -0.5963093 0.322925
1.4557328 0.6657312 1.1682218 -0.5140836 2.4482644 -2.753217 0.87890434 1.543715
1.473441 -0.97968197 1.5394409 -0.9197798 -0.28279594 -0.5132173 0.122317806 0.10034441
-0.44348985 -1.0328041 -1.131671 2.3120587 -5.029675 1.1632202 0.652604 2.2829373
0.94393975 0.14374802 -0.70353246 -0.7181578 -0.05671273 -0.062915534 -0.87099206 -1.0101414
-1.7151678 0.64688563 0.9572511 -3.2062829 -3.4998012 -1.9384952 0.6003376 0.035433248
-1.7616721 1.833864 2.1074922 -2.7874117 -1.5142791 0.6369301 -0.12619004 -2.3339446
0.02947346 0.66897124 -0.24591057 -0.35171345 -1.3300631 -4.363231 -1.7343357 2.622552
2.5906005 -4.110619 -1.8889788 2.7455165 1.3942475 0.20205726 -1.7668686 1.5149074
1.2204899 -2.2435286 -1.0752888 -0.48521963 -1.9444312 -0.81004447 -1.0835739 -1.1619081
0.18688159 1.0258015 -1.2466028 0.16411048 2.426838 -0.29514718 -0.5130652 0.643487
-0.24815951 1.5876437 1.1517969 0.7154141 -0.53451693 1.4079243 -0.36034426 0.24067967
-0.63986105 -0.39979094 0.056712516 -0.53656137 0.70914626 0.42339543 0.6252034 -0.4155927
-0.6361142 -1.1410316 -0.8672593 1.2642932 -0.21945795 0.4077694 -0.019679163 0.01065556
0.5812643 0.49139628 0.27077278 -0.2648989 -0.06458908 -0.7108146 -0.50160384 0.117243215
0.022532517 0.76585555 0.4608224 -1.2016798 -0.4542493 0.43576038 0.456263 0.75228834
1.1697781 1.8193301 0.89881337 -1.1840494 0.4298189 -1.036761 -1.9133737 -0.4393174
-0.15458083 -1.5323902 -0.4575406 -0.7280333 3.7028983 0.22185 -1.0082611 0.89934456
1.3840655 -0.27808434 -0.8871177 -1.9503877 0.36927617 -0.9520207 0.0053439164 1.0088608
-0.825759 0.07974468 2.3286593 -0.28173074 -0.47968748 0.427086 0.2116553 -1.1589857
-0.21331804 -0.18976398 -0.2875662 0.873125 0.64010406 0.3793168 0.11840046 0.04556242
-0.6636696 0.039910633 0.056399517 1.5637685 0.4219338 -0.2120202 0.2371799 -0.41262564
-1.3520149 0.6362837 -0.064132474 0.9720271 -0.28913483 0.2492513 0.50697064 1.2428164
0.2619996 0.45272273 -1.7394131 -5.428842 0.38723156 0.6563233 1.6534859 1.0478042
-3.1969836 0.75347984 0.26777947 -0.9896369 -0.035455402 1.425699 0.19029136 1.4293245
0.2645932 -1.042313 -0.537756 -0.19248249 -0.29267925 0.58880925 0.37037858 -0.4505117
0.6186156 -1.2989563 1.0014666 -0.34940392 0.49700946 0.55210304 1.2925954 0.07908202
-3.5636294 0.7448622 1.233163 0.90228295 -0.20185497 -0.24691424 -2.6931581 -0.13740325
-0.46855125 0.5216589 0.6055286 2.0250542 0.017595055 -0.4476296 -0.4780741 0.2833184
00000000: e012 a63f 733f 8e3f 0366 6d3d 5db5 013f
00000010: 81bb 223f 271c ca3f dd44 e7bf cc13 10c0
00000020: 59e5 ab3e 6cb9 f5be 4672 d73e f41c 803e
00000030: c9ea 733f 01bc b6bf dd6c f53d 2da4 5d3c
00000040: e00f 57bf b959 b5bd d752 d63e 7826 633f
00000050: 9d48 d2bf 9791 98bf 0989 673f 010e d4bf
00000060: c45f 663e 7247 b6be e402 683e 60ba 8a3e
00000070: 06f9 c63f 5c01 00c0 baa7 18bf 6d56 a53e
00000080: 7455 ba3f 5c6d 2a3f 4b88 953f fc9a 03bf
00000090: 5db0 1c40 b534 30c0 e0ff 603f 7498 c53f
000000a0: b799 bc3f 70cc 7abf 660c c53f b076 6bbf
000000b0: a1ca 90be 3562 03bf c281 fa3d 5f81 cd3d
000000c0: 1a11 e3be ed32 84bf 98da 90bf c5f8 1340
000000d0: 19f3 a0c0 66e4 943f 0e11 273f a51b 1240
000000e0: 09a6 713f ae32 133e b41a 34bf 31d9 37bf
000000f0: 9c4b 68bd dcd9 80bd 56f9 5ebf 504c 81bf
00000100: 9e8a dbbf 4c9a 253f 680e 753f bd33 4dc0
00000110: befc 5fc0 9c20 f8bf baaf 193f 7422 113d
00000120: 797e e1bf 0ebc ea3f 27e1 0640 f464 32c0
00000130: e6d3 c1bf da0d 233f f637 01be 595f 15c0
00000140: 5372 f13c b341 2b3f fbcf 7bbe c913 b4be
00000150: 823f aabf 979f 8bc0 b6fe ddbf e4d7 2740
00000160: 66cc 2540 318a 83c0 0fca f1bf 8bb6 2f40
00000170: b476 b23f 19e8 4e3e c028 e2bf 7ce8 c13f
00000180: 0339 9c3f f995 0fc0 10a3 89bf b56e f8be
00000190: 1fe3 f8bf 135f 4fbf 8db2 8abf 68b9 94bf
000001a0: e35d 3f3e 774d 833f ae90 9fbf 940c 283e
000001b0: 5051 1b40 881d 97be 3e58 03bf 90bb 243f
000001c0: 871d 7ebe e937 cb3f 156e 933f 6125 373f
000001d0: 1ad6 08bf dd36 b43f 0b7f b8be bb74 763e
000001e0: efcd 23bf 66b1 ccbe 624b 683d 165c 09bf
000001f0: 9c8a 353f 49c7 d83e 540d 203f 91c8 d4be
00000200: 61d8 22bf 530d 92bf b504 5ebf 5cd4 a13f
00000210: 96b9 60be 27c7 d03e 3236 a1bc a894 2e3c
00000220: bdcd 143f 4b98 fb3e bba2 8a3e d4a0 87be
00000230: 4847 84bd f2f7 35bf 1c69 00bf 361d f03d
00000240: 1d96 b83c 1c0f 443f eaf0 eb3e a5d0 99bf
00000250: 5d93 e8be fc1b df3e 4e9b e93e f895 403f
00000260: 4abb 953f cfdf e83f a218 663f ee8e 97bf
00000270: 3911 dc3e 96b4 84bf 6ee9 f4bf 36ee e0be
00000280: 704a 1ebe 5d25 c4bf c342 eabe 6460 3abf
00000290: 49fc 6c40 a52c 633e b30e 81bf 723b 663f
000002a0: 0f29 b13f 1261 8ebe 251a 63bf 4ea6 f9bf
000002b0: c411 bd3e a1b7 73bf 051c af3b 5a22 813f
000002c0: f164 53bf 2e51 a33d c108 1540 033f 90be
000002d0: 9999 f5be 04ab da3e 2bbc 583e a559 94bf
000002e0: 0b70 5abe 7d51 42be e13b 93be 1f85 5f3f
000002f0: dcdd 233f d035 c23e f17b f23d a99f 3a3d
00000300: 40e6 29bf 5579 233d 2e03 673d 9129 c83f
00000310: b507 d83e d31b 59be 4adf 723e ab43 d3be
00000320: d30e adbf 7de3 223f e357 83bd c5d6 783f
00000330: 7b09 94be bc3b 7f3e d4c8 013f 9c14 9f3f
00000340: d024 863e 46cb e73e 17a5 debf 13b9 adc0
00000350: 3743 c63e ce04 283f 6da5 d33f 731e 863f
00000360: 619b 4cc0 0ee4 403f 641a 893e d858 7dbf
00000370: af39 11bd 4e7d b63f bddb 423e 1bf4 b63f
00000380: c378 873e 836a 85bf 61aa 09bf 211a 45be
00000390: 0eda 95be 34bc 163f 43a2 bd3e 78a9 e6be
000003a0: 985d 1e3f 3344 a6bf 0f30 803f 12e5 b2be
000003b0: 0678 fe3e a056 0d3f c473 a53f c1f5 a13d
000003c0: 8112 64c0 4aaf 3e3f 49d8 9d3f 04fc 663f
000003d0: 12b3 4ebe 16d7 7cbe b45c 2cc0 70b3 0cbe
000003e0: f3e5 efbe 708b 053f ec03 1b3f 7d9a 0140
000003f0: 8123 903c b52f e5be 21c6 f4be 1c0f 913e

lin1.weight f4 [4, 14]
-0.11634127 -0.0713256 0.24771029 -0.00636581 0.39797992 -0.18181837 -0.18466142 -0.43064094
-0.24707508 0.30071402 0.5545508 0.45457292 0.77313197 0.4407322 -0.53292465 0.14692648
-0.7148325 0.016511992 0.057566416 -0.20775008 -0.118493795 -0.093819454 0.33774385 -0.37777856
-0.82360935 -0.28888956 0.8258992 0.18977949 -0.08534881 0.5218329 0.5126711 -0.48525354
0.79347414 -0.3681701 0.3930221 -0.34512576 0.65509105 0.16762576 0.15731835 -0.04422093
-0.17126909 -0.9597192 0.047391154 0.20786242 -0.12376414 0.04975765 -0.21444546 0.006719657
0.41558817 0.96584046 -0.19426256 -0.08366909 0.6262459 0.7259257 0.36704826 0.22271022
00000000: 5544 eebd 2813 92bd c4a7 7d3e 4998 d0bb
00000010: 06c4 cb3e 982e 3abe e217 3dbe f87c dcbe
00000020: 4001 7dbe 30f7 993e 0bf7 0d3f c8bd e83e
00000030: faeb 453f a7a7 e13e c06d 08bf e573 163e
00000040: 43ff 36bf 2844 873c c3ca 6b3d 70bc 54be
00000050: e0ac f2bd 6a24 c0bd c3ec ac3e 316c c1be
00000060: 10d8 52bf 55e9 93be 216e 533f 8e55 423e
00000070: 5bcb aebd d796 053f 6a3e 033f 2773 f8be
00000080: 1f21 4b3f cb80 bcbe 313a c93e 53b4 b0be
00000090: 0cb4 273f 16a6 2b3e 1018 213e 0221 35bd
000000a0: 2a61 2fbe 28b0 75bf 3a1d 423d e3d9 543e
000000b0: 0e78 fdbd adce 4b3d 9797 5bbe 9230 dc3b
000000c0: f9c7 d43e 5241 773f c4ec 46be b35a abbd
000000d0: a751 203f 44d6 393f c0ed bb3e 260e 643e

lin1.bias f4 [4]
-0.17610143 0.43025246 -0.73074585 0.12587947
00000000: ef53 34be 0d4a dc3e 2912 3bbf 8ce6 003e

lin2.weight f4 [41, 4]
-1.1619515 2.1885765 -1.9641744 3.2976618 -1.9330919 0.997528 -1.66907 4.391053
0.6804404 3.095891 0.31077614 -0.1052722 -1.6294179 0.5398769 -1.5838956 3.5166762
0.0898816 -0.6130858 0.5063005 -2.6649704 -2.126084 -0.43456447 -1.3525498 -0.64269596
-0.8216608 2.9293578 -1.2387787 3.7862587 0.7959723 -3.406585 -1.0696733 0.77565926
-0.33928394 -3.3841515 0.94370824 -1.2721021 -4.2180777 -7.0368195 4.971048 0.7176434
0.49658152 -2.410966 1.2436409 -2.965726 0.057138007 0.15337569 -1.5712729 2.6337972
-1.6855804 1.0666366 1.1810315 1.6737571 0.5824918 0.40681082 -1.8877116 2.631886
1.7206947 1.4954028 0.07091656 0.1980028 -1.7337183 -1.2501318 2.8778481 -2.411844
-1.4847409 1.7297318 1.7752348 -0.9670226 -1.9653066 -2.9789467 2.0940037 -1.4269689
2.1297934 0.123711705 -0.12714286 1.9339358 -0.45235556 -3.5286021 -0.83922625 -3.0003536
-5.1429715 -2.3164082 5.3348746 -2.971341 3.925482 0.52722657 -3.6338394 -1.1248693
2.16128 0.20264576 -0.737578 0.19309664 2.2214072 -2.107531 0.5455014 -4.09743
-1.6313152 -1.4959408 1.4005312 -2.4894745 -1.055137 -3.7848783 -0.08452319 -1.4981693
0.1066608 3.0707278 -0.8122811 -1.1459543 -2.2984421 -1.4853708 -0.4468727 -1.9051389
2.7346053 1.6198479 -1.8667977 -0.07759732 0.18439047 0.68366224 0.86425877 -0.71533626
-0.5431126 -1.6869904 1.0050428 -2.5124617 0.62574106 2.566615 -2.3926067 -0.34148338
-0.44110408 -0.00023960973 -0.18378854 -0.9782718 -2.0514407 -0.2657266 2.6909413 -2.050499
1.2229103 -1.5747005 -1.4361169 -0.3682916 -2.4957876 -0.99354583 1.4897212 -1.6491395
1.122166 1.2527875 0.1588248 -1.2080419 -2.7694445 -7.0662055 -1.0514066 -5.1265264
0.5640837 -1.0815383 -1.0002618 0.05252761 -5.12993 -3.9473336 4.4739523 -4.0721498
0.9867107 0.8784554 -1.8077141 2.828222
00000000: d4ba 94bf a311 0c40 116a fbbf e40c 5340
00000010: 8e6f f7bf ff5d 7f3f 16a4 d5bf 8283 8c40
00000020: 5831 2e3f 1423 4640 0d1e 9f3e f498 d7bd
00000030: c490 d0bf 5f35 0a3f 17bd cabf 3911 6140
00000040: d813 b83d 31f3 1cbf e99c 013f e08e 2ac0
00000050: c311 08c0 3c7f debe 5a20 adbf b987 24bf
00000060: 5d58 52bf 997a 3b40 4d90 9ebf 1052 7240
00000070: d7c4 4b3f 7d05 5ac0 0eeb 88bf 9b91 463f
00000080: a0b6 adbe f095 58c0 dd96 713f 3ed4 a2bf
00000090: 7efa 86c0 a02d e1c0 d312 9f40 7ab7 373f
000000a0: ef3f fe3e 444d 1ac0 a02f 9f3f 74ce 3dc0
000000b0: 8b09 6a3d 840e 1d3e 781f c9bf 2290 2840
000000c0: 19c1 d7bf 8c87 883f 0a2c 973f ac3d d63f
000000d0: 2f1e 153f 8249 d03e 89a0 f1bf d270 2840
000000e0: b93f dc3f 5c69 bf3f b43c 913d 3fc1 4a3e
000000f0: 7bea ddbf 5204 a0bf aa2e 3840 a75b 1ac0
00000100: fd0b bebf da67 dd3f e53a e33f cb8e 77bf
00000110: 2b8f fbbf 10a7 3ec0 2804 0640 eba6 b6bf
00000120: 894e 0840 905c fd3d bd31 02be 358b f73f
00000130: 269b e7be 9ed4 61c0 88d7 56bf cb05 40c0
00000140: 3993 a4c0 0840 14c0 4bb7 aa40 732a 3ec0
00000150: 193b 7b40 52f8 063f d390 68c0 b8fb 8fbf
00000160: 6952 0a40 5f82 4f3e e9d1 3cbf 20bb 453e
00000170: 892b 0e40 cae1 06c0 fba5 0b3f 261e 83c0
00000180: f0ce d0bf fd7a bfbf 9b44 b33f 8d53 1fc0
00000190: bb0e 87bf 723b 72c0 7f1a adbd 03c4 bfbf
000001a0: fa70 da3d ce86 4440 a7f1 4fbf a1ae 92bf
000001b0: ad19 13c0 a120 bebf 80cc e4be 97db f3bf
000001c0: c603 2f40 2d57 cf3f 3af3 eebf 58eb 9ebd
000001d0: dbd0 3c3e 7d04 2f3f 1040 5d3f 4720 37bf
000001e0: 6d09 0bbf 4def d7bf 3ea5 803f 2ccc 20c0
000001f0: 9130 203f 6c43 2440 7820 19c0 e9d6 aebe
00000200: 65d8 e1be bf3f 7bb9 1033 3cbe 0570 7abf
00000210: ce4a 03c0 510d 88be 6238 2c40 603b 03c0
00000220: 5388 9c3f c98f c9bf aed2 b7bf b790 bcbe
00000230: fcba 1fc0 0559 7ebf 2faf be3f 0117 d3bf
00000240: 23a3 8f3f 575b a03f f8a2 223e 1ea1 9abf
00000250: 943e 31c0 5b1e e2c0 7e94 86bf 810c a4c0
00000260: ca67 103f d96f 8abf 9408 80bf 3127 573d
00000270: 6328 a4c0 1da1 7cc0 9e2a 8f40 0d4f 82c0
00000280: 1399 7c3f 74e2 603f 2d63 e7bf 9701 3540

lin2.bias f4 [41]
-2.5674675 0.24853724 -1.8593123 -2.396281 -4.413379 -5.019097 -3.1645849 -3.269961
-7.272573 -6.2514315 -3.4009361 -2.6725774 -5.1559234 -3.4656396 1.548216 0.5396756
0.103731126 2.271249 2.2146468 0.7621502 -0.26767373 -0.44219407 2.1417618 -3.943311
-0.39319345 2.3655195 -0.7984601 1.617858 0.958674 0.6885323 -1.6176614 -0.1910155
2.1782422 1.9869175 1.5611862 0.19490422 0.15715154 -3.2049267 1.14047 -4.148995
-4.6764164
00000000: 6351 24c0 8c80 7e3e f2fd edbf ab5c 19c0
00000010: 673a 8dc0 719c a0c0 8f88 4ac0 0b47 51c0
00000020: ebb8 e8c0 ba0b c8c0 f0a8 59c0 820b 2bc0
00000030: 53fd a4c0 0acd 5dc0 f12b c63f 2e28 0a3f
00000040: fc70 d43d 255c 1140 c6bc 0d40 471c 433f
00000050: 880c 89be 4367 e2be a012 0940 355f 7cc0
00000060: a750 c9be ac64 1740 e267 4cbf f915 cf3f
00000070: a96b 753f a743 303f 870f cfbf 9199 43be
00000080: 5268 0b40 5053 fe3f f3d4 c73f f994 473e
00000090: 55ec 203e 851d 4dc0 ecfa 913f 91c4 84c0
000000a0: 34a5 95c0
