Models_Q1/Model-b2-e7-h5.pth (torch, 4747 bytes, 5 tensors)

emb.weight f4 [41, 7]
00000000: 29ec 43be f4b7 e5bf a4e5 463f 6f15 c63c
00000010: 740b 3bbf f1c5 a5be d4d2 7cbe 9539 04c0
00000020: 36fd 583f 28f2 233f 03d1 a4bf 1197 89be
00000030: 8329 25c0 301d 9ebc 8102 d63d f285 e1bf
00000040: 8ec1 d03f 72df 4dbe 7c2d f2bf 83a9 573e
00000050: 2f23 9d3f 31da 92bf 44cb 1140 e34d 973e
00000060: 7485 8dbf 6ada b03f aea8 273f 5416 94bf
00000070: b430 8a3f 4d09 8fc0 8e90 c63f cab2 3e40
00000080: 1a77 53bf 1b57 b53e 9b64 3040 0524 9dbf
00000090: 9ebc f83e 82ee 5fbe c508 54c0 ed30 95bf
000000a0: 8cb2 5f3f 2fda 30c0 24dd 2fbf d438 7940
000000b0: bdb3 47c0 9544 06bf bccb 55bf 2425 ddbf
000000c0: a77f 0a3f be1d 09bf d975 0840 7be2 a53b
000000d0: f2a1 5bbf f2b7 373d 57be 71c0 0e03 6240
000000e0: 3726 3e3f 003f 263f 67aa 89bf 474c 263f
000000f0: b293 dc3e e1a9 e5bb 2515 563f 92d4 993d
00000100: 8306 0440 d17b 2ec0 8775 42c0 c895 d43e
00000110: f931 adbe f1a1 d2c0 5c5f b9be 5453 dcbf
00000120: 0010 1640 47f5 cebe 2813 27c0 7cf0 c13f
00000130: a34d 32c0 bf18 09bc 421f 9a3e d87b 1cbf
00000140: 6ad5 86be 731f 81bf 7c4c 8fbf 6690 a13f
00000150: 2c85 9f40 593b c940 eebd 53c0 4232 aebf
00000160: c31c 46c0 b923 d4c0 1af4 9c40 e80d 1ebf
00000170: 30d8 17c0 cb87 b03f e9a2 c0be 809f 47c0
00000180: 57d9 a2bf 8e18 a93f 4e2e 4cbf 5d99 4d3f
00000190: f3c4 8f3f 92b2 1d3d a8c0 7a3f b2f2 cd3d
000001a0: 6cc8 12be d793 ca3f c222 8c3f b8ba 15bf
000001b0: 2f43 39bf 5a5c 283d 8404 adbe 3e17 273f
000001c0: 4b4b 2ebc 1c4e 7a3c b1f9 c2bf 346a 9cbc
000001d0: 97f2 f6bf 95d6 b33f db40 67bf 75a2 b1bd
000001e0: 71dc 8f3f 90e2 9fbe 8647 87bf 07d8 5bbf
000001f0: 4fa5 873f 110c 8f3e ab6c efbf c163 28bf
00000200: 72b6 d03f a775 5d3e 0055 40bf 5b43 b33f
00000210: 7f75 91be 545b 513f d68f 91bf d899 0d3f
00000220: 0867 11bf e11e b4bf d6b4 89bf 338f acbe
00000230: e369 51bd d81f f23e 705a d3bc 5266 bcbf
00000240: 457d 99bf 9d19 843f d354 ae3d a98b 0b3f
00000250: 8f57 48bf cfad 0f39 3c5f ecbe 7db9 503e
00000260: e680 0e3f d1c1 a83f 7e83 76bd 3f55 6f3f
00000270: 6917 0c40 ac87 a4bf 6729 4dbf a450 353f
00000280: 809f a93e f754 833f 123a 0fbf e22f bdbf
00000290: 369f 973e 886d d13f a5aa 6abf 4cb0 8340
000002a0: 6f96 5bbf 56a0 94bf 82c8 ad3e ff11 6fbf
000002b0: 22f5 e7bc 7c14 fd3e a057 a93e d409 af3f
000002c0: 25e3 103f 0034 dd3e 98ca 0940 b657 88bf
000002d0: b7cd 4c3f a6b4 2940 166e 53be a5dd ca3d
000002e0: 4af3 b8be 38aa 3fbf 2821 7e3c 6b51 463f
000002f0: 206e 04be 0776 1dbe 928b 693f 6851 3abf
00000300: f32f cebe 232e ae3e b60d 693f db51 0e3e
00000310: 1237 99bf 8699 debf 479e 6b3f 3388 823f
00000320: 2f23 133f 667f 463f b3ab a3be 1704 8d3f
00000330: 17d2 083e cb18 a8be 5ca4 e8be a136 913e
00000340: 081a 2e3d 7333 143f f121 4d3f 6b28 2c40
00000350: 72d3 13c0 e6f9 03c0 9027 363f 9e4e 9f3e
00000360: 5d12 8740 8dbf 6ebe 927c 9bbf 3612 85bc
00000370: 23db 1f3f f138 5b3e 0a8e dd3e a826 723f
00000380: 3a22 eebe fb08 ab3e 55ec a9bc 2968 9fbf
00000390: 474f 52bf 1a87 423f 06d6 4d3f f1ed 3abf
000003a0: 16cc ba3e 1212 00bf 1c9d 11bf f5da 8ebf
000003b0: 3f25 4f3f 6d32 903f fe4d 88bf a126 403f
000003c0: 75ad cd3f 0c45 013e a1b9 473f 7551 153e
000003d0: 2b1e c6be f358 603f 48c8 1fbf ac1f 0fbf
000003e0: 3c05 e4be e0c6 3cbf af83 f53e eed6 483f
000003f0: 0513 e8be 47b4 563f d42c b4bf fa6a 52bf
-0.19133057 -1.7946763 0.77694154 0.024180142 -0.7306435 -0.3237758 -0.246898 -2.0660145
0.8476137 0.64041376 -1.2876285 -0.26873067 -2.5806587 -0.019301027 0.10449696 -1.7619002
1.6309068 -0.20104769 -1.8920131 0.21060757 1.2276362 -1.1472837 2.2780313 0.2955161
-1.1056352 1.3816655 0.6549176 -1.1569314 1.0796113 -4.4698853 1.5512865 2.9796624
-0.8260361 0.3541802 2.7561405 -1.2276617 0.48581403 -0.21868327 -3.3130352 -1.1655556
0.87381816 -2.7633169 -0.6869681 3.8940935 -3.1203454 -0.524484 -0.83514 -1.727696
0.5410103 -0.5356101 2.1321929 0.005062399 -0.85793984 0.04485316 -3.7772424 3.5314364
0.7427706 0.6493988 -1.0755128 0.6496014 0.43081433 -0.0070087765 0.83626014 0.07511248
2.0628974 -2.7263072 -3.0384233 0.41520524 -0.3382719 -6.582268 -0.36205566 -1.721293
2.3447266 -0.40421507 -2.6105442 1.5151515 -2.7859886 -0.008367716 0.30101973 -0.6112647
-0.26334697 -1.0087723 -1.1195216 1.2622192 4.9850063 6.2884946 -3.3084674 -1.3609087
-3.0955055 -6.6293607 4.9047976 -0.6173997 -2.37257 1.3791441 -0.3762429 -3.11911
-1.2722577 1.3210618 -0.79758155 0.8031214 1.1231979 0.038500376 0.9795022 0.10056056
-0.14334267 1.5826367 1.0948107 -0.58488035 -0.7236814 0.0411037 -0.33792508 0.6526984
-0.010638068 0.015277412 -1.523245 -0.01909361 -1.9292783 1.404986 -0.90333337 -0.08673564
1.1239148 -0.3122754 -1.0568702 -0.85876507 1.0597323 0.27938893 -1.8705038 -0.6577721
1.6305678 0.21626912 -0.751297 1.400493 -0.28409955 0.8177998 -1.137202 0.5531287
-0.5679784 -1.4071923 -1.0758312 -0.33703002 -0.051126372 0.4728992 -0.02579996 -1.4718726
-1.1991354 1.0320317 0.08512273 0.5450998 -0.78258604 0.00013702291 -0.46166408 0.20383258
0.55665433 1.3184148 -0.060183994 0.9348945 2.1889288 -1.2853904 -0.801413 0.7082617
0.331295 1.0260304 -0.55947983 -1.4780238 0.29613656 1.6361551 -0.9166663 4.1152706
-0.8577642 -1.1611431 0.33942038 -0.93386835 -0.02831513 0.4942969 0.33074665 1.3674874
0.56596595 0.43203735 2.1529903 -1.0651767 0.80001396 2.651651 -0.20647463 0.099055566
-0.36123115 -0.7486911 0.015510835 0.77467984 -0.12932634 -0.15377055 0.9122859 -0.72780466
-0.40270957 0.34019575 0.91036546 0.13898413 -1.1969931 -1.7390602 0.9203839 1.0197815
0.5747556 0.77538145 -0.31966934 1.1016873 0.13361393 -0.32831416 -0.45437896 0.2836199
0.042505294 0.57891005 0.80129915 2.689967 -2.3097806 -2.0621276 0.7115412 0.31114668
4.2209916 -0.23315258 -1.2147391 -0.016244035 0.6244375 0.2140844 0.4327243 0.94590235
-0.46510488 0.3340529 -0.020742575 -1.2453662 -0.8215222 0.759874 0.804047 -0.7301932
0.3648383 -0.50027573 -0.56880355 -1.116057 0.8091621 1.1265389 -1.0648801 0.75058943
1.606856 0.12623996 0.7801762 0.14581855 -0.3869489 0.87635726 -0.6241498 -0.559077
-0.44535244 -0.7374096 0.4795203 0.78452957 -0.4532701 0.8386883 -1.407618 -0.82194483

lin1.weight f4 [5, 14]
00000000: 3cb8 43bf f9b7 30be 6ec2 97be fc94 99be
00000010: 7904 8dbe 5ab0 b3be d46e 0b3f 760f 89bf
00000020: 5afe 09be d0b6 be3d d5c3 2d3d d812 a2bd
00000030: 11db a43e 7a21 81be 4ff1 3abe dc29 debe
00000040: 2b42 11bf 2ec4 7fbf f7f4 223e bbf0 b2bc
00000050: 95b2 07bf 6f6f 043f 3ee4 febe 7473 f63e
00000060: ffa2 46bf a88c 2bbe 1c58 3f3f 4520 bb3e
00000070: 038f f83d b9ab 203d 7ede 30bd 3f32 113c
00000080: c98c 1a3e da99 723d 1ecb d8bd 5277 d43e
00000090: a113 7bbe 82b9 a3bd 4b7d 093e 3bdb 843f
000000a0: ebbe 39bf 6bfd 10bf 486c 693e 66c2 72bd
000000b0: 3cf5 b23d 1c67 cabb bf23 8cbd a872 c7be
000000c0: 459f 35be 35c4 383f e78e 10bf 6963 75bf
000000d0: 70db ec3c 10f6 fcbd c3b7 353f 49f3 49bd
000000e0: 8efd 84bd 69a6 6a3d da01 bdbe 42b3 24bd
000000f0: 13fd 5c3e 8784 b83e 1028 743e 8529 393e
00000100: fcd9 a8be 34c6 4ebf 080e f33c 7afd 66bf
00000110: 1d5e 8e3e ab8a 12be
-0.76452994 -0.1725768 -0.29640526 -0.2999648 -0.27542475 -0.35095483 0.54465985 -1.0707843
-0.13475934 0.093122125 0.042423088 -0.079137504 0.32198384 -0.25220853 -0.18256114 -0.4339131
-0.5674159 -0.9990872 0.15913759 -0.021843305 -0.5300687 0.51732534 -0.4978351 0.4813496
-0.7759246 -0.16752875 0.7474382 0.36548057 0.12136652 0.039226267 -0.043180935 0.008862077
0.15092768 0.059228756 -0.105856165 0.41497284 -0.24519207 -0.07994367 0.13426702 1.0379404
-0.7255694 -0.56636685 0.22795212 -0.059267424 0.08738181 -0.0061768424 -0.068427555 -0.38954663
-0.17736538 0.7217439 -0.5646805 -0.9585481 0.02891323 -0.1235162 0.70983523 -0.04930428
-0.06493674 0.057287607 -0.36915475 -0.040210016 0.21580915 0.3603861 0.23843408 0.18082245
-0.3297881 -0.80771184 0.029669777 -0.90230525 0.27806178 -0.1431071

lin1.bias f4 [5]
00000000: 2850 1ebf 3995 373e cbe9 95be 741c a1be
00000010: 10c8 533e
-0.6184106 0.17928018 -0.29279932 -0.3146702 0.20681787

lin2.weight f4 [41, 5]
00000000: 374e 3b3e bba4 c4bf 106a 9bbf bb27 48c0
00000010: 6568 3340 225c 1ebf 793c ccbf 64eb 05c0
00000020: 8269 49c0 6e8e 2f40 5fc1 943f 2c0c 84bf
00000030: 26bd 8e3e 0182 b9bc d37d 9a3f 12a4 a2be
00000040: 906d 78c0 9cff d43e 2b87 49c0 2539 4940
00000050: c387 233f 901e 31bf 2224 2abf a3b9 d23d
00000060: 5b3d d8bf 6680 d63f db72 b6bf 942e 8440
00000070: 04e8 6bc0 1579 a4bf 43e6 6f3f 89df 61bf
00000080: 573b 0cc0 8ea3 c6bf 668d 4140 f0c6 4cc0
00000090: c1fb 84c0 52c2 2c40 23ae 31c0 3ecd 0f40
000000a0: 9838 0dc0 36b3 08c0 4755 8440 ece8 debf
000000b0: 6fe4 3dbd b95a c8c0 730c 01c1 6a3e 0441
000000c0: 7f6b 1abd 2e92 9040 b0a2 6cbf a714 adbf
000000d0: 8b1a a540 5d01 513f 5727 e1bf ecc4 0abf
000000e0: 0f1c c9bf b52f 88bf 6ddc 80bf f43f 5140
000000f0: d997 613e 7568 eb3d dac1 e93f 13f2 19c0
00000100: 53a9 cf3f 5dd8 96bc 3899 09c0 300c 0dc0
00000110: eb26 32be b5cc 5240 1012 ef3f e3f6 11be
00000120: 2b3a 29c0 c012 0240 6d44 d03f c2f0 b6bf
00000130: a1c2 bfbf 687a 7ebe 2e77 36bf 7b23 f3bf
00000140: 9cc8 e23e d848 a1bf ea8d 6cc0 dc50 9fbf
00000150: 3cda 8ebf 378a bcbf c9ef c6bf ccd3 4abf
00000160: b0be 82bf 073a e9be 65a2 83bd 4be2 0540
00000170: 181c 04c0 c1fc 1c40 52a9 663f d4ed 3cc0
00000180: 8639 40bf c042 83bf 1cf9 a3bf 593b 63c0
00000190: 85bf 33c0 daea 2ac0 981b 23c0 b4c2 12c0
000001a0: b4a8 39c0 5919 223f 863b 803f eb6c 7340
000001b0: 902f 6140 c282 df3f db7e ae3f 4632 3cbe
000001c0: 08f6 3dbf f134 2140 1f8b 1740 4b77 0cc0
000001d0: 7f6c 26c0 a60a 4c3f 9371 4b40 2533 88bf
000001e0: 1e8d 06c0 a373 05c0 ee7d 13bf 239d d0bf
000001f0: b3d2 2bc0 274e 47c0 0177 26bf cc1f 4540
00000200: dd4d c7bf 73b5 adbf 1300 1740 0770 533f
00000210: 1c0c 9e3f 0703 08bf 5ac5 bcbf 3605 0dbf
00000220: 6e04 f13d b774 11c0 e5a9 2fc0 b98c 5ec0
00000230: e6eb f13f 03f9 da3f 07a8 01bf 7dcf 1f40
00000240: afcb 523f b5e0 473e 76b5 e2bf 3aba 22be
00000250: 4379 84bf 4e60 163e 38ae 3fbf 2d47 8fbe
00000260: 1bfa cd3f 5a8f 04bd dfce b8bf e2e1 be3f
00000270: 166c 1240 2165 1b3f 3c45 f7bd e091 f6bf
00000280: 69e1 5bbe af33 e4bf 323a 5bbf b74e f1bf
00000290: 4af8 20bf febb b1bf f98e d7bf 82b6 ffbd
000002a0: b85d b3bf e096 d3bf f800 9bbe 19a1 1140
000002b0: 7d2e 1fbe 105e 9c3f d4bc 59bf 1027 0ac0
000002c0: 999b 85bf 09bd c7bd 4434 06c0 623b 16c0
000002d0: eb67 3a40 3fff 9abf 433f 9440 6d81 12be
000002e0: 52c7 e53e 3339 7dc0 24d8 c13d a36b ff3f
000002f0: 3f09 b2c0 782f 99c0 4624 c4be 084c 193f
00000300: 75a9 8b3e 38ee e53e cdfb 393e 3ecf 99c0
00000310: bb32 82c0 b762 0b3e 11df 6dc0 00c4 21c0
00000320: 21c4 5fbf 5b53 abbf 1176 cebf 71fa d2bf
00000330: 270c 4e40
0.18291555 -1.5362772 -1.2141743 -3.127425 2.8032467 -0.61859334 -1.5955955 -2.092492
-3.1470647 2.7430682 1.1621512 -1.0316215 0.27878684 -0.022644999 1.2069649 -0.317658
-3.8816872 0.41601264 -3.148875 3.1441128 0.6387903 -0.6918726 -0.66461384 0.10289314
-1.6893724 1.6757934 -1.4253801 4.130686 -3.686036 -1.2849451 0.93710726 -0.8823171
-2.1911218 -1.5518663 3.0242553 -3.1996422 -4.1557317 2.6993604 -2.7762535 2.246902
-2.2065792 -2.1359382 4.13541 -1.7414832 -0.04636043 -6.2610745 -8.065539 8.265238
-0.037700173 4.517844 -0.9243574 -1.3521928 5.15949 0.81642705 -1.759013 -0.5420673
-1.5711688 -1.0639559 -1.0067269 3.2695284 0.22030582 0.11494533 1.8262284 -2.4054
1.6223549 -0.018413717 -2.1499767 -2.2038689 -0.17397659 3.2937443 1.8677387 -0.14254336
-2.6441753 2.0323944 1.6270882 -1.4292223 -1.4981271 -0.24851382 -0.71275604 -1.8995203
0.44293678 -1.2600355 -3.6961617 -1.2446551 -1.116035 -1.472968 -1.5541927 -0.79229426
-1.0214443 -0.45552084 -0.06427459 2.0919368 -2.0642147 2.4529269 0.9010211 -2.9520159
-0.75087774 -1.0254745 -1.2810397 -3.5504973 -2.8085644 -2.6705842 -2.5485592 -2.2931337
-2.9009218 0.6331993 1.0018165 3.8035228 3.518528 1.7461779 1.3632463 -0.18378553
-0.7420354 2.5188563 2.3678663 -2.194781 -2.600372 0.7970375 3.178807 -1.0640608
-2.102363 -2.085183 -0.5761403 -1.6297954 -2.684735 -3.114145 -0.65025336 3.0800657
-1.5570637 -1.3570999 2.3593795 0.82592815 1.2347445 -0.5312962 -1.4747727 -0.55086076
0.11768423 -2.2727487 -2.7447445 -3.477339 1.8900115 1.7107242 -0.50647014 2.497039
0.82342046 0.19519313 -1.7711627 -0.15891352 -1.0349506 0.14685175 -0.7487521 -0.2798399
1.6091951 -0.032363273 -1.4438132 1.4912684 2.287847 0.60701185 -0.12073752 -1.9263268
-0.21472706 -1.7828273 -0.85635674 -1.8852147 -0.6287886 -1.3885496 -1.6840507 -0.124859825
-1.4012976 -1.6530418 -0.30274177 2.2754576 -0.15545078 1.2216206 -0.85053754 -2.1586342
-1.043811 -0.097528525 -2.09694 -2.3473744 2.9125926 -1.2109145 4.6327224 -0.14307185
0.44878632 -3.9566162 0.09465054 1.9954723 -5.5636287 -4.7870445 -0.38308924 0.5988164
0.27277723 0.4490831 0.1816246 -4.806548 -4.0686927 0.13611875 -3.71674 -2.527588
-0.87408644 -1.3384813 -1.6129781 -1.6482679 3.2194917

lin2.bias f4 [41]
00000000: 6ed7 aebf 743f b13f 490a 6bbe c5f8 21bf
00000010: f4f1 a2c0 6baf 9ec0 4e8c f0bf d05b 2ac0
00000020: 29b1 ddc0 838d d9c0 7f4a 75c0 2fa9 21c0
00000030: a6af 98c0 2e95 54c0 6375 053f 3dc4 2f3f
00000040: b330 65be c8b7 e33f ef6c 723f 86f3 b9be
00000050: 3d7a e9be cc4d 083f fc32 a03f bfb0 8cc0
00000060: 30d3 4bbf 6568 2540 d824 bbbd f400 563e
00000070: 330b 1a3f c7c0 8f3f 65f6 afbf 9389 893e
00000080: 48f1 0840 0056 3040 401a 843e 2dbc f43e
00000090: fe61 353d 1b55 8ac0 a13f 563f 6215 98c0
000000a0: 8d4a 92c0
-1.3659494 1.3847489 -0.22953142 -0.6327022 -5.0920353 -4.9589133 -1.8792818 -2.6618538
-6.927876 -6.7985244 -3.8326719 -2.5259511 -4.7714415 -3.3216052 0.5213224 0.6865881
-0.22381859 1.779046 0.9469747 -0.36318606 -0.45601073 0.5324371 1.2515559 -4.3965755
-0.7961912 2.5844967 -0.09137887 0.20898801 0.6017334 1.1230706 -1.3747069 0.26862773
2.1397266 2.755249 0.25801277 0.47799817 0.044282906 -4.322889 0.8369084 -4.75261
-4.5716004
