Models_Q1/Model-b1-e2-h5.pth (torch, 3659 bytes, 5 tensors)

emb.weight f4 [41, 2]
000000 e6 03 97 be 3c 25 80 3f aa 7e 6c 3f ce 4d b6 bf
       -0.29495162 1.0011363 0.92380774 -1.4242494
000010 c0 e6 79 bf 37 36 7e 3f 87 05 bf 3e 35 4e f0 3f
       -0.9761772 0.99301475 0.37308905 1.8773867
000020 46 53 ed bf 14 b9 0b 3f cc d7 80 bf 34 36 a1 be
       -1.8541038 0.5457928 -1.0065856 -0.31486666
000030 db 23 c7 be 00 b5 20 3f 35 c8 23 bf 12 fe c8 3f
       -0.38894543 0.62776184 -0.63977367 1.5702536
000040 30 f1 70 3f 01 70 d4 be e9 7e 44 c0 42 0f 34 3e
       0.9411802 -0.41491702 -3.070246 0.17583945
000050 4f 01 7b bf 4c e5 8f 3f 3c b5 ea be 25 ff 01 3f
       -0.9804887 1.1241851 -0.45841396 0.50779945
000060 79 b2 ea be b0 00 02 3f 46 f5 55 bf ca c4 70 3f
       -0.4583929 0.507823 -0.8357738 0.94050276
000070 6f 83 a2 3f a7 30 d0 3e 4a 29 04 c0 7b 9c 37 be
       1.269636 0.4066212 -2.06502 -0.17930786
000080 0b 78 40 bf de 62 ac bf 7e 34 3c 3e 28 24 8c be
       -0.7518317 -1.3467672 0.18379399 -0.27371335
000090 8a 00 43 3f 63 3d 77 3f df 68 2a 3e 99 e3 6a be
       0.761727 0.96578044 0.16641568 -0.22938384
0000a0 7e 25 6f bf 90 ce 2a bf bf b5 87 bf 50 9c 88 bf
       -0.93416584 -0.6672144 -1.060234 -1.0672703
0000b0 93 00 ce 3b 18 49 27 40 2f d7 3d c0 0b 5a fe be
       0.0062866895 2.6138363 -2.9662588 -0.49678072
0000c0 c2 95 17 3f fc dd d8 3f d5 9e c8 bf d5 89 b6 bf
       0.5921289 1.6942744 -1.5673472 -1.4260813
0000d0 9f b5 a6 3e 19 29 7a be 0e ec cf be 21 f2 a2 3f
       0.3256044 -0.2442974 -0.40609783 1.2730142
0000e0 8a bb e4 3f 5f 1e 3d 3f 97 a4 cb bf 79 ec ad bf
       1.7869732 0.7387447 -1.5909604 -1.3587791
0000f0 e7 d6 3d c0 83 5c fe be 29 56 a8 3e d5 ee 84 be
       -2.9662416 -0.49679956 0.32878235 -0.25963464
000100 fb de 5d 3e bb 7c 89 be 54 a6 13 3e b8 2f f2 be
       0.21667092 -0.26852974 0.14418918 -0.47302032
000110 a5 0c bd 3e 0f 43 ce 3f 95 17 d0 bf 09 3b b4 be
       0.3692371 1.6114215 -1.6257197 -0.3520129
000120 95 8b 3b bf 02 26 94 bf 71 29 de 3e d5 a7 12 bf
       -0.7325986 -1.1574099 0.43390992 -0.5728734
000130 a4 e2 8b bf f1 1d 16 3f 0b 35 cf bf cb 67 b1 be
       -1.092854 0.58639437 -1.6188062 -0.346495
000140 db ff 44 3f 75 00 b2 bf
       0.76952904 -1.390639

lin1.weight f4 [5, 2]
000000 69 2a 70 be 06 2e db 3e 1e 23 18 40 bf a8 76 3f
       -0.23453678 0.4280855 2.3771434 0.96351236
000010 28 f9 62 3f c9 41 93 bf 33 bf 7c bf 90 79 db be
       0.8866143 -1.1504451 -0.98729247 -0.42866182
000020 b9 d1 06 bf e1 51 94 bf
       -0.5266376 -1.1587487

lin1.bias f4 [5]
000000 fb f0 85 be a4 1a c4 be a4 68 72 bf 73 b7 6e 3f
       -0.26160416 -0.38301575 -0.9469092 0.9324867
000010 d0 b5 95 bd
       -0.073100686

lin2.weight f4 [41, 5]
000000 72 35 ae bf 16 ed 06 c0 e4 93 b5 c0 fc 40 98 3e
       -1.361006 -2.1082206 -5.674303 0.2973708
000010 a5 e1 83 bd f3 5c 9c bf df 8d fa bf d7 b8 98 c0
       -0.06439523 -1.2215866 -1.9574546 -4.7725635
000020 a7 e3 99 3f 91 73 44 bf ea c5 13 c0 c7 6b b6 3f
       1.2022599 -0.7673884 -2.3089547 1.4251641
000030 85 c8 4b 3f ec 5a db 3f 96 55 d4 bf 40 63 3d 40
       0.79602844 1.7137122 -1.6588619 2.9591827
000040 58 a3 f6 bf f0 03 d7 bf 41 2d 22 3f a2 0d 89 3f
       -1.9268599 -1.6798077 0.633503 1.0707285
000050 3b 9e 23 3f ba 82 d5 bf 62 1c 1f 40 28 ac 5b bf
       0.63913316 -1.668052 2.4861073 -0.85809565
000060 d6 a6 19 40 f5 1e ec 3f 99 5e 1d c0 8f 94 37 3f
       2.4008079 1.8446947 -2.4588988 0.7171106
000070 f9 a5 14 c0 f2 35 c5 3e 5c bb eb bf 26 9f 3a bf
       -2.3226302 0.3851772 -1.8416553 -0.7289909
000080 60 9b 92 c0 10 52 f0 3f 91 1b 08 bf c1 37 33 40
       -4.5814667 1.8775043 -0.53167063 2.800278
000090 48 d7 a4 bf 71 7b 02 c0 3c 65 15 bf f4 c5 1b 40
       -1.2878199 -2.0387843 -0.58357596 2.433957
0000a0 de 7f 1c 40 5f dc d7 bf a2 e2 7b 3e 2e 9c 91 bf
       2.4453044 -1.6864127 0.24598172 -1.1375787
0000b0 c3 0b de 3f 8c d7 97 40 e5 7f b1 c0 f6 00 a6 40
       1.7347339 4.745062 -5.546862 5.1876173
0000c0 be 05 02 3f 50 8c 87 3f c7 e7 cc 3e d4 89 cb bf
       0.5079001 1.0589695 0.40020582 -1.5901437
0000d0 d9 9d 22 40 0b ca 80 bf e2 ab 16 40 ce 4c a0 3f
       2.5408843 -1.0061659 2.354241 1.2523439
0000e0 d9 9d cf bf 72 86 9f c0 57 53 a4 3d 4d 6f ac 3f
       -1.6220046 -4.985162 0.08023708 1.3471466
0000f0 ac 48 11 3f bd 69 bb bf 4c 1b 87 bf f1 f3 e0 3e
       0.56751513 -1.4641644 -1.0555205 0.43936113
000100 80 dc 7d 3f 48 4f ee 3f ce 68 ca bf 24 33 25 bf
       0.9916458 1.8617945 -1.5813234 -0.6453116
000110 fe 88 72 bf cb 41 01 40 62 ce fd bf 91 79 92 40
       -0.94740283 2.0196407 -1.9828608 4.5773396
000120 50 f4 b9 bd b3 55 85 40 e1 8d 90 bf 1f 25 fa bf
       -0.09079802 4.1667113 -1.1293298 -1.9542578
000130 7b bb d5 3d 96 79 59 40 f4 96 39 3f 1a 0a 32 c0
       0.1043615 3.398046 0.7249596 -2.7818666
000140 1e 92 82 bf 91 5a fd 3f 3d f9 1b 40 ce 21 fb 3f
       -1.0200841 1.9793264 2.4370873 1.9619691
000150 73 9c 3d c0 f0 57 26 bf b1 4f 8d 3f 1a a2 8b 3f
       -2.962674 -0.6497793 1.1039945 1.0908844
000160 4c dd bd 3f 9c 95 ce bf 76 59 37 3f 2e 60 80 3f
       1.483316 -1.6139407 0.7162088 1.0029352
000170 1d 63 bd bf 03 9c cc 3f d8 26 9f 3f 21 58 4f 3f
       -1.4795872 1.5985111 1.2433729 0.8099385
000180 70 11 a2 bf 2c 3d e8 3f 9c 74 8a bf f7 8b 44 3e
       -1.2661572 1.8143668 -1.0816836 0.19194017
000190 c0 5c 05 3f 7a 21 31 3f 32 37 2c 40 21 b5 9a 3f
       0.5209465 0.69191706 2.6908689 1.2086526
0001a0 47 22 20 c0 1c 76 6d c0 d0 c0 93 c0 76 b0 31 bf
       -2.5020921 -3.7103338 -4.6172867 -0.69409883
0001b0 7b a6 d9 3f df 46 73 40 fd af 4b bf ad 00 02 bf
       1.7003931 3.8012006 -0.7956541 -0.5078228
0001c0 50 1f ae be 89 e4 4d be 09 f9 bf 3f 9c 9c a3 bd
       -0.34008265 -0.2010671 1.4997874 -0.07988855
0001d0 66 1b d1 bf 64 98 5b 40 d8 05 62 bf ae fd 1e 40
       -1.6336486 3.4311762 -0.88290167 2.4842334
0001e0 01 d9 36 bf e8 9a 00 3f 89 7a 36 40 17 9f 8a bd
       -0.7142487 0.5023637 2.851229 -0.06768625
0001f0 1b c8 f6 bf f6 5e 9e bf 56 49 b8 3f 6a f1 ff be
       -1.9279817 -1.237273 1.439738 -0.49988872
000200 48 cd 36 c0 7b b7 6d 3f 3a 14 42 bf 24 b5 4f bc
       -2.8562794 0.92858094 -0.75812113 -0.012677465
000210 6b 9c 9a 3f 90 98 89 bf bb 55 e1 be 4c a3 10 bd
       1.2078985 -1.0749683 -0.4401072 -0.035311982
000220 ff 55 68 3f eb d8 ae 3f 29 f7 0a c0 a3 00 51 bf
       0.9075622 1.3659948 -2.1713355 -0.81641597
000230 c5 af 24 3f 86 ea ba be b1 48 13 3e 40 5e ee 3e
       0.64330703 -0.36507052 0.14383198 0.46556282
000240 9f ea 92 3f 9d 74 da bf a6 13 28 be 17 5e 82 3f
       1.1477851 -1.7066838 -0.16413745 1.0184964
000250 b9 5b 6d 3e 3f 48 24 bf 15 d1 3f c0 b0 27 81 40
       0.2317952 -0.6417274 -2.9971364 4.0360947
000260 d6 b7 aa 3f 6f ef f1 bd c8 e3 9a bf 28 c3 ab bf
       1.3337352 -0.118132465 -1.2100763 -1.3418932
000270 89 60 57 3f 99 ae 81 be 7f 38 bf bf 57 0d be be
       0.84131676 -0.2532852 -1.4939116 -0.37119552
000280 cd 8a 22 3e ee 2c 08 3f 6f 60 90 3f 2f 35 ad be
       0.15873261 0.5319356 1.1279429 -0.33829638
000290 cf de f2 be 67 d6 50 bf 03 7d 54 3f 4e 8d ff 3f
       -0.47435614 -0.8157715 0.8300325 1.9964998
0002a0 7d d0 0d 3f 17 b6 cf bf fb 3a 95 3f 67 11 e9 bf
       0.5539625 -1.6227444 1.1658624 -1.8208436
0002b0 d0 ed 10 bf ed 1c a9 bf 00 1f 09 40 3d d6 4e bf
       -0.56612873 -1.3211952 2.142517 -0.8079565
0002c0 e8 5e 56 3f 22 b9 ad 3f 7b 67 9f be 13 a2 ca bf
       0.83738565 1.3572123 -0.31133637 -1.5830711
0002d0 c9 67 59 bf 86 b6 3d c0 9f c2 69 40 0a e1 84 3f
       -0.8492399 -2.9642653 3.6525037 1.0381176
0002e0 65 3a 04 bf a2 fc 43 bf c1 c0 0c 40 6f 90 0f bc
       -0.51651603 -0.7655736 2.1992648 -0.008762463
0002f0 dd ab 01 c0 6d 12 69 bf 3e f8 b9 bf 25 39 2f 3f
       -2.0261147 -0.9104374 -1.4528883 0.6844657
000300 5f 0d 4e bf 9f 34 b5 be 93 23 4b 3e 8b 98 67 40
       -0.8048915 -0.3539171 0.19837789 3.6186855
000310 cf 85 37 bf ca ec 84 3f a6 3d d4 bf 3d ce c7 3f
       -0.7168855 1.0384762 -1.6581314 1.5609814
000320 32 4b dd 3f 31 e3 fa bf 2d 68 29 c0 4b bd a5 3e
       1.7288573 -1.9600583 -2.6469834 0.32370982
000330 be 00 19 40
       2.3906703

lin2.bias f4 [41]
000000 e0 10 39 c0 a0 10 0e 3d 7b 7c 01 c0 da 74 3a bf
       -2.891655 0.034683824 -2.0232227 -0.7283455
000010 6f da 97 c0 d1 37 95 c0 b7 00 5b c0 9e e6 53 c0
       -4.7454143 -4.6630635 -3.4219186 -3.3109508
000020 9b 99 f0 c0 20 0b a4 c0 c7 bc 86 c0 85 30 69 c0
       -7.5187507 -5.126358 -4.210544 -3.6435864
000030 a5 a7 87 c0 82 73 e3 bf 35 ca e1 bf f5 18 55 bf
       -4.2392144 -1.7769625 -1.7639834 -0.83241206
000040 92 45 f2 be c1 64 ae 3e fe 99 a4 3f 04 16 41 3f
       -0.47318703 0.34061244 1.2859495 0.7542422
000050 54 cb d4 bd e5 e5 4e c0 9d 56 ce 3f ce bc 8a c0
       -0.10390344 -3.2327816 1.6120182 -4.3355474
000060 e2 64 9d bf 39 25 2a 3f c5 be 98 3f 6b af db 3f
       -1.2296412 0.6646305 1.1933218 1.7162908
000070 5c 54 02 40 85 cb 13 3e 1d d9 95 c0 a4 5f 8f 3f
       2.036399 0.14433105 -4.682753 1.1201062
000080 9f 34 06 40 b5 a1 dd 3f 63 c1 ba 3f b9 e6 9d be
       2.0969617 1.7314974 1.4590267 -0.3084009
000090 c5 0b ef be df 6b 14 c0 ad d1 7b be cb 16 58 c0
       -0.46688667 -2.319084 -0.24591704 -3.3763912
0000a0 5b 6a 85 c0
       -4.169233
