Models_Q1/Model-b4-e64-h64.pth (torch, 89373 bytes, 5 tensors)

emb.weight f4 [41, 64]
0.35360685 -0.70880777 -1.9119562 0.98233247 0.52751577 0.56449413 0.68566054 -0.6385234
0.62092084 -0.31334668 -1.7251198 1.7160457 -1.1994418 0.808466 2.0476587 0.10918908
-0.13872226 0.05644136 1.3697174 1.4445121 -1.0072616 0.30035833 -1.3810567 -0.6259756
-1.3831255 1.2270364 0.8974931 -2.5892172 -0.3830174 -0.89615124 0.2859177 -0.75524175
1.36785 -0.1253229 -2.0778391 0.037409563 0.26449594 -0.118518375 -1.1132301 1.122562
-0.4683617 0.14978327 -1.7212955 0.71652865 1.4857937 -0.72374433 0.27148563 1.1565064
1.8154114 -0.19543108 0.62464225 0.5275915 -2.0942373 1.0594507 -1.5404414 -1.0342846
-0.5156134 -0.81721175 -1.4096726 -1.0686312 -0.052016173 -1.0604112 -0.94852483 0.26221368
0.22109707 0.22743115 0.71721077 -0.44600877 -0.4147526 0.9260551 -0.12878136 0.9590988
-1.2586528 0.3591916 1.5104625 0.5727439 -0.06836966 -0.010929039 0.5104523 0.575768
0.06920691 0.092980154 -0.3074932 -1.1243308 1.0923117 0.2311163 -0.4764333 -0.45534584
-0.6576125 -1.1288627 0.16748202 -0.2046257 0.31044868 -0.96473354 0.7008253 1.6021146
-0.5000484 -0.22849868 -0.031504992 1.5614763 2.360287 -1.4020853 -0.0150622325 0.04329727
-0.25683922 1.6327583 -0.21320081 -0.6074797 -0.116544135 -0.22031856 0.84106594 0.73006886
0.402131 0.38922235 -0.61491466 1.354144 -0.41291392 -0.3179797 -0.614216 1.8603401
-0.89977676 0.52940106 -0.31788045 0.07906644 0.98793375 -1.038552 2.5276034 -0.00044881832
0.46869788 -0.07277398 0.7385505 0.772664 -0.33111677 2.1650548 -0.33492374 -0.46992528
-2.4465296 -1.6795895 1.1410494 -1.6171067 -0.474202 -0.6741089 1.738595 -1.4352871
1.3513337 0.5908779 3.184438 0.53120613 -0.4933487 0.12526697 -2.1133552 0.7188011
-2.49948 1.30856 1.0950794 1.4652708 0.92030585 0.72959346 1.6582552 -0.35681355
1.8089415 1.1850327 -1.473915 1.3144791 -0.43766612 -0.92000407 -1.184701 0.27920386
-1.2955624 -0.59713554 -0.031623885 0.37229767 -0.23599032 0.70151675 -1.1190133 -0.39293778
-0.50303715 -0.1099485 -0.17761569 0.7972982 1.0652105 1.2468543 -1.6410011 -0.32052281
0.928523 1.6818575 -0.21013223 1.1185185 -1.3658016 2.5117486 0.47840264 -0.8632009
-0.98203313 -2.0267813 0.9457612 -0.25118548 -0.50356805 -0.6253102 1.3528771 -1.19635
1.0927302 1.6357756 -0.8237391 0.15766604 -2.6159787 0.5020189 0.6489693 2.0667644
0.1332463 -1.2255039 -0.75260943 -0.41621664 -1.1445496 1.2744949 -0.07738009 -0.83091146
-1.1360767 1.5836505 -1.4370009 -1.4813355 0.17729479 0.3479774 0.08654604 1.4266998
-1.8597151 -0.06005135 0.35337612 -1.1460541 0.44875032 -1.6176872 -0.25762883 1.2672422
-0.8020811 -0.3216475 -1.4994116 -0.23325786 1.1090986 0.28472412 -0.3982085 0.5964761
1.051111 -1.527925 -0.3345664 0.5603582 0.5028598 -0.12819721 -0.85333663 0.23929684
3.4210792 0.95970863 0.3181628 0.08815736 -1.0132957 1.1271034 -0.4860372 0.6963006
00000000: f50b b53e 6d74 35bf fbba f4bf 247a 7b3f
00000010: 460b 073f b082 103f 7387 2f3f 4576 23bf
00000020: abf4 1e3f fa6e a0be bad0 dcbf 63a7 db3f
00000030: 4f87 99bf a1f7 4e3f d70c 0340 869e df3d
00000040: 350d 0ebe 0e2f 673d e652 af3f c6e5 b83f
00000050: f3ed 80bf 91c8 993e 77c6 b0bf f03f 20bf
00000060: 420a b1bf 870f 9d3f 1cc2 653f bcb5 25c0
00000070: db1a c4be 2b6a 65bf ce63 923e 8657 41bf
00000080: b515 af3f a554 00be 51fb 04c0 c53a 193d
00000090: 036c 873e c3b9 f2bd 537e 8ebf 1db0 8f3f
000000a0: 1bcd efbe c960 193e 6953 dcbf 6c6e 373f
000000b0: 7d2e be3f 4f47 39bf 2a00 8b3e 6708 943f
000000c0: 675f e83f 161f 48be 8ee8 1f3f 3d10 073f
000000d0: fc07 06c0 159c 873f 2f2d c5bf 7063 84bf
000000e0: 3dff 03bf ca34 51bf 2770 b4bf e8c8 88bf
000000f0: e90e 55bd 8ebb 87bf 86d2 72bf df40 863e
00000100: 4567 623e b6e3 683e 209b 373f 435b e4be
00000110: 745a d4be f211 6d3f 43df 03be 8087 753f
00000120: 891b a1bf f6e7 b73e d656 c13f 589f 123f
00000130: 6405 8cbd b60f 33bc 00ad 023f 8865 133f
00000140: 5abc 8d3d 616c be3d c06f 9dbe 12ea 8fbf
00000150: dfd0 8b3f c0a9 6c3e 11ef f3be 1723 e9be
00000160: 4b59 28bf 937e 90bf 6880 2b3e 6689 51be
00000170: 21f3 9e3e c7f8 76bf 4969 333f 1712 cd3f
00000180: 2c03 00bf 8ffb 69be 610b 01bd 75de c73f
00000190: f10e 1740 8877 b3bf 95c7 76bc 7a58 313d
000001a0: 6e80 83be 39fe d03f 5051 5abe ca83 1bbf
000001b0: b1ae eebd 309b 61be 1950 573f cbe5 3a3f
000001c0: 1de4 cd3e 2748 c73e 0c6b 1dbf 9754 ad3f
000001d0: 7469 d3be 3cce a2be 433d 1dbf a01f ee3f
000001e0: c557 66bf d486 073f 3ac1 a2be 96ed a13d
000001f0: 3ae9 7c3f 46ef 84bf 41c4 2140 604f ebb9
00000200: 2bf9 ef3e 860a 95bd a511 3d3f 4fcd 453f
00000210: 2388 a9be 4290 0a40 207b abbe 0c9a f0be
00000220: f193 1cc0 cafc d6bf e80d 923f 5afd cebf
00000230: 9bca f2be 6792 2cbf 488a de3f 7db7 b7bf
00000240: 81f8 ac3f c643 173f d5cd 4b40 20fd 073f
00000250: 3398 fcbe fc45 003e 3641 07c0 5903 383f
00000260: 7bf7 1fc0 e57e a73f 902b 8c3f fe8d bb3f
00000270: 2a99 6b3f a3c6 3a3f b541 d43f 44b0 b6be
00000280: 658b e73f 27af 973f 3fa9 bcbf da40 a83f
00000290: c615 e0be 6385 6bbf 48a4 97bf cff3 8e3e
000002a0: fdd4 a5bf e0dd 18bf 0c88 01bd cd9d be3e
000002b0: 72a7 71be 9a96 333f d43b 8fbf 242f c9be
000002c0: 0bc7 00bf ae2c e1bd e3e0 35be bc1b 4c3f
000002d0: d158 883f ec98 9f3f 530c d2bf 911b a4be
000002e0: afb3 6d3f 1b47 d73f e72c 57be 9d2b 8f3f
000002f0: 96d2 aebf 7dc0 2040 31f1 f43e bcfa 5cbf
00000300: 8666 7bbf c9b6 01c0 681d 723f 629b 80be
00000310: d6e9 00bf 5414 20bf 142b ad3f ff21 99bf
00000320: 95de 8b3f 1861 d13f 91e0 52bf 3573 213e
00000330: 326c 27c0 5084 003f da22 263f de45 0440
00000340: b871 083e 50dd 9cbf 03ab 40bf 591a d5be
00000350: 9a80 92bf a622 a33f 7479 9ebd 9db6 54bf
00000360: f66a 91bf 0fb5 ca3f a5ef b7bf 679c bdbf
00000370: c48c 353e 182a b23e 0d3f b13d 199e b63f
00000380: 250b eebf 68f8 75bd b7ed b43e e7b1 92bf
00000390: 9ac2 e53e 6010 cfbf ede7 83be fe34 a23f
000003a0: 3055 4dbf fbae a4be b8ec bfbf 26db 6ebe
000003b0: f1f6 8d3f 5cc7 913e fce1 cbbe a8b2 183f
000003c0: ce8a 863f 0c93 c3bf 4a4c abbe a373 0f3f
000003d0: 6bbb 003f 2146 03be 4574 5abf 3b0a 753e
000003e0: f6f2 5a40 77af 753f 3ce6 a23e d98b b43d
000003f0: acb3 81bf ed44 903f ded9 f8be c240 323f

lin1.weight f4 [64, 256]
0.0102206515 0.033264913 0.01882205 0.12943381 -0.034319505 -0.05751786 -0.1663489 0.042556107
-0.00977366 0.027312236 0.02383126 -0.17877036 -0.012641504 -0.15099256 -0.019296126 0.04521479
-0.1637772 -0.04234475 -0.12152833 -0.11058198 -0.031811602 -0.075913854 -0.08831432 -0.10313678
-0.010468844 0.039745905 -0.0086421585 -0.075366326 0.003359573 0.25443992 0.08537037 0.066280104
-0.18373786 0.0026949085 0.064580426 -0.1291959 0.011118496 0.01995456 -0.020204615 -0.06615359
-0.12372112 0.060038187 -0.06051609 -0.09534472 0.061531335 -0.009687803 0.023697777 -0.060036913
0.19061556 0.08354459 -0.020754656 -0.14678152 0.044432823 -0.03992229 0.076451026 -0.15573637
-0.021908984 -0.08671472 -0.17543529 0.004931544 0.03850982 -0.014910786 -0.03765514 0.006506547
-0.049371675 0.06163418 -0.14094473 -0.00255108 -0.03186609 -0.031342655 -0.04505234 -0.01723483
-0.11565306 -0.02899279 0.11316315 0.08679243 -0.081929326 0.055804268 -0.054531094 0.051190864
-0.07290714 -0.07745817 -0.11239563 0.045415334 0.093130365 0.010591283 -0.05431174 0.046256356
-0.13840002 0.083338454 0.066484384 -0.056610085 0.22076958 0.04002161 -0.0037601164 0.10714649
0.06551918 0.086327724 -0.05949057 0.0730291 0.09494221 -0.050896723 -0.02386546 -0.16247469
0.0023583015 -0.012609412 0.015218932 -0.060697667 0.04499095 0.03477126 0.027485676 0.0793665
0.1027595 0.2703694 -0.03522464 0.031086974 0.025042392 -0.00746432 -0.025561191 0.060344614
0.088127226 0.05577693 -0.0616633 -0.04648909 -0.026145801 -0.011154051 0.017790312 -0.0049300366
-0.013214112 -0.26968482 -0.123558015 -0.14720689 0.014954254 -0.013639199 -0.042352237 0.13550273
-0.0105028255 -0.068904124 -0.046040397 0.17368063 -0.027581073 0.090931565 0.15682565 0.06560167
-0.25925076 -0.10998996 0.11716128 0.19532053 0.1449549 -0.04036312 -0.0779571 -0.11231587
0.18447821 0.010991263 -0.12836623 -0.20836419 0.082096025 -0.05758325 0.089632764 0.18893099
0.070189245 0.056745328 0.08176877 0.029902196 0.007075158 0.024880745 -0.08024861 0.07946573
0.08027375 -0.024515962 -0.050037105 -0.07553845 -0.10475204 0.08232864 -0.11292705 -0.03617109
0.102415785 -0.0035574867 -0.056802757 -0.014661725 -0.049867693 -0.07244859 -0.003376454 0.010739041
-0.018078879 0.15684211 0.023078522 -0.01354127 0.0644877 0.089134924 -0.077427335 0.009500436
-0.060796097 0.032199617 -0.028676566 -0.21183155 0.0022015006 -0.17411473 -0.08387193 0.020095237
0.10138028 -0.00073607557 0.038121246 -0.31091973 -0.11879552 0.13696702 -0.3058408 -0.030251378
-0.04406348 -0.24906611 -0.12893592 0.17409956 -0.085297726 -0.085351095 0.16980496 0.16570823
0.09603708 -0.0035387725 0.05663619 -0.12249407 0.03099936 0.023826921 0.08725021 0.075243235
-0.050239153 -0.05694691 0.14568757 -0.29025584 -0.035155933 0.025833998 -0.17384617 -0.18268584
0.20700584 -0.061473474 -0.010345738 0.10737011 0.031400245 0.1970989 0.022288362 -0.0807766
0.06000322 0.018565316 0.03499993 -0.1302562 -0.07736125 -0.052636422 0.008340569 -0.04409247
-0.029417614 0.21522012 -0.050624445 -0.053114958 -0.028139265 -0.04234424 -0.05088357 0.21127845
00000000: 8574 273c ca40 083d b330 9a3c 4c8a 043e
00000010: 9c92 0cbd d997 6bbd 5e57 2abe 504f 2e3d
00000020: b421 20bc e9bd df3c c639 c33c 940f 37be
00000030: 501e 4fbc cb9d 1abe e912 9ebc 2533 393d
00000040: 36b5 27be b071 2dbd d8e3 f8bd ce78 e2bd
00000050: e24c 02bd b978 9bbd 23de b4bd 6039 d3bd
00000060: 8485 2bbc 9acc 223d d797 0dbc a959 9abd
00000070: 482c 5c3b f345 823e a9d6 ae3d ddbd 873d
00000080: c725 3cbe 109d 303b be42 843d ee4b 04be
00000090: 5a2a 363c bf77 a33c 2684 a5bc 897b 87bd
000000a0: 8061 fdbd 9aea 753d b8df 77bd 1844 c3bd
000000b0: 4808 7c3d 97b9 1ebc d721 c23c 44e9 75bd
000000c0: ba30 433e 6d19 ab3d ab05 aabc e54d 16be
000000d0: 31ff 353d 8e85 23bd 5b92 9c3d 5b79 1fbe
000000e0: 787a b3bc 7d97 b1bd 4fa5 33be ca98 a13b
000000f0: 79bc 1d3d 5f4c 74bc 473c 1abd df34 d53b
00000100: f439 4abd 1f74 7c3d d153 10be 0530 27bb
00000110: 0486 02bd 2861 00bd cd88 38bd 0f30 8dbc
00000120: 83db ecbd 4a82 edbc 15c2 e73d 3bc0 b13d
00000130: 90ca a7bd 0493 643d ff5b 5fbd 83ad 513d
00000140: 5750 95bd 64a2 9ebd ae2f e6bd 6e05 3a3d
00000150: 22bb be3d 1087 2d3c fd75 5ebd 4e77 3d3d
00000160: bcb8 0dbe 5aad aa3d f728 883d fadf 67bd
00000170: 6c11 623e b3ed 233d 496c 76bb 9e6f db3d
00000180: eb2e 863d 97cc b03d 62ac 73bd 4890 953d
00000190: 1071 c23d 1579 50bd 7f81 c3bc c45f 26be
000001a0: bc8d 1a3b b597 4ebc d458 793c 1e9e 78bd
000001b0: 6e48 383d 4f6c 0e3d a429 e13c e78a a23d
000001c0: 9373 d23d dc6d 8a3e b647 10bd 1caa fe3c
000001d0: b425 cd3c 4197 f4bb b465 d1bc ea2b 773d
000001e0: 0c7c b43d 5a76 643d a892 7cbd 586b 3ebd
000001f0: b82f d6bc 7bbf 36bc fdbc 913c 258c a1bb
00000200: 0180 58bc 2114 8abe fc0b fdbd 67bd 16be
00000210: b002 753c f276 5fbc 8a79 2dbd 3ac1 0a3e
00000220: 0b14 2cbc 9b1d 8dbd db94 3cbd 56d9 313e
00000230: b4f1 e1bc 543a ba3d e796 203e 2b5a 863d
00000240: 84bc 84be 6b42 e1bd 41f2 ef3d 1b02 483e
00000250: 0f6f 143e cd53 25bd f9a7 9fbd dd05 e6bd
00000260: dbe7 3c3e b314 343c 7072 03be 6c5d 55be
00000270: f621 a83d 6adc 6bbd 6291 b73d 2077 413e
00000280: 61bf 8f3d ca6d 683d 6376 a73d 73f5 f43c
00000290: bad6 e73b b4d2 cb3c 6259 a4bd eebe a23d
000002a0: 9066 a43d b3d5 c8bc b5f3 4cbd e7b3 9abd
000002b0: 3d88 d6bd eb9b a83d 4c46 e7bd 2328 14bd
000002c0: 5ebf d13d b924 69bb 02aa 68bd bb37 70bc
000002d0: 1142 4cbd ed5f 94bd 8047 5dbb cdf2 2f3c
000002e0: 281a 94bc 389b 203e 2b0f bd3c 34dc 5dbc
000002f0: 2112 843d 5f8c b63d 3992 9ebd b7a7 1b3c
00000300: 5405 79bd bfe3 033d 1eeb eabc 5fea 58be
00000310: 0d47 103b 224b 32be 0cc5 abbd c49e a43c
00000320: 77a0 cf3d 32f5 40ba 0625 1c3d df30 9fbe
00000330: 114b f3bd 1541 0c3e 2a97 9cbe bdd1 f7bc
00000340: e87b 34bd 300b 7fbe c707 04be 2847 323e
00000350: 93b0 aebd 8ecc aebd 5ae1 2d3e 6baf 293e
00000360: 17af c43d c0ea 67bb 59fb 673d 2cde fabd
00000370: 5ff2 fd3c ad30 c33c 3db0 b23d 2019 9a3d
00000380: 92c7 4dbd 2a41 69bd 1f2f 153e 6a9c 94be
00000390: abff 0fbd d2a1 d33c bb04 32be ff11 3bbe
000003a0: 57f9 533e 9ccb 7bbd 2c81 29bc dce4 db3d
000003b0: 8b9d 003d 4bd4 493e 1596 b63c 346e a5bd
000003c0: f0c5 753d 4a16 983c 165c 0f3d e261 05be
000003d0: 936f 9ebd 4a99 57bd e2a6 083c 4e9a 34bd
000003e0: 35fd f0bc aa62 5c3e 945b 4fbd 128f 59bd
000003f0: 5184 e6bc 2771 2dbd 4a6b 50bd 6159 583e

lin1.bias f4 [64]
0.04762455 0.0027835146 -0.07231813 0.061986033 0.05291662 0.018452875 -0.0090107955 0.07652291
-0.004458251 0.11766852 -0.04455962 -0.03845837 -0.103853576 0.08429443 0.0043957103 0.030625336
-0.10750783 -0.07319439 0.062148433 -0.026885848 0.026731102 -0.0036840818 -0.067024946 -0.018252298
0.10821818 0.050013367 0.1438156 0.056582082 -0.020483423 -0.06469362 -0.1350017 -0.10347157
0.04648427 0.0037356135 -0.032877278 -0.045728587 0.021496495 0.13532561 -0.03953996 0.013871095
-0.0956151 0.047579624 -0.028060874 -0.062039904 -0.045890786 -0.030688811 0.09791191 0.051288664
0.015869062 -0.02691074 0.068145536 -0.06734158 0.06396897 -0.062018175 -0.0036067178 -0.14568801
0.10739016 -0.112737656 0.0634347 -0.057941444 0.04561034 0.07618938 0.107668266 0.03274821
00000000: f611 433d a06b 363b 871b 94bd 11e5 7d3d
00000010: 19bf 583d 7c2a 973c 04a2 13bc 0bb8 9c3d
00000020: 8516 92bb 31fc f03d 2684 36bd 8686 1dbd
00000030: 2fb1 d4bd 8fa2 ac3d e409 903b fce1 fa3c
00000040: 112d dcbd f1e6 95bd 5b8f 7e3d b63f dcbc
00000050: 2ffb da3c a370 71bb 6044 89bd d885 95bc
00000060: 7ea1 dd3d d1da 4c3d 6644 133e 9dc2 673d
00000070: dacc a7bc 177e 84bd e33d 0abe e7e8 d3bd
00000080: 4a66 3e3d 32d1 743b 53aa 06bd e64d 3bbd
00000090: 6b19 b03c cc92 0a3e a7f4 21bd 9743 633c
000000a0: d9d1 c3bd dae2 423d ebdf e5bc 8e1d 7ebd
000000b0: faf7 3bbd 1a67 fbbc 0a86 c83d 1014 523d
000000c0: d6ff 813c ea73 dcbc e38f 8b3d 62ea 89bd
000000d0: 2a02 833d c506 7ebd af5e 6cbb 3d2f 15be
000000e0: 5fef db3d 00e3 e6bd 0dea 813d 0254 6dbd
000000f0: e8d1 3a3d 2d09 9c3d 2e81 dc3d fd22 063d

lin2.weight f4 [41, 64]
0.7033652 -0.113266334 -0.9190992 -1.4090835 0.43852964 1.0333636 0.2347092 -0.15159588
0.8110928 1.4069345 0.7396136 1.168584 -1.346848 0.38770518 -0.784833 0.8482033
0.384268 -1.0405082 -0.759326 1.640441 -0.77613 -0.13128088 -0.8018164 0.9909175
-1.2989402 -1.9586154 0.14105842 1.2471362 0.26638138 0.14215747 0.5696489 -0.14500317
-0.7232261 -1.118072 -2.0878594 -0.19910856 0.03888649 -0.577675 0.11430543 -0.54917705
-0.9348758 -0.20978165 -1.2116672 0.31168315 0.37768313 0.38298407 0.098013 -0.26317534
0.89516664 -0.44179446 0.36905703 1.9435985 -0.8367738 -0.02475819 -0.40522516 0.9406916
-1.3298854 0.7026413 -0.60008407 0.29897597 -1.3127649 -0.023127409 -0.643994 -1.5207946
1.003978 0.58958703 -1.2846609 1.0700693 0.26196522 0.50551635 -1.5197597 1.2514509
1.264282 0.8739694 0.45540404 2.4071572 -0.7960869 1.3065315 -0.7958043 0.5053112
1.2325362 1.6782081 0.59055865 0.88730735 -1.3441292 1.1797836 0.31293502 0.7800256
0.45900604 -1.1587138 0.6479306 0.14586626 -0.75828886 1.3187737 0.94525146 -1.0647734
-0.8723409 0.96852356 -2.2836103 0.04673068 1.3597646 0.3385301 0.9639548 0.50033015
-0.397515 1.1247927 1.5341451 -0.8497119 0.40347984 -1.2192698 0.43879429 0.6532712
1.4948589 -1.291533 1.0608543 1.3780333 -1.1339841 -0.52432376 -1.1222379 -0.86885303
0.8406694 -0.30882236 1.8682864 -0.635638 -0.5837015 1.3900582 0.8711649 0.21432465
-0.21527061 -1.1807467 -0.9511082 0.72375405 0.81340635 0.30092624 0.94575536 0.21519935
-1.0944431 -0.3007016 -0.11351584 -0.7043379 0.9055978 0.64601004 0.84547883 1.0443656
-0.6732379 1.4172472 0.28110403 0.100941226 -1.1178154 1.0228854 -0.519553 1.25593
-0.6444793 0.03450916 -0.2509781 0.06804985 0.7943269 0.891617 0.13021636 -1.7041644
0.09814484 -0.16276576 -0.7339692 0.074387096 -0.29062626 -0.18664874 -1.0145451 -0.6600844
-0.22094479 -0.35363495 0.38158822 -0.8670654 1.4805952 -0.012018084 -0.7145554 -0.46183145
0.25071347 -0.2405138 -0.90863425 0.9493558 0.5046919 0.020189648 -0.1031712 0.22416653
0.18427506 0.50748986 -0.47919163 1.3072288 -0.806231 -0.1436485 -0.24681717 -1.7529863
-0.8311152 0.3193372 -0.46890002 -0.24685186 0.6237238 -0.64000964 -0.90478516 -0.9332717
0.37897113 0.003840082 0.90933275 -0.23378466 -0.58373827 0.3252677 -0.5815931 0.7128815
0.77225167 0.88455486 -0.05790584 0.04708409 -0.8083662 0.24013716 0.7459359 -1.0219339
0.24438606 0.4034506 -0.25786975 -0.60490495 0.50960267 0.546435 0.31350154 0.054374944
-1.3934871 0.3268495 -1.1020147 -0.28598416 -1.0912596 -1.0674901 0.11752456 0.80483365
-0.5057011 0.56996536 -0.13106124 -0.4064142 0.088246875 -0.5983142 -1.167441 0.32509744
0.07171693 0.7281337 -0.5739792 0.6417806 0.40976116 0.60795516 -1.028617 -0.7847198
0.5982454 0.531146 -0.9363834 -0.29274994 -0.45820487 -1.0397664 -0.8975401 -0.9673097
00000000: be0f 343f 2ef8 e7bd 164a 6bbf d95c b4bf
00000010: f586 e03e 4245 843f 9c57 703e f33b 1bbe
00000020: c7a3 4f3f 6e16 b43f 5157 3d3f 2994 953f
00000030: 8465 acbf 4b81 c63e d1ea 48bf da23 593f
00000040: c6be c43e 5f2f 85bf 3063 42bf f8f9 d13f
00000050: 75b0 46bf 7f6e 06be d743 4dbf c5ac 7d3f
00000060: ac43 a6bf e9b3 fabf 9e71 103e 29a2 9f3f
00000070: 2463 883e ba91 113e 83d4 113f b67b 14be
00000080: 5825 39bf fc1c 8fbf 7d9f 05c0 1de3 4bbe
00000090: 7147 1f3d 82e2 13bf f718 ea3d de96 0cbf
000000a0: 0554 6fbf 00d1 56be e917 9bbf ef94 9f3e
000000b0: af5f c13e 7d16 c43e 0abb c83d ebbe 86be
000000c0: a429 653f e232 e2be 0bf5 bc3e d6c7 f83f
000000d0: cf36 56bf b0d1 cabc ac79 cfbe 2ad1 703f
000000e0: af39 aabf 4de0 333f 1c9f 19bf 6113 993e
000000f0: ae08 a8bf b175 bdbc cadc 24bf 66a9 c2bf
00000100: 5a82 803f 2def 163f c56f a4bf 08f8 883f
00000110: 4e20 863e 8569 013f 7c87 c2bf 8b2f a03f
00000120: fed3 a13f 75bc 5f3f b82a e93e dd0e 1a40
00000130: 5acc 4bbf 6d3c a73f d5b9 4bbf 135c 013f
00000140: bfc3 9d3f 86cf d63f da2e 173f 9326 633f
00000150: 6d0c acbf 2603 973f 0539 a03e c2af 473f
00000160: d702 eb3e bc50 94bf c8de 253f f75d 153e
00000170: 381f 42bf 94cd a83f 00fc 713f 7f4a 88bf
00000180: bc51 5fbf 29f1 773f ac26 12c0 ab68 3f3d
00000190: c40c ae3f d153 ad3e bec5 763f a315 003f
000001a0: 1687 cbbe 35f9 8f3f de5e c43f b886 59bf
000001b0: e994 ce3e 0811 9cbf a5a9 e03e c83c 273f
000001c0: 8957 bf3f f450 a5bf 13ca 873f 6563 b03f
000001d0: 6426 91bf 153a 06bf 7ea5 8fbf 276d 5ebf
000001e0: 1c36 573f f71d 9ebe 0224 ef3f 2cb9 22bf
000001f0: 766d 15bf 6ded b13f aa04 5f3f ec77 5b3e
00000200: e66f 5cbe b522 97bf d47b 73bf f247 393f
00000210: 663b 503f 0113 9a3e 061d 723f 385d 5c3e
00000220: b616 8cbf 8ff5 99be fe7a e8bd 7d4f 34bf
00000230: 42d5 673f ea60 253f 4d71 583f c6ad 853f
00000240: 5259 2cbf 5b68 b53f deec 8f3e 46ba ce3d
00000250: 9314 8fbf e9ed 823f 6d01 05bf 50c2 a03f
00000260: 98fc 24bf 7a59 0d3d 3480 80be b85d 8b3d
00000270: 0259 4b3f 0341 643f 7057 053e 0f22 dabf
00000280: 2900 c93d 11ac 26be 68e5 3bbf 4358 983d
00000290: f7cc 94be d920 3fbe 9ddc 81bf 4bfb 28bf
000002a0: 5a3f 62be a40f b5be 885f c33e 00f8 5dbf
000002b0: 2584 bd3f 7fe7 44bc 1aed 36bf 2c75 ecbe
000002c0: 845d 803e 4049 76be 419c 68bf fb08 733f
000002d0: 7d33 013f c364 a53c 6c4b d3bd e98b 653e
000002e0: 9ab2 3c3e dbea 013f 9b58 f5be 4653 a73f
000002f0: 2865 4ebf 9818 13be a4bd 7cbe db61 e0bf
00000300: f7c3 54bf 2a80 a33e aa13 f0be bcc6 7cbe
00000310: 5dac 1f3f acd7 23bf 00a0 67bf e5ea 6ebf
00000320: 8108 c23e e3a9 7b3b 08ca 683f 3f65 6fbe
00000330: df6f 15bf 7d89 a63e 49e3 14bf 677f 363f
00000340: 49b2 453f 3072 623f ad2e 6dbd 3fdb 403d
00000350: 16f1 4ebf 84e6 753e a8f5 3e3f bbce 82bf
00000360: 5740 7a3e 1491 ce3e 8107 84be 0ddb 1abf
00000370: 5275 023f 2ae3 0b3f 4683 a03e 43b8 5e3d
00000380: c95d b2bf d158 a73e d10e 8dbf 846c 92be
00000390: 65ae 8bbf 84a3 88bf b7b0 f03d 9409 4e3f
000003a0: a175 01bf 40e9 113f eb34 06be 8615 d0be
000003b0: c7ba b43d 1f2b 19bf b56e 95bf 2c73 a63e
000003c0: 53e0 923d f866 3a3f 4df0 12bf bc4b 243f
000003d0: 37cc d13e f3a2 1b3f b9a9 83bf 66e3 48bf
000003e0: 9c26 193f 2ff9 073f d3b6 6fbf 52e3 95be
000003f0: d499 eabe 1117 85bf 30c5 65bf 9ca1 77bf

lin2.bias f4 [41]
-0.75081563 1.2944909 -0.38403288 -0.25692284 -0.6250471 -4.446098 -0.71778226 -4.6848197
-2.6551406 -2.9392266 -0.7449978 -0.47548214 -3.6187851 -0.43895552 0.40298522 -0.93430287
0.010687739 0.17541373 0.5918833 -0.28527507 -1.4607236 -0.122692354 0.17590459 -0.75207514
-0.6594765 0.10516812 0.15539053 0.057147916 0.27660286 -0.40846002 -1.0621045 0.35610634
0.49187014 0.35687026 -0.22851318 -0.08636578 -0.2931162 -1.400426 -0.054423753 -4.08765
-0.79805994
00000000: 7435 40bf e1b1 a53f f59f c4be 648b 83be
00000010: 1603 20bf 6f46 8ec0 94c0 37bf 0bea 95c0
00000020: d3ed 29c0 4a1c 3cc0 2db8 3ebf 6572 f3be
00000030: 2d9a 67c0 c7be e0be 1454 ce3e 792e 6fbf
00000040: a01b 2f3c a89f 333e aa85 173f 930f 92be
00000050: fef8 babf 2146 fbbd 5520 343e ff87 40bf
00000060: 74d3 28bf 6262 d73d b21e 1f3e ef13 6a3d
00000070: e49e 8d3e ac21 d1be 0af3 87bf 9253 b63e
00000080: 67d6 fb3e b3b7 b63e 5cff 69be 8be0 b0bd
00000090: 5413 96be 2941 b3bf 71eb 5ebd 07ce 82c0
000000a0: a84d 4cbf
