Models_Q1/Model-b11-e32-h64.pth (torch, 113382 bytes, 5 tensors)

emb.weight f4 [53, 32]
000000 9a 5e 75 be 2f 44 2a bf 88 c0 a4 3e b1 60 32 3f
       -0.23961869 -0.6651029 0.3217814 0.6967879
000010 65 49 e1 bf b3 5f 00 3f dc bf 0b be a8 61 1b bf
       -1.7600523 0.50146025 -0.13647407 -0.60695887
000020 23 fe d4 be 44 78 86 bf 10 52 5d 3f 78 3b 8f 3f
       -0.4160014 -1.0505452 0.8645334 1.1190023
000030 14 b2 91 bf 1b 74 bd 3f 87 de a3 3f 2b f6 93 be
       -1.138247 1.4801058 1.2802285 -0.2889875
000040 0c 0e 4b bf e7 01 1d 40 3e 37 f9 3e 0e da 43 3f
       -0.7931831 2.453241 0.4867496 0.765046
000050 16 b3 25 40 85 dd 03 3f 4a d7 2e 3f e2 64 36 bf
       2.5890555 0.51509887 0.68297255 -0.71247685
000060 6d 8c be be 39 b6 63 3e 27 76 35 3f 52 fd 8e 3f
       -0.3721651 0.22237481 0.7088341 1.1171057
000070 6f 9a a8 be 2a 60 35 3f 3e 26 9e be d1 0c 0e c0
       -0.32930323 0.7084986 -0.3088855 -2.2195323
000080 41 2f 35 3e 76 77 0b be 17 69 36 be f6 a1 fd 3d
       0.17693807 -0.1361979 -0.17813526 0.12384407
000090 12 d5 4d 3d e1 4f f4 be 6d c6 bb be 29 40 d2 be
       0.050252028 -0.47717193 -0.36674824 -0.41064575
0000a0 39 4b dd bd 36 bf 7f 3d 0e 80 35 3e 30 eb 9f 3e
       -0.10805363 0.062438212 0.1772463 0.3123412
0000b0 fa 5c 12 bf dd 22 d2 bf bf 3e 05 bf cb 67 45 3e
       -0.5717312 -1.641689 -0.5204887 0.19277875
0000c0 ff 7d 62 3e 1d d8 9a 3f 68 f3 71 bf 5f f9 92 be
       0.22118376 1.2097203 -0.94512033 -0.2870588
0000d0 a7 5d 3c 3c a1 67 55 3d 1f 1e bf 3d cf 2e da bd
       0.011496938 0.05210078 0.09331917 -0.10653459
0000e0 01 8b da 3e 86 68 b3 3b 8e 3b b9 3f d6 ca b0 be
       0.42684177 0.0054751066 1.44713 -0.34529752
0000f0 72 f9 90 3e ef 98 a5 bf a3 ae bb be a3 c8 f4 be
       0.28315312 -1.2937297 -0.36656675 -0.47809324
000100 1b ea c4 bf b4 1a 9b 40 54 fa 97 40 36 d2 dc 3f
       -1.5383943 4.8470097 4.7493076 1.7251651
000110 4f 27 8f 3e 55 55 a9 3f 60 88 6a bf 42 ea a0 c0
       0.27959678 1.3229166 -0.9161434 -5.028596
000120 4e 36 cf bd fb 1e 03 40 b2 62 4b c0 21 49 a1 40
       -0.1011778 2.048766 -3.177899 5.040177
000130 00 40 50 c0 22 dc 5d c0 d5 23 69 3d cb 74 a6 c0
       -3.2539062 -3.4665608 0.056918938 -5.201757
000140 d4 cf 3c 3f c1 f1 45 40 62 e9 04 c0 94 bf ab bf
       0.7375462 3.0928805 -2.0767446 -1.341784
000150 43 8b 34 40 48 c8 13 bc 7d b0 50 3f f6 2e 97 40
       2.8209999 -0.009019919 0.815193 4.7244825
000160 55 da f0 c0 23 ae e7 3e e0 34 c4 3e 5b 0f 9d 40
       -7.526652 0.45250043 0.3832159 4.9081244
000170 b9 d9 cd 40 74 ab 4d 40 93 c7 12 40 e0 b1 c2 3f
       6.4328275 3.2135897 2.293431 1.5210533
000180 93 73 07 c0 99 ee 57 bf 43 84 f4 3e 82 4f 9e 3f
       -2.116429 -0.84348446 0.47757158 1.2368014
000190 28 cd ec be 9f d7 16 40 86 57 00 bf 41 b8 03 3e
       -0.46250272 2.3569105 -0.5013355 0.12863256
0001a0 6b 2e b4 3d 02 07 14 c0 a2 07 7e bf 3c 0b a8 bf
       0.08797916 -2.3129277 -0.99230397 -1.3128428
0001b0 e4 c0 3c bf 26 28 ac 3e aa e6 61 bf fa 6c 0b 3f
       -0.7373183 0.3362438 -0.8824259 0.5446316
0001c0 eb 16 ee 3e 6b 32 95 3e fe 9f 4c bf 04 de 20 c0
       0.4650186 0.29140028 -0.7993163 -2.5135508
0001d0 46 7d d8 3f ec be 7a be 14 7f d5 3f 8e 31 98 bf
       1.691323 -0.24486893 1.6679406 -1.1890123
0001e0 90 89 01 c0 5a 57 1f 3d 12 c5 89 c0 56 05 86 bf
       -2.0240211 0.038901664 -4.3053064 -1.0470378
0001f0 c1 07 55 40 62 f3 6b c0 ad e3 7f 40 2a 00 43 bf
       3.3285983 -3.68673 3.9982712 -0.76172125
000200 7b 8a 4e 3f 45 f4 d4 3f 3f 5b 8a 3f 0d 62 46 3f
       0.80680054 1.6637045 1.0809096 0.77493364
000210 4c f7 bd be 81 40 e7 3e 36 3a 9d bf 5f d9 cc 3d
       -0.37102735 0.451664 -1.228339 0.10002398
000220 ab 26 10 40 4d 86 d2 3e c7 af a8 be 77 77 e3 bf
       2.25236 0.41118088 -0.32946607 -1.7770833
000230 3f 78 e0 bf 0d 24 c3 3e bb 89 57 40 13 ff b6 be
       -1.7536696 0.38113442 3.3677814 -0.3574148
000240 b1 63 05 c0 45 74 a5 bf 5a 6b ac 3f 53 4f 58 3c
       -2.0842097 -1.2926108 1.3470261 0.013202506
000250 68 1c b2 bf b6 fd 4d bf 92 04 29 c0 7a 1c 31 be
       -1.3914919 -0.8046526 -2.640904 -0.17296019
000260 c8 0a fa be 8d 0c 1a be 43 34 d1 3f c9 7f 78 bf
       -0.4883635 -0.1504385 1.6344074 -0.97069985
000270 f7 e0 07 40 5c 3b 6b bf bc 00 13 bd 42 99 62 bf
       2.1231058 -0.9188745 -0.035889372 -0.885151
000280 04 d2 56 3f 30 07 ec bf a9 49 dc 3f 1d 65 a8 3e
       0.8391421 -1.8439693 1.7209979 0.32889643
000290 a5 1e 19 3f 35 15 23 c0 b6 b5 db bd c1 ef e2 3e
       0.59812385 -2.5481694 -0.10728018 0.44323543
0002a0 1b ed a7 bf 58 9a a4 3f 72 c8 6c c0 f5 96 45 bf
       -1.3119234 1.2859602 -3.6997342 -0.7718347
0002b0 5a b4 1a bf 2f 05 88 bf b7 10 9f bf 57 1a ba 3e
       -0.60431445 -1.0626582 -1.2426976 0.3634822
0002c0 15 eb f7 3e ec 81 02 40 94 10 e5 be 3d da 21 40
       0.4842154 2.0391798 -0.4473921 2.5289452
0002d0 b9 2e 6a 3f 14 fe a2 bd 90 d7 53 3e 7d c1 2d c0
       0.91477543 -0.07958618 0.206877 -2.7149346
0002e0 03 e3 66 bf b9 0d b9 be c7 57 2d 3e ab cb 46 40
       -0.9019014 -0.36143282 0.16928016 3.106181
0002f0 03 fa 4d 3f cb 42 81 bf 6f ce db 3f 60 48 2e 40
       0.8045961 -1.0098509 1.7172374 2.7231674
000300 2c f2 75 bf b5 85 5e bf d5 ff ba 3f 41 eb b4 3f
       -0.9607265 -0.8692277 1.4609324 1.4134294
000310 41 e4 71 3f 13 0e 11 c0 a2 23 17 c0 90 32 74 bf
       0.9448891 -2.266484 -2.3615499 -0.9538965
000320 7d e2 a4 3c 6a b8 21 40 61 52 62 3e 56 49 d9 bf
       0.02012753 2.5268807 0.22101738 -1.6975505
000330 4e 30 03 be d0 11 87 bf 43 4c 5e 40 44 f6 8a 40
       -0.12811396 -1.0552311 3.4734046 4.3425617
000340 22 12 eb 3e 33 40 3a 3f 63 44 a4 3f 18 6e 7c c0
       0.45912272 0.7275421 1.283337 -3.9442196
000350 3d 3c 26 40 71 77 46 c0 94 61 30 3f 36 ca a2 3e
       2.5974267 -3.1010401 0.6889889 0.317949
000360 96 03 8a 3f 48 fe 3c 40 f3 08 4a c0 57 6b 38 bf
       1.0782344 2.95302 -3.1567962 -0.7203879
000370 65 ec 75 c0 f2 b5 f5 be 9f eb 67 be f2 87 9b 3d
       -3.8425534 -0.47990376 -0.22648476 0.07594289
000380 f1 30 06 c1 ee 88 3c 3e a0 a2 a0 40 af 44 e9 40
       -8.386949 0.1841161 5.0198517 7.289634
000390 3e 76 d7 bf c6 7d 06 c0 f1 9a a1 c0 a1 99 dd 40
       -1.683296 -2.1014266 -5.0501637 6.9250035
0003a0 2e e0 42 40 7e 73 ef 3e aa f0 a4 40 50 df c7 c0
       3.0449328 0.467678 5.154378 -6.24601
0003b0 27 d2 53 bf 0d 7e 34 c1 4b a0 55 3f 0a 4d 97 c0
       -0.8274254 -11.280774 0.8344771 -4.728154
0003c0 39 7f 40 bf 03 8d 77 3f b7 5f 69 3f c4 05 b8 40
       -0.75194126 0.9669954 0.91161674 5.750704
0003d0 44 81 8e c0 6c 4a 1f bf aa 96 fe 40 65 1b b6 3f
       -4.4532795 -0.62222934 7.9558916 1.422711
0003e0 15 e1 9d bf c2 ed df 40 4e fe f0 bf 03 cd 84 40
       -1.2334315 6.997773 -1.8827608 4.150026
0003f0 63 90 81 c0 fd 21 27 41 52 26 ff c0 b7 bd cf bf
       -4.0488753 10.445798 -7.973428 -1.6229771

lin1.weight f4 [64, 352]
000000 a8 00 82 3d c6 5a 91 bc 70 5c 2f bd 63 1d 0d 3b
       0.063477814 -0.01774348 -0.042812765 0.0021532408
000010 25 cf b0 3c 8f 20 02 3d d3 c2 66 bd 86 34 00 3e
       0.02158315 0.03176933 -0.056338143 0.12520036
000020 e9 a2 ad 3c ae 19 94 bd fc 66 5f 3e a5 7f 20 bc
       0.021195846 -0.072314605 0.21816629 -0.009796058
000030 76 02 c2 bd 2d b2 4e 3d d5 d5 4e 3d 9e 1f 1e 3d
       -0.09473126 0.05046289 0.050496895 0.03860437
000040 a2 eb cf bc d6 ea 43 3d 68 1a 11 3d 41 83 4e be
       -0.025380913 0.04783138 0.035425574 -0.20167257
000050 97 23 ed 3d 46 63 03 be 2d 80 a6 bd 06 d8 b9 bc
       0.11579054 -0.12830839 -0.08129916 -0.022686016
000060 82 09 d3 bc 5a b6 13 bd 0b 07 90 3c 1e 12 f3 bd
       -0.02576137 -0.036062576 0.017581483 -0.1186869
000070 8e 43 1b be f2 d7 9b bc e7 4b 8c bd 9d 8e 35 bd
       -0.15162489 -0.01902387 -0.06850415 -0.04432546
000080 1e 7f 30 3d a8 c0 0d bd 6f 84 ca 3c f0 28 32 3d
       0.04308998 -0.03460756 0.024721352 0.043496072
000090 91 b7 02 3e 15 e4 82 bd 63 e4 ca 3c 6a 8b b3 3c
       0.12765338 -0.063911594 0.024767106 0.021917064
0000a0 7b 45 b9 bd bd e8 82 bd 42 38 dd bc 38 96 9f 3c
       -0.090464555 -0.063920476 -0.027004365 0.01948081
0000b0 91 4b 89 bd 71 c9 fb bb 21 f2 0b 3c 26 4c ef bd
       -0.06703866 -0.007683926 0.008541615 -0.11684446
0000c0 df 66 8a bc 7e 35 6a 3d bb 79 5b 3d af 5a 98 3d
       -0.016894756 0.05717992 0.053582888 0.074391715
0000d0 5c 9d 24 be 64 d0 40 bb 59 cc d9 bc d4 db a7 bd
       -0.16075653 -0.0029421085 -0.026586698 -0.08196226
0000e0 98 e8 68 bc be 9c 51 bc fb 13 ee bd a0 5b e3 3d
       -0.014215611 -0.012793718 -0.11624905 0.111014605
0000f0 4b cf 87 3d 71 c9 ec 3c 65 fd fb 3c d8 e4 8a bc
       0.06631335 0.028904648 0.030760476 -0.016954824
000100 cc dc 43 3d 54 4e e3 bc 83 68 a7 bd 3b f7 e6 39
       0.04781799 -0.02774731 -0.08174231 0.0004405322
000110 0b 45 c9 3a 6c 38 a8 3d 61 05 47 bc b2 46 fc 3c
       0.0015355659 0.082138866 -0.0121472785 0.030795429
000120 98 90 6c 3d 11 d5 f8 3d c3 96 57 3e a6 82 46 3d
       0.057755083 0.12150014 0.21053605 0.04846444
000130 a1 57 66 bd 46 cd e3 3d 1f 60 8e 3d 9a b3 ca bd
       -0.056235913 0.11123137 0.069519274 -0.098975375
000140 4b 2a cd bd 19 9a e3 bd 2c 6c b9 bb c5 cf 3c 3c
       -0.10017832 -0.11113376 -0.005658647 0.0115241455
000150 be 98 8c bd a5 8e a5 bc c0 5e 8c bd 25 61 04 bd
       -0.06865071 -0.02020962 -0.0685401 -0.032319207
000160 bb 78 44 3d ca c6 f6 3c a1 37 f8 3c ac 52 84 bd
       0.0479667 0.030124087 0.030299963 -0.06461081
000170 1d c6 f7 3c 4d 70 95 bd db 02 a4 bd 7b ca 61 3d
       0.030245835 -0.0729681 -0.08008357 0.05512474
000180 06 c4 42 bd 71 ae 9f bc 40 5d 4c be 80 30 b2 bc
       -0.047550224 -0.01949236 -0.19957447 -0.021751642
000190 36 1d de 3d 32 37 25 3e 16 0c 5f bd 88 04 58 3d
       0.10845415 0.16134337 -0.054454885 0.052738696
0001a0 69 9c 6f 3d db 37 72 3c ce a9 df bd ab f7 f8 bd
       0.058498774 0.014783825 -0.109210595 -0.12156614
0001b0 a9 43 e5 bd 58 c4 5b 3c 73 1c ab 3d 13 52 bc bc
       -0.11194546 0.013413511 0.08355036 -0.022988355
0001c0 e5 d8 ea 3b 27 ff b3 3d c1 b9 2e bd bd d2 89 3e
       0.007166969 0.08788901 -0.042657617 0.26918593
0001d0 88 7a 80 3a 4b c7 05 3d 19 1b c4 bb c3 95 ca bc
       0.0009802142 0.032660764 -0.0059846756 -0.024729615
0001e0 46 ce 84 bd 12 0c 47 3e 9b 1a ab 3c da c7 0e 3d
       -0.06484656 0.19438198 0.02088671 0.034858562
0001f0 b7 60 0f be 71 38 68 bd 78 e3 06 3e 35 99 f3 3d
       -0.14001738 -0.05669445 0.1317271 0.11894456
000200 b6 f9 3e be 19 94 38 3d 03 ae 9f bc 96 96 37 be
       -0.18649945 0.045063112 -0.019492155 -0.17928538
000210 02 e5 81 bd c4 f4 a8 3d 76 fa d0 bd 96 d4 0c bd
       -0.06342508 0.0824981 -0.10204022 -0.034382425
000220 e7 80 82 3d ed 8c 52 bd 04 c3 3c 3e 7d 12 08 be
       0.063722424 -0.05140393 0.18433768 -0.13288303
000230 fb 55 d1 bd 69 d5 ad bd 6c a0 5b be 40 d3 36 3e
       -0.102214776 -0.084879704 -0.21447915 0.17854023
000240 a4 d2 6f 3d 10 93 01 3e b2 bd b7 bb 9f 41 61 be
       0.058550492 0.12653756 -0.0056073302 -0.21997689
000250 16 a2 c5 3d 7f e6 3f bd 0a ca 90 3a b1 a0 56 3d
       0.09650056 -0.046850678 0.001104654 0.05239934
000260 47 41 1b bd 4f 81 fd bd 2f ec 3b bd 54 b7 82 bc
       -0.03790405 -0.12378179 -0.04587954 -0.015956558
000270 f0 24 bb bd 03 70 8f bb 76 35 45 3d 74 60 bd 3c
       -0.09137905 -0.0043773665 0.048146687 0.023117281
000280 07 2a 28 3e a0 08 88 bd 19 04 16 be ba e5 08 be
       0.16422282 -0.0664227 -0.1465 -0.13368884
000290 a2 0e 80 3c 88 13 91 bc 3d a8 92 bc 4d ae 06 3d
       0.015631977 -0.017709509 -0.017902488 0.03288107
0002a0 08 df f2 bd ff 4b a1 bd b1 96 ce 3d cb 9b b8 3d
       -0.11858946 -0.07875823 0.10087336 0.0901409
0002b0 a4 24 70 3d 9d 28 98 bc 68 24 69 bd 37 8f 49 bd
       0.058628693 -0.018574053 -0.056919485 -0.049208846
0002c0 7a 0a ce bd 49 07 e0 bd 30 b8 9f 3d 9a 62 2b 3e
       -0.10060592 -0.109388895 0.07798803 0.16736832
0002d0 f8 a9 cc bc 66 4a 8c 3c 30 d7 04 3d 29 15 1e be
       -0.024983391 0.01712532 0.03243178 -0.1543776
0002e0 1d 8e e1 bd c8 a3 29 be 36 9f c2 bb bc c8 7a 3d
       -0.11013434 -0.16566384 -0.0059393896 0.06122659
0002f0 85 0f db 3d 1e ee 1e bc 87 4e bf 3d 01 72 f0 bd
       0.106963195 -0.009700326 0.0934115 -0.117404945
000300 46 dc 9c 3d 59 5c a8 bc b6 53 8c 3d 1b ab e8 3c
       0.07659201 -0.020551847 0.06851904 0.028401902
000310 38 1f a4 bb af fb 7a 3d d5 5c ea bd db 85 95 3c
       -0.0050086044 0.06127518 -0.114434876 0.018252304
000320 d7 82 3a 3e 44 5d 1c be 30 91 20 3d 2a bb ff bd
       0.18213974 -0.15269953 0.03920096 -0.124868706
000330 be a5 8c bd 82 c5 94 3d c2 12 29 3d 2b d2 d7 3d
       -0.0686755 0.07264234 0.041277654 0.10538133
000340 88 4a 77 3e c8 e5 7a bd 50 86 9e be fd ef 04 3e
       0.24149525 -0.061254293 -0.30961847 0.12982173
000350 87 13 8d 3d 26 6d f2 bd 44 1e 04 be 3f b2 89 3c
       0.0688849 -0.11837225 -0.1290217 0.016808627
000360 99 71 cf bc c3 12 7d 3d e0 c8 15 3d cf c1 74 be
       -0.025322722 0.06178547 0.036568522 -0.23902057
000370 8f 31 47 be fa f2 ce bd 7d c5 82 3d 9c b6 a4 3d
       -0.19452499 -0.10104938 0.06385324 0.080426425
000380 4b 69 15 3e 37 f4 53 3e 07 8e 34 3d 74 ab f5 3d
       0.14590947 0.2069863 0.04408076 0.11995593
000390 12 1e c2 be 99 a7 a8 3d 93 e8 13 bd a6 1a cc bd
       -0.37913567 0.08235092 -0.036110472 -0.0996602
0003a0 25 1f 0d 3d d8 3e 2c 3e f3 56 c8 be fc ff 16 3d
       0.03445353 0.16820848 -0.39128837 0.03686522
0003b0 91 a9 31 be de 67 69 3d 5c aa 6c 3e dc d3 40 bd
       -0.1734984 0.05698382 0.23111862 -0.047077045
0003c0 e9 5b 16 be 67 ba 2f be ac 52 1d 3e 29 24 29 be
       -0.14683498 -0.1716095 0.15363568 -0.165177
0003d0 2a 5a c6 bc e4 1d 3a 3d b9 68 09 be ab a4 c2 bc
       -0.024212915 0.045438662 -0.13418855 -0.02376016
0003e0 1a 61 ee bd ee b3 01 3c 5d 8e bf bb bb fe 02 be
       -0.116396144 0.007916434 -0.0058458284 -0.12792484
0003f0 ed ac 85 3e ac 37 f0 3d 3e 44 8c bc eb 51 f8 bd
       0.26108494 0.117293686 -0.017122384 -0.121249996

lin1.bias f4 [64]
000000 56 22 e4 3e 49 0d 46 3e 0a 93 4c 3d e2 a8 21 3e
       0.44557446 0.19341005 0.049944915 0.1578708
000010 d3 6a 03 3e 5e bd 74 3d 40 9d 80 be 18 6d 9f be
       0.12833719 0.059750907 -0.25119972 -0.3113792
000020 bb 4c c0 be d5 3d a6 3d c0 68 1a 3e f7 83 50 be
       -0.3755854 0.08117262 0.15079021 -0.2036284
000030 6e b8 a7 bc 4b 7e 43 bf 13 bb 5c be ac db bf be
       -0.020473685 -0.7636458 -0.21555738 -0.37472284
000040 9c 6e 0e bf 20 38 01 bf 58 9a 94 3e b0 64 a7 bc
       -0.55637527 -0.50476265 0.29024005 -0.020433754
000050 41 89 36 3b 50 26 39 3e 37 3c 8e 3e 00 6e 6e 3e
       0.0027852806 0.18081021 0.27780315 0.23284149
000060 81 f5 02 3d 3d ac a1 3e 5b 86 ac be 3d b3 9a 3e
       0.031972412 0.3157672 -0.33696255 0.30214873
000070 18 eb 02 be 54 4e 2a be a8 4d 94 be f9 16 9b be
       -0.12784994 -0.16631442 -0.28965497 -0.30290964
000080 62 fb 0b bf 12 9d f5 3e c5 36 a9 3d 14 aa 04 3e
       -0.54680455 0.47971398 0.082623996 0.12955505
000090 0e 42 eb 3e 3b 1b ef be 2a f6 09 3e 6d 25 9c 3e
       0.45948833 -0.46700463 0.1347281 0.30497304
0000a0 ca 5d 70 bd f2 2a 57 3c d4 3f 47 bd 13 ca 6a 3e
       -0.058683194 0.013132798 -0.048644856 0.22928648
0000b0 88 f1 0a 3f 16 c8 98 3e fd 49 9f 3e 9b 5f 01 bf
       0.542748 0.29840153 0.31111136 -0.5053651
0000c0 26 0e f9 be 65 1d 9e be 6e a1 d3 3e aa 99 db 3e
       -0.48643607 -0.308818 0.413341 0.42890674
0000d0 1a 96 f8 3d 38 be 5c bd ce 1c eb 3e 08 ec 06 bf
       0.121380046 -0.053892344 0.45920414 -0.52703905
0000e0 5c 41 86 3d 75 ac 9f be 56 f7 8f 3e 6d 0b 24 3e
       0.06555435 -0.31186262 0.2811839 0.16019984
0000f0 33 84 0e 3e d9 0c 9d bd 2e 75 c1 3e 0d 3f 92 3e
       0.13917617 -0.07668466 0.37784714 0.2856373

lin2.weight f4 [53, 64]
000000 69 d6 4f bf 3a 0b 26 3f e3 9e 96 3f 31 9b 79 bf
       -0.8118654 0.6486088 1.1767238 -0.9750243
000010 06 2c 6b 3f 01 cd 8e bf a2 92 8b 3f 03 9a a6 bf
       0.9186405 -1.1156312 1.0904124 -1.3015751
000020 43 1a 0a c0 20 7c 19 40 aa 14 a4 3f 4b 85 a2 bf
       -2.157853 2.398201 1.2818806 -1.2696928
000030 7c 77 aa bf 3b 3d c9 3f 95 83 30 3f cd 53 84 be
       -1.3317714 1.5721811 0.6895078 -0.25845185
000040 e4 78 49 bf 44 69 30 c0 72 27 41 3f 87 70 e9 bf
       -0.7870009 -2.756425 0.75450814 -1.8237466
000050 0c 44 91 bf a9 a7 a7 3f 5f 16 aa be 4d 09 31 bf
       -1.1348891 1.3098041 -0.33220193 -0.69154817
000060 79 e5 c5 bf 19 41 da bf 3b fa d1 bf 3a 41 83 3f
       -1.5460654 -1.7051116 -1.6404489 1.025428
000070 19 75 3f bf 04 8d 89 3f 36 f6 df 3e ea 39 19 bf
       -0.7478805 1.074616 0.43742532 -0.59853995
000080 d4 39 96 bf b8 31 92 bf 6f e6 4f bf b5 4f a5 bf
       -1.1736398 -1.1421423 -0.8121099 -1.291495
000090 3b 25 19 c0 09 8f e0 bf 22 7a 2a 3f fa ed 32 bf
       -2.3928974 -1.7543651 0.6659261 -0.69894373
0000a0 2f 36 08 3e 1d 8a b9 3f d0 f4 20 bd 81 f4 1b 3f
       0.1330192 1.4495274 -0.03929597 0.6091996
0000b0 0d 5b bb be 3a 01 d0 3e 04 6b 11 be e7 bd 82 be
       -0.36592904 0.40625936 -0.1420098 -0.2553551
0000c0 3d 43 88 3f 81 ad 9a 3e 70 37 a0 3f 41 44 a7 3e
       1.064552 0.30210498 1.2516918 0.3266926
0000d0 09 c3 ec be 77 31 9f bf a2 e2 8a 3f 2d 50 b7 bd
       -0.4624255 -1.243697 1.0850413 -0.08950839
0000e0 34 c4 bc 3f 7b a8 9c be d8 7f 30 c0 35 86 3a bf
       1.4747376 -0.3059729 -2.757803 -0.72861034
0000f0 a0 f1 98 3f eb 1f 7d bf d7 a4 3e bf 44 2e d2 3f
       1.1948738 -0.9887683 -0.74470276 1.6420369
000100 39 0c 96 bf ac 0d d6 3f 15 fc ef 3f fa 87 dd bf
       -1.172248 1.6722922 1.8748804 -1.7307122
000110 8d 70 b6 3f fd 61 bc bf a2 13 dd 3f 02 7a 0e c0
       1.4253098 -1.4717404 1.7271616 -2.2261968
000120 7d a2 41 c0 ad 3e 45 40 c3 de cd 3f ac 5a b8 bf
       -3.0255425 3.0819504 1.6083606 -1.4402671
000130 f3 bb bb bf 96 77 f2 3f 15 71 c6 3f 3c 62 2a bf
       -1.4666733 1.8942745 1.550326 -0.66556144
000140 89 89 5b bf 98 e7 5f c0 90 53 bf 3f f5 e4 0d c0
       -0.85756737 -3.4985104 1.4947376 -2.2170994
000150 cf aa 55 bf 38 a9 01 40 47 f5 5d 3e e8 ba 52 bf
       -0.8346376 2.0259533 0.21675597 -0.82316446
000160 e9 3f 37 c0 a9 84 06 c0 63 be 2f c0 2e e7 b9 3f
       -2.8632758 -2.101847 -2.7459953 1.4523675
000170 ef 4b a8 bf cc 66 8b 3f a2 e1 9b 3e c0 11 68 be
       -1.3148173 1.0890746 0.30445582 -0.22663021
000180 d0 61 bb bf 1a 7c 25 bf 5c 97 59 bd 72 a6 aa bf
       -1.4639225 -0.6464249 -0.053122863 -1.3332045
000190 07 0a 3f c0 15 f2 27 c0 ca 77 35 3f 03 f8 55 bf
       -2.984987 -2.6241505 0.7088591 -0.8358156
0001a0 0e 2e d1 bc 93 fc 8f 3f aa 5c 3f be 4d c2 bd 3e
       -0.025534656 1.1248955 -0.18687692 0.37062302
0001b0 d2 84 38 3e 7d 0e d2 3e bf 93 e7 3e 95 76 8e be
       0.18019417 0.4102668 0.4522991 -0.27824846
0001c0 bf ea 30 40 46 24 e2 be b5 b6 b4 3f 32 04 4f bf
       2.7643278 -0.441683 1.4118258 -0.80865777
0001d0 bb e8 a5 be e2 d4 0a c0 7d 78 10 40 e1 9b 1e bf
       -0.32404122 -2.1692433 2.257354 -0.619566
0001e0 d4 2f f2 3f 80 0d 52 bf 41 eb 6e c0 68 c9 bd bf
       1.8920846 -0.8205185 -3.7331088 -1.4827089
0001f0 ea 5b 03 40 18 c4 07 c0 8f db a7 bf d4 79 1c 40
       2.052485 -2.1213436 -1.3113879 2.4449358
000200 44 04 86 bf 96 3f 34 3f ae cd 19 bf ca 53 a6 3e
       -1.0470052 0.70409524 -0.6007947 0.324858
000210 97 7a 70 bf d5 84 74 3f fd fb 0a 3e 7d 36 2a 3e
       -0.9393706 0.95515186 0.13572688 0.16622348
000220 13 95 56 bf a3 82 04 be 2c c8 a8 3f 89 1d a3 be
       -0.8382122 -0.12940459 1.3186088 -0.3185847
000230 c3 a0 9c bf 6e 4b 7b bf 9e ee cf be 0e d5 a2 3f
       -1.223656 -0.9816197 -0.40611738 1.2721269
000240 ef 7f 84 3f e2 8b ae 3f f5 7e 17 bf 75 de bd be
       1.0351542 1.3636439 -0.59178096 -0.37083784
000250 1c f1 46 be 72 b3 0c 3e 9e fd 24 3e 5e 18 84 be
       -0.19427913 0.13740328 0.16112372 -0.2579984
000260 6a 34 ca be bd 2f 35 3d b7 cb a6 bf 0f 19 48 3f
       -0.39493114 0.04423498 -1.3030919 0.78163236
000270 2b 95 8f bf 38 88 d9 bd 0e 8c cc 3d ae 21 85 bf
       -1.1217397 -0.10621685 0.09987651 -1.0400903
000280 4b 02 22 3f ad 19 d1 bf 59 23 7a 3f 39 ac 94 bf
       0.6328475 -1.6335961 0.97710186 -1.1615058
000290 94 a1 17 bf 1e ec c9 3f e1 4f ac bf f0 f4 b2 3e
       -0.59230924 1.5775182 -1.3461877 0.34952497
0002a0 df 79 15 3d b1 5c d3 bf d1 f3 39 bf bb 28 35 3d
       0.03649318 -1.6512662 -0.7263766 0.044228297
0002b0 64 86 9b 3f fb b1 07 40 0a 43 20 3e 8f d5 29 40
       1.2150388 2.120238 0.15650573 2.6536596
0002c0 0c 29 09 3f ff 71 ad 3e 59 46 77 bf 46 25 00 c0
       0.5357826 0.33876035 -0.96591717 -2.002275
0002d0 89 9a 6c 3f 3e 98 56 bf ba d1 98 bf 39 ef cc bf
       0.924233 -0.83826053 -1.1939003 -1.6010505
0002e0 77 1c c7 bf 07 80 d2 be e5 25 ed bf 28 64 21 bf
       -1.5555562 -0.41113302 -1.852719 -0.6304345
0002f0 7c 6a 19 bf da ef 34 bf 76 d9 38 c0 b5 66 92 3e
       -0.5992811 -0.70678484 -2.8882728 0.28593984
000300 a6 96 24 3f 7c 1f 21 bf 43 6f 2a bf e4 2d ca 3d
       0.6429237 -0.62938666 -0.6657602 0.09872034
000310 1c ae 71 3f e2 d7 14 3f ba c0 e8 bf 31 45 41 3f
       0.94406295 0.5814191 -1.8183815 0.754962
000320 dd 44 04 bf 13 d3 3b be c7 1c 51 be 4e 69 8d 3f
       -0.5166758 -0.18342237 -0.20421134 1.1047761
000330 f4 f2 b9 bf 10 5c 71 bf 8c b0 9c 3f 96 c1 99 3f
       -1.4527268 -0.942811 1.2241378 1.2012203
000340 9c 51 91 bf 11 8e 6d bf f8 f5 cb 3e 47 08 ce 3e
       -1.135303 -0.927949 0.39836097 0.4024069
000350 2b 8d 41 3f 48 99 b5 3f f7 3e b8 bf 44 c7 5a 3f
       0.7560603 1.4187403 -1.4394215 0.85460305
000360 73 bf 97 be 8f 94 a6 bf 64 b0 e2 3e ea 19 b2 be
       -0.29638252 -1.3014086 0.442752 -0.34785396
000370 2e af 17 3e ba 71 a4 3d 6d ab 68 3f 87 2e 8c bf
       0.1481292 0.08029504 0.90886575 -1.0951699
000380 79 5c 88 be 6e 2e f2 bd 9e 15 4e be 67 0c ed 3e
       -0.2663305 -0.11825262 -0.20125434 0.46298525
000390 fc b6 95 bf 10 fa cc be 4e 05 e0 bc 82 05 a9 3e
       -1.1696467 -0.40034533 -0.02734628 0.33012015
0003a0 fb b7 eb 3f 20 6d 51 3f ac ee f5 3c b9 62 5c be
       1.8415521 0.81807137 0.030021034 -0.21522035
0003b0 03 11 96 3f 61 78 a9 3e 2e 49 5d bf 55 6d 60 3f
       1.1723942 0.33099654 -0.8643979 0.8766683
0003c0 91 61 33 3f 54 cb 9a 3f 14 e1 49 3e 1f e9 d3 be
       0.7007075 1.2093301 0.19714767 -0.41388795
0003d0 36 e5 fa 3e 6a 13 61 3f d0 6b 6a bf b0 b7 5a 3f
       0.49003 0.8792025 -0.9157076 0.85436535
0003e0 68 f1 8a 3e e0 c7 a1 3e ad f3 9b bd 6e c7 52 3f
       0.27137303 0.31597805 -0.07614837 0.82335556
0003f0 81 6b 86 bf ae 04 fb be 2d 92 13 3f 48 ba 2e bf
       -1.0501558 -0.49027008 0.5764492 -0.6825299

lin2.bias f4 [53]
000000 d5 ed d6 bf 34 6b ad bf 70 68 87 c1 fe 39 85 c0
       -1.679133 -1.3548341 -16.925995 -4.163329
000010 44 81 d6 c0 b3 8b 11 c1 b6 92 1b c1 d4 da 73 c1
       -6.7032795 -9.096606 -9.723318 -15.240925
000020 7b 94 19 c0 2c f6 cf c0 d4 19 2d c1 92 58 60 c1
       -2.3996875 -6.4988003 -10.818806 -14.021624
000030 54 2d f0 c0 aa 56 f0 c0 78 61 c9 c0 2b 7b 07 c1
       -7.505533 -7.510579 -6.293148 -8.46757
000040 bf e2 10 c1 8f b5 83 c1 65 b0 83 c1 d7 11 67 c1
       -9.055358 -16.463652 -16.46113 -14.441855
000050 29 38 92 c0 5a c2 fa c0 0e 02 a1 c0 18 8d 53 c1
       -4.5693555 -7.8362246 -5.031501 -13.221947
000060 8f 70 75 c1 41 a1 0e 40 51 8a 32 3f d8 b1 bf 3f
       -15.33998 2.2285922 0.69742304 1.4976149
000070 53 01 69 3f 42 a3 ee 3f ab 6b 81 3e 72 d1 c4 be
       0.91017646 1.8643572 0.25277457 -0.38441044
000080 8b 11 06 3e 63 d1 26 40 23 6c 9a c0 55 cb f0 bf
       0.1309263 2.60653 -4.8257003 -1.8812052
000090 9d 4c 80 3f 00 1a 52 bd e4 c2 08 3f 67 2f 48 3f
       1.002338 -0.051294327 0.5342238 0.7819733
0000a0 5a 81 ab 3e 32 9c 8a c0 25 3e cb 3f 85 95 1c 40
       0.33497125 -4.331567 1.587834 2.446626
0000b0 76 a2 4e 3f 18 7f 28 3f f4 23 36 be 11 af 1d 3f
       0.80716646 0.6581893 -0.17787153 0.61595255
0000c0 ea 33 8e c0 aa d6 01 c0 b6 09 0b c1 91 7a fc c0
       -4.443837 -2.028727 -8.689871 -7.8899617
0000d0 2f 23 c2 c0
       -6.066795
