Models_Q1/Model-b1-e6-h8.pth (torch, 5003 bytes, 5 tensors)

emb.weight f4 [41, 6]
00000000: 6bcf 883d 9563 1a3e 6724 523f b656 bb3e
00000010: 56cd 82be 1bb0 aa3f cf2d 873f 9144 de3f
00000020: ea52 4e3e f67b 51bf 0222 f23e 3457 6dbe
00000030: 8632 0abe 3bc9 253f 6b4c d73f 17c2 c53f
00000040: 4b5e cbbf ad30 abbf 4e69 e33f 2fad 71bf
00000050: eb29 1240 3344 323d 24c1 d93f 1e47 7e3e
00000060: 9333 62c0 541e 5240 d1d8 8dbf 10af c7bd
00000070: 0598 a1bf 10f4 3f40 60d1 96bf 9d79 01c0
00000080: 975f ae3f c199 bf3e 3ded 95be 19c5 ddbf
00000090: 115a 93bf 2e6d b5bf 50d2 2640 8e7e 9b3f
000000a0: 3520 f2be 9b01 8d3e 88da 96bf 99d8 6840
000000b0: d189 c3bd 3da5 49bf bdc9 24c0 3f0e 0440
000000c0: 249f f83e f004 1a3f 8b15 93be a396 393e
000000d0: f771 50bf 03a3 e33f 7766 013d ab17 0ec0
000000e0: 95c6 e13e ab31 a53f 45bd db3f 97d0 3cc0
000000f0: ec73 4fc0 97af c93f e89a 84bf 5bad 5a3f
00000100: 9bbf a9be 0c94 13c0 98ee 98bf 05bd f8be
00000110: 52f6 c83f 0442 913f 443e 63bf 802f 5b3f
00000120: c985 dfbf 35a7 9d3f 819b 73be a45c ee3f
00000130: 0b5c 10c0 70e7 8d3f 79bb babf 9884 debf
00000140: 0075 be3f 999b 8c3f 6b57 dcbe 9250 9c3f
00000150: b6f6 b03f 86e8 e23f b165 0fbf c21b c23f
00000160: 20b3 4cbf 2fb0 a5bd 2d2a efbf 7ff1 613d
00000170: 2839 0fbe 84b3 0f40 a44c 3c3f c6c6 9e3f
00000180: 6574 b33f d4d8 efbe d9d1 37be f821 35bf
00000190: 5851 dbbf 0f4e b73e a13d e5be 4bd6 7ebd
000001a0: f793 2f3f 415d 8b3d 086e 2cbe 3efa 25bf
000001b0: 5c85 f03e 5b9e 88bf d2d5 983f 0c91 f83f
000001c0: a368 09be d8fd ba3f be09 2c3e b1c3 a3bf
000001d0: 7d52 cabe 5b7b 0d3f e568 863f 0eb4 673f
000001e0: 5cfa ffbe 8475 02bf ea5f 343f 065b 9c3e
000001f0: 0b96 9a3f d00e 283f 7638 6bbf b8f2 843f
00000200: ffdd 41bf 1783 b63e ff83 913f f00f a93c
00000210: c66b ef3f 704f ca3e 1be7 2140 b35f bd3e
00000220: 1ebe 053e 3238 fd3e d423 14c0 0db3 8bbe
00000230: aa73 57c0 3e27 7abf 1fcf 8abf d173 4c3d
00000240: 1d11 b43e 0668 003f 8726 833f ea87 e63f
00000250: c01f f33e 0ef2 b13e 5315 a73f ca36 2e3f
00000260: b671 05bf 46b6 9e3f 9b09 fd3f efd2 41bf
00000270: 758a 573e 3c00 c4be c751 f53e ac09 c7be
00000280: a5cb 4a3f faf4 763f 6357 ddbe 9b24 a53f
00000290: b9d4 823f 5827 8b3f 8b51 e5bf 0dfc c73f
000002a0: bfda 5b3f 4d3e 5ebf 9f4c 04c0 fa78 983f
000002b0: 9ce2 84bf f40e 2a3f 50d8 383f f7f6 f3be
000002c0: 8b03 c83c bb04 863f 5cbd 5d3f 1b9b d2bf
000002d0: c556 f2bf c85f 9cbf 97f8 05bd 5b32 5c3e
000002e0: 2127 c03f 01c4 3440 80c8 f13f 456a 003f
000002f0: abd3 09bf 61d0 cf3e 2edf a63f 52f2 813e
00000300: 0df2 ad3e 29f6 f6be ef74 7bbf c9b8 d6be
00000310: cf88 a3bf 21e0 bd3f 745f 41bf c15c febe
00000320: 25c5 f13f 5500 0f3e 338e edbf b66a d73f
00000330: 5207 8d3f c883 773f 6e58 633f 5a9d 943f
00000340: e5f1 e63f 07f1 0b40 eb97 0040 6a8b 72bf
00000350: 1e34 d63e a9e5 723e a008 b0bf 5fba 363f
00000360: 139d 55bf 46b0 8fbd c4cd b23f a627 ad3e
00000370: 075b ac3f 731f 73be 321a 3640 25b6 ff3e
00000380: 70c8 0c40 1d31 14c0 a9f9 563f 5baa 3cbf
00000390: e83f 963e 2a5e edbf d653 b83f 3d30 953f
000003a0: bbc8 74bf e9a3 72bf af1e 953e 38dc 9bbe
000003b0: fdf8 e3be c20e 1f3e f8ea d33f 90de 043e
000003c0: dc90 ca3e bf03 4440 4a9f aabf 92d5 8bbf
000003d0: 9e5f b0bf bd71 5c3f
0.06680187 0.1507705 0.82086796 0.36589593 -0.25547284 1.3334993 1.0560855 1.7364675
0.20148817 -0.81829774 0.4729157 -0.23177797 -0.13495836 0.6476018 1.6820196 1.5449857
-1.5888151 -1.337423 1.7766511 -0.9440488 2.2838085 0.04352207 1.7012067 0.24831817
-3.5343978 3.283101 -1.1081792 -0.097501874 -1.2624518 2.9992714 -1.1782646 -2.0230477
1.3622922 0.37421992 -0.2928256 -1.7325774 -1.1511861 -1.4173944 2.6065865 1.2147996
-0.47290197 0.27540287 -1.178544 3.63822 -0.09547771 -0.7876776 -2.5748131 2.0633695
0.48558915 0.60163784 -0.28727373 0.1812387 -0.81423897 1.7784122 0.03159186 -2.2201946
0.4409682 1.2905782 1.7167135 -2.9502313 -3.2414503 1.5756711 -1.0359774 0.8542077
-0.33153996 -2.305911 -1.1947813 -0.4858171 1.5700171 1.1348271 -0.88766885 0.85619354
-1.7462703 1.2316653 -0.23789789 1.8622022 -2.2556179 1.1086254 -1.4588462 -1.7384214
1.4879456 1.0984985 -0.43035445 1.2212088 1.382529 1.772721 -0.56014544 1.5164721
-0.79960823 -0.08090245 -1.8684746 0.05516195 -0.13986647 2.2453318 0.73554444 1.2404411
1.4019896 -0.46845114 -0.17951144 -0.7075496 -1.7134199 0.3580174 -0.44773582 -0.062216084
0.6858515 0.06804896 -0.16838849 -0.64834964 0.46976745 -1.0673326 1.1940253 1.9419265
-0.13418822 1.4608717 0.16800591 -1.2794095 -0.3951606 0.5526635 1.0500761 0.90509117
-0.49995697 -0.50960565 0.70458853 0.30538195 1.207704 0.656476 -0.9188303 1.0386572
-0.75729364 0.3564689 1.1368407 0.020637482 1.8704765 0.3951373 2.5297306 0.36987075
0.13060805 0.49456936 -2.3146868 -0.27285042 -3.3664346 -0.9771613 -1.0844458 0.04991514
0.35169306 0.5015873 1.0246133 1.8010228 0.4748516 0.34754986 1.3053383 0.6805235
-0.52126634 1.2399375 1.9768556 -0.75712484 0.21048911 -0.3828143 0.47913954 -0.38874567
0.79216987 0.96467555 -0.43230733 1.2901796 1.0221168 1.0871382 -1.791551 1.5623795
0.85880655 -0.86813813 -2.0671766 1.1911919 -1.0381656 0.66429067 0.72205067 -0.47649357
0.024415752 1.0470194 0.86617064 -1.6453584 -1.893273 -1.221673 -0.032707777 0.21503584
1.5011941 2.8244631 1.8889313 0.50162154 -0.53838605 0.40588668 1.3036859 0.25380188
0.33973733 -0.4823468 -0.982253 -0.41937855 -1.2776126 1.4834024 -0.75536275 -0.4968014
1.8888289 0.1396497 -1.8559021 1.682944 1.1017859 0.9668546 0.8880681 1.161052
1.804257 2.1865861 2.0092723 -0.9474398 0.41836637 0.23720421 -1.3752632 0.7137813
-0.834428 -0.07016043 1.3969045 0.33819312 1.3465279 -0.23742466 2.8453488 0.49943653
2.1997337 -2.3154976 0.839747 -0.7369744 0.29345632 -1.8544362 1.4400585 1.1655346
-0.9561879 -0.9478136 0.29124972 -0.3044145 -0.445259 0.15532973 1.6556082 0.12975526
0.39563644 3.0627286 -1.3329861 -1.0924551 -1.377918 0.8611105

lin1.weight f4 [8, 6]
00000000: 89a3 133f 4e86 8f3f 7fa4 583f c3c1 90be
00000010: e086 debd 9c16 20bf 6ab0 46be 1ebf 3cbf
00000020: e2ac 27bf 819b 69be 9b4c 5d3e b659 dfbc
00000030: 5730 18bd e68e 25bf 4429 20be 8121 913f
00000040: 8ef4 3dbd e699 bbbe 52ba 79bf bcde 3bbe
00000050: b628 d33e 4f92 e0be b45c fcbe 9a54 1d3e
00000060: 3f3c 01be 494c 1dbf a801 3d3f ce56 a03d
00000070: 85eb 083f 97fc 543f e583 26bf f258 16bf
00000080: 6b1e 043f 40fa 48be 5a7b 9ebe 576e 0bbf
00000090: 2bec 2bbf 2f5e e9be 51ef c7be 6ec9 50bf
000000a0: c0ec 9cbe 14b0 7ebf 7ec5 623f b304 f4be
000000b0: 6d68 ae3e bd41 0c3e edaf 9cbf af6a 183f
0.5767141 1.1212862 0.84626 -0.28272828 -0.10865569 -0.625345 -0.19403234 -0.7372912
-0.65498173 -0.22813226 0.21611254 -0.027264457 -0.037155475 -0.6467117 -0.15640742 1.133835
-0.046375804 -0.36640853 -0.9754993 -0.18346685 0.41241997 -0.43861625 -0.49289477 0.15364304
-0.12620638 -0.61444527 0.7383065 0.07829057 0.53484374 0.8319792 -0.65045005 -0.5872947
0.51608914 -0.19626713 -0.30953485 -0.5446524 -0.6715724 -0.4557967 -0.3904977 -0.8155736
-0.30649376 -0.99487424 0.885826 -0.47659835 0.34064046 0.13696952 -1.2241188 0.59537786

lin1.bias f4 [8]
00000000: f1af 4abf a7cd cdbe ed8c e53e ffae 9dbe
00000010: d333 433f 10f1 a0ba 4892 85bf 6a58 de3d
-0.79174715 -0.40195963 0.4483408 -0.30797574 0.7625095 -0.0012278873 -1.0435266 0.108567074

lin2.weight f4 [41, 8]
00000000: c658 21c0 12d5 e93f 1aa1 4440 f509 773f
00000010: 827c 41be a0d5 213f 8b8e 08be feff db3f
00000020: ad36 02c0 8933 b9be 6a16 9040 1e62 923f
00000030: 5602 df3e 84fa 04be a0ab 93bf 0ebb 2940
00000040: 3667 53c0 52b5 23c0 fcdf 0ec1 45eb 6e40
00000050: a3f6 8dc0 5cf5 28bf 11bc 423f 6077 9440
00000060: 01e4 86bf c125 2abe ca9b 66c0 1dfb 9f3f
00000070: 0e80 123f e8d6 4440 6745 fe3f 22bd 1e40
00000080: bf02 b03f 1025 dd3f 1017 4ac0 b628 393f
00000090: bdaa 2ec0 d8b6 5f3f d3b7 fa3e 5cc9 67bf
000000a0: 03bc 7e3f d1f3 7940 2032 3ebf 4d4b a73e
000000b0: 24f5 2cc0 5d11 963f 86d0 813e 1b8a f03e
000000c0: 17c8 61c0 dc2e 983f c446 1740 fae3 ac3f
000000d0: d18e 933f 742e 8ebe b4f1 103f b753 923e
000000e0: e258 cf3f 6868 ac40 7990 813f 4b6f ce3e
000000f0: b991 e83f 2d35 ba3f 1007 b13f c853 4dc0
00000100: 7ce6 cd3d 51ea 8540 5fdf 8ac0 4632 af3f
00000110: 677b 33c0 a6f4 2640 b659 ca3f 5f04 923f
00000120: 783f 4ec0 8584 0e41 fcf3 7dc0 c006 6840
00000130: ee73 67c0 ff3f d040 7ff0 a840 b1b1 a340
00000140: ef87 a83f 2bc7 c03f eadc 36c0 ab1f 093f
00000150: 75f1 32c0 18b7 303f 4417 ef3e ffd2 98bf
00000160: 6faf 24c0 32ca 813f 0e05 9d40 641d fa3f
00000170: 5d62 353f 0c59 9a3d 162e 1d3f 11d3 efbe
00000180: a476 39bf 7c39 a740 3364 96c0 4a9e 2140
00000190: 973c 71bf 0b4c 0c3f b276 b53e 7655 343f
000001a0: e61e 03c0 9e02 4140 d7f2 90bf b618 30bf
000001b0: b4e0 793f 79f5 be3f 2dc9 9e3f d975 a5bf
000001c0: 649f febf 505b 29c0 32ee e8be 2bf7 a3be
000001d0: cd8b 793f 3582 24c0 ca4b e3be 1b96 91bf
000001e0: 6c4f 8b3f 2ea5 e5be d386 f6bf cf31 353f
000001f0: 3380 b9bf 05cd 6fbf f71f 5ebf e26d 2540
00000200: 07c6 b03e 21d0 90bf dc9d 3bc0 1560 ba3f
00000210: 6ab0 adbf fb73 33bf 61c1 3c3f 97a9 1040
00000220: e837 1cbe 31c3 403f c5c0 aebf 721b 0540
00000230: b624 fcbf 3d77 37c0 c26d 893f b50d abbe
00000240: b12a 92bf 54f9 4dbf af5a 653f b2da 89bf
00000250: 1ffb 1d40 e6b9 1ebf feb5 b1be ac45 e5bf
00000260: ed86 1740 e82d ab3f d4c7 9a3e 8f02 2bbf
00000270: edcb dc3e b1c6 58bf 45c5 a43d 6d81 18bf
00000280: 9f50 3340 ec86 04c0 6903 76bd 8f9a 133f
00000290: c5c1 1d3f 6850 803e 9861 693f 1be0 383f
000002a0: 7c91 6a3e 7a10 513f cf40 babf cf38 bd3f
000002b0: 760a 05bf c69f 923f 3809 71c0 b05c 2dc0
000002c0: d4bd 7e3f ef77 5dc0 a8bf 2240 e77c babe
000002d0: 4d42 e23f b6f5 7bbf eabe 66c0 a5b1 ce3e
000002e0: e41a e13f e8bf 9a3f fb49 5bc0 9bfb f13e
000002f0: 87a7 37c0 90ea 3e3f 0715 1b3e 8ed9 91bf
00000300: fec5 1740 b8f5 163d e698 25bf 7b97 013f
00000310: 46d0 55bf 2533 9fbf 6858 d93e 3a08 333f
00000320: 6920 8d3f 8f0d c1bb 40b1 1740 3844 93bf
00000330: 3c9b edbf e70c acbe c425 2d3f 7554 19c0
00000340: d1c9 0dbe b4db 7c3e f76b aebf 2479 2fbf
00000350: 7e9e b2bf 1201 a1bf 7b1f bdbe 1436 0940
00000360: dec0 1cbf cde1 12bf 34b7 273f 5cc7 00c0
00000370: 9835 913d 92b5 bec0 9b6d bc3f 3a71 d53f
00000380: 60dc f33e 219b 8ebe 8110 0fbe 0b20 79bf
00000390: 8e0c b73f f200 443f bc9f 47bf b22e 25bf
000003a0: 7be6 7e3d 4ca3 adbf 11f0 71bf 6cc1 96bf
000003b0: ddf6 903a 1a3d 4cbd 062f f4bf a7ee 3240
000003c0: 982b 3abf 8e40 86bf 0d5c 1fc0 de17 8ebe
000003d0: 8713 6cc0 9630 98bf cd64 bf3f 5d52 acbf
000003e0: 6e50 9abe b0be e0be 719c bf3f a39d d2bf
000003f0: c65b 59c0 0be8 423f 21e6 8cbf 7426 60be
-2.5210433 1.8268149 3.0723329 0.9649957 -0.18895152 0.6321659 -0.13335626 1.7187498
-2.0345871 -0.3617213 4.502736 1.1436193 0.4355647 -0.12986189 -1.1536751 2.652042
-3.3031745 -2.557942 -8.929684 3.7331097 -4.436357 -0.6599939 0.76068217 4.639572
-1.0538331 -0.16615964 -3.6032586 1.2498509 0.57226646 3.0756168 1.986493 2.4802938
1.3750838 1.7276936 -3.1576576 0.72327745 -2.729171 0.8738837 0.48968372 -0.90541625
0.99505633 3.9055064 -0.74295235 0.32674637 -2.7024622 1.1724049 0.25354403 0.46980366
-3.5278375 1.18893 2.3636942 1.3507073 1.1527959 -0.27769816 0.5661881 0.28579494
1.6199 5.387745 1.0122215 0.40319285 1.8169471 1.4547478 1.383028 -3.2082386
0.10053727 4.184853 -4.339767 1.3687217 -2.804407 2.6086822 1.5808628 1.1407584
-3.2226238 8.907353 -3.9680166 3.625412 -3.6164508 6.507812 5.2793574 5.115441
1.3166484 1.5060781 -2.8572335 0.53563946 -2.7959874 0.6902938 0.46697438 -1.1939391
-2.5732076 1.013983 4.906867 1.9540219 0.70853215 0.075365156 0.61398447 -0.46840718
-0.72446656 5.225767 -4.6997313 2.5252862 -0.9423308 0.5480353 0.3544212 0.70442903
-2.048761 3.0157847 -1.1324109 -0.68787706 0.97608495 1.4918662 1.2405144 -1.2926589
-1.9892392 -2.6461983 -0.4549423 -0.32024512 0.97478944 -2.5704472 -0.4439376 -1.1373934
1.0883613 -0.44852585 -1.9259895 0.70779127 -1.4492248 -0.9367221 -0.86767524 2.5848317
0.34526083 -1.1313516 -2.93151 1.4560572 -1.3569462 -0.7009885 0.7373257 2.260351
-0.15255702 0.7529784 -1.3652579 2.0798001 -1.9698703 -2.8666527 1.073662 -0.33408895
-1.1419278 -0.8045857 0.895915 -1.0769866 2.4684522 -0.6200241 -0.34709162 -1.7911887
2.3676102 1.3373384 0.30230582 -0.6680078 0.43124333 -0.8467818 0.08045439 -0.5957249
2.8017957 -2.070735 -0.060061846 0.5765771 0.61623794 0.25061345 0.9116454 0.7221696
0.2290706 0.81665766 -1.4551028 1.4782962 -0.5196909 1.1455009 -3.7661877 -2.7087822
0.99508405 -3.4604452 2.5429478 -0.36423418 1.7676483 -0.984218 -3.6054025 0.40369907
1.7586331 1.2089815 -3.4263904 0.47262272 -2.8696 0.74576664 0.1514474 -1.1394517
2.3714595 0.03685543 -0.6468643 0.50621766 -0.83520925 -1.2437483 0.4245026 0.6993443
1.1025516 -0.005891509 2.3701935 -1.1505194 -1.8562999 -0.33603594 0.6763575 -2.3957798
-0.13846518 0.24693185 -1.3626698 -0.6854422 -1.3954618 -1.2578452 -0.3693808 2.1439257
-0.6123179 -0.57375795 0.6551392 -2.012168 0.070903 -5.9596643 1.4720949 1.6675179
0.4762907 -0.2785273 -0.1397114 -0.9731452 1.4300706 0.7656394 -0.7797811 -0.64524376
0.062231522 -1.3565459 -0.9450694 -1.1777778 0.0011059899 -0.04986296 -1.907685 2.7958162
-0.7272277 -1.048845 -2.4899933 -0.27752584 -3.6886919 -1.1889827 1.4952637 -1.3462635
-0.30139488 -0.43895483 1.4969617 -1.6454357 -3.3962264 0.7613532 -1.100773 -0.21889669

lin2.bias f4 [41]
00000000: 8e7f 1fbf 1722 053f 127e 0ac0 7cff 24bf
00000010: 5d1c 38c0 25ff 35c0 3999 d1bf e945 2ec0
00000020: 1d30 b0c0 308b 95c0 4934 27c0 9494 7bc0
00000030: 90ae 26c0 7488 a6bf 8bc1 8cbf 5c7c adbe
00000040: cc27 703f 0947 e03f f6bc 433f 4dca 8cbe
00000050: dd4f 30bf 869f 64bf 119a febf 3e8e 31c0
00000060: c593 a3bf de71 033f e601 973e 3ccc 42c0
00000070: 81a6 df3f beba 8ebf 31f5 82c0 3c5b ce3e
00000080: adf8 ad3f d356 5e3f 26a7 3d40 c273 e2be
00000090: 751d 953e 7123 d8bf 498d 7dbf c9fd 0ec0
000000a0: 2e53 3cc0
-0.6230401 0.5200514 -2.1639447 -0.6445234 -2.8767312 -2.8436978 -1.6374885 -2.723017
-5.505873 -4.6732407 -2.6125662 -3.9309435 -2.6044044 -1.3010392 -1.0996565 -0.3388394
0.93810725 1.7521678 0.76460207 -0.27498093 -0.6887186 -0.89305913 -1.9890767 -2.7743068
-1.2779471 0.5134562 0.29493636 -3.0437155 1.7472688 -1.1150739 -4.0924306 0.4030398
1.3591515 0.86851233 2.963327 -0.4422894 0.29124036 -1.6885816 -0.9904371 -2.2342398
-2.942577
