Models_Q1/Model-b2-e2-h4.pth (torch, 3595 bytes, 5 tensors)

emb.weight f4 [41, 2]
-0.45231354 0.4572954 -2.1105523 -1.4623175 0.51713 0.6949159 3.579546 1.0519743
1.9193588 -0.22154573 2.2950494 -3.369146 -0.23097284 1.2060165 -1.6176078 -1.0610472
0.28395757 -1.0171707 0.90869004 -1.5334816 0.9956089 -1.9647938 -0.35781357 1.1458752
-0.4711676 1.7458452 -0.25946817 0.55382776 -1.4514527 0.94271535 1.4861864 -0.80934054
-0.32463273 -0.9887887 0.7199716 0.29664385 0.2950032 1.7936277 0.62646216 -0.19460012
0.80504817 -0.43602175 1.394349 -0.24182905 -3.3622859 0.10846345 -0.80198365 0.7895344
-1.1411748 0.9198909 1.6058359 -0.23850712 1.2073047 -0.105687104 0.6621953 0.7463369
-1.2313272 0.95487255 -0.020105317 -1.4080225 1.0728502 -1.9811233 1.2656523 -0.003294332
0.69133216 0.41120288 -0.22209547 -0.06865543 -1.3555874 0.82539636 1.9444351 -1.6997482
0.9626857 -0.07588844 -0.6439525 -0.6373187 0.20625858 0.6640866 1.3939031 -0.96897125
-2.3089 -1.1294404
00000000: a495 e7be 9f22 ea3e 4a13 07c0 382d bbbf
00000010: a262 043f 02e6 313f 4817 6540 18a7 863f
00000020: 8dad f53f e2dc 62be 17e2 1240 17a0 57c0
00000030: 2584 6cbe c05e 9a3f c60d cfbf 65d0 87bf
00000040: e362 913e a632 82bf e99f 683f 2049 c4bf
00000050: 3ae0 7e3f 5d7e fbbf 5733 b7be 0aac 923f
00000060: e13c f1be db77 df3f 03d9 84be a8c7 0d3f
00000070: 34c9 b9bf cb55 713f 5b3b be3f f130 4fbf
00000080: 4336 a6be 4221 7dbf 0f50 383f b4e1 973e
00000090: a90a 973e 9895 e53f d35f 203f 4145 47be
000000a0: a317 4e3f 3e3e dfbe 077a b23f 09a2 77be
000000b0: b12f 57c0 1622 de3d cd4e 4dbf ed1e 4a3f
000000c0: 0412 92bf f87d 6b3f 088c cd3f 363b 74be
000000d0: f688 9a3f 7b72 d8bd a285 293f ef0f 3f3f
000000e0: 219c 9dbf 8772 743f e8b3 a4bc 153a b4bf
000000f0: 2853 893f 7395 fdbf e500 a23f b8e5 57bb
00000100: 25fb 303f 2f89 d23e ff6c 63be 389b 8cbd
00000110: e383 adbf 2d4d 533f 40e3 f83f 5991 d9bf
00000120: 9272 763f 666b 9bbd 12da 24bf 5127 23bf
00000130: 7335 533e 9401 2a3f 6b6b b23f 800e 78bf
00000140: 05c5 13c0 8191 90bf

lin1.weight f4 [4, 4]
-0.055594694 0.00313004 1.2418077 0.6964327 0.08719574 0.021840794 0.55321395 -1.3180354
0.14495903 0.121684685 0.47985485 0.12710826 -0.033427928 0.37241235 -0.05857836 1.0245527
00000000: 43b7 63bd 5b21 4d3b 8ef3 9e3f 6a49 323f
00000010: ae93 b23d 77eb b23c 6e9f 0d3f 62b5 a8bf
00000020: 2470 143e d235 f93d 89af f53e ab28 023e
00000030: b9eb 08bd d5ac be3e ddef 6fbd 8b24 833f

lin1.bias f4 [4]
1.2594715 -0.9117077 0.75685483 -0.05162314
00000000: 5d36 a13f ad65 69bf 3dc1 413f c972 53bd

lin2.weight f4 [41, 4]
4.07744 1.0403035 1.8849924 1.2520816 4.100975 0.39404058 1.2669965 1.1368313
-1.450991 -1.0817548 0.6524518 -0.95084023 3.4305265 -2.2175586 -1.2922451 1.8584627
-3.8195276 1.4697632 0.17266369 -0.3157869 2.586247 1.899891 -2.472824 2.9433625
3.3175352 0.2540384 3.8959975 0.32919863 3.254831 1.8419762 0.40333453 -1.2942821
0.13219504 2.775732 -1.8036877 0.23527747 3.2304564 6.7616596 -1.3881396 1.0827901
-1.9371212 0.32172838 -1.6914935 -1.6871346 2.5683239 0.56720406 2.8148768 -0.28806528
1.8437562 -1.096167 0.24522826 1.2040241 2.6007855 1.916729 0.65989643 0.07683125
-1.4201437 -0.52507025 1.4820641 -1.6634452 -2.5595396 -0.9539927 -0.39473352 -0.024024883
-5.354602 -3.1087701 0.8998026 1.3628443 -5.648543 -3.2296982 2.1304817 0.9023077
1.1325647 0.1049076 1.5867121 -1.97603 1.5862503 0.44707787 -2.864936 -0.17532395
-4.828366 -5.2722793 -1.3712095 2.1317537 2.6687338 -2.6414511 -1.5422629 -4.098484
-0.25468442 -1.2016052 1.1227039 -2.2202005 -3.5642407 -1.8816082 -0.6452555 -2.140051
-3.4537222 -1.652362 -0.6930667 1.040613 -1.2800689 4.441387 -0.35840493 1.162359
-1.7423167 -0.9136805 -0.51719236 0.52928394 -0.761923 2.3997226 -2.158288 1.8592567
1.0073471 -0.9908148 -0.2966536 -2.2692883 -1.8119394 -1.6220858 0.27717587 -0.6308227
-5.1857057 -0.09307155 1.1400923 0.563456 -0.19681455 1.2519724 -0.4289274 0.735213
-0.8865359 -0.2680446 -1.1092299 0.41346872 -2.8186436 -1.8681062 -0.2607973 0.36256325
2.5526118 0.6165446 -1.1215442 -1.0534526 -1.3330165 0.6987459 -0.7519271 1.0608567
-2.1583102 -2.6969714 -0.10537172 -1.2457998 -5.1139126 8.712128 -1.4226835 4.4349284
-0.4055189 0.26941514 0.9224638 -0.5098591 -0.68544775 -1.9063909 -3.6173575 0.87764907
3.6408315 0.47912174 0.8437453 -1.0816619
00000000: 637a 8240 aa28 853f 6e47 f13f 3644 a03f
00000010: 303b 8340 b0bf c93e f12c a23f b083 913f
00000020: 13ba b9bf f176 8abf 1507 273f 446a 73bf
00000030: bf8d 5b40 7bec 0dc0 4a68 a5bf 1be2 ed3f
00000040: 2473 74c0 3321 bc3f c0ce 303e d2ae a1be
00000050: 1285 2540 a12f f33f c042 1ec0 0d60 3c40
00000060: 7f52 5440 5211 823e 0658 7940 b98c a83e
00000070: 274f 5040 e0c5 eb3f dd81 ce3e 09ab a5bf
00000080: 235e 073e 98a5 3140 3ddf e6bf 94ec 703e
00000090: ccbf 4e40 845f d840 8fae b1bf de98 8a3f
000000a0: 96f3 f7bf 95b9 a43e dc82 d8bf 07f4 d7bf
000000b0: 6b5f 2440 4934 113f f126 3440 4b7d 93be
000000c0: 3400 ec3f 334f 8cbf 1e1d 7b3e 761d 9a3f
000000d0: 4573 2640 6057 f53f f9ee 283f b459 9d3d
000000e0: 45c7 b5bf 016b 06bf 47b4 bd3f c6eb d4bf
000000f0: 7fcf 23c0 de38 74bf 831a cabe d5cf c4bc
00000100: e658 abc0 17f6 46c0 7759 663f af71 ae3f
00000110: ddc0 b4c0 60b3 4ec0 d059 0840 a3fd 663f
00000120: e1f7 903f ccd9 d63d 6219 cb3f 8dee fcbf
00000130: 400a cb3f 64e7 e43e 1d5b 37c0 1f88 33be
00000140: f981 9ac0 83b6 a8c0 cb83 afbf a76e 0840
00000150: 89cc 2a40 890d 29c0 df68 c5bf c826 83c0
00000160: ff65 82be 33ce 99bf c3b4 8f3f c417 0ec0
00000170: 851c 64c0 8ad8 f0bf 772f 25bf 98f6 08c0
00000180: c909 5dc0 9980 d3bf d26c 31bf cf32 853f
00000190: 4cd9 a3bf d81f 8e40 da80 b7be 2ec8 943f
000001a0: 3c04 dfbf f7e6 69bf b866 04bf 277f 073f
000001b0: 630d 43bf 0e95 1940 6421 0ac0 20fc ed3f
000001c0: c0f0 803f 0aa6 7dbf fbe2 97be 053c 11c0
000001d0: a1ed e7bf 82a0 cfbf ffe9 8d3e 997d 21bf
000001e0: 4df1 a5c0 4c9c bebd 8bee 913f a73e 103f
000001f0: c189 49be a240 a03f 5f9c dbbe eb36 3c3f
00000200: 04f4 62bf 243d 89be 3ffb 8dbf 2cb2 d33e
00000210: a864 34c0 1b1e efbf 3987 85be e4a1 b93e
00000220: fe5d 2340 ded5 1d3f c38e 8fbf 89d7 86bf
00000230: 49a0 aabf 03e1 323f 4b7e 40bf 27ca 873f
00000240: c121 0ac0 2e9b 2cc0 21cd d7bd 5e76 9fbf
00000250: 2ca5 a3c0 e064 0b41 7e1a b6bf efea 8d40
00000260: 2ca0 cfbe c8f0 893e 9626 6c3f 2086 02bf
00000270: 8179 2fbf 9e04 f4bf c982 67c0 9cad 603f
00000280: 6203 6940 724f f53e b1ff 573f e673 8abf

lin2.bias f4 [41]
-3.403496 -0.23321134 -0.823787 -3.6110287 -4.6500807 -5.3021317 -4.799041 -4.679514
-7.2962384 -4.7769537 -4.490643 -4.8224373 -6.1174355 -3.5707324 1.2926043 0.2747002
-0.33354002 -0.6634232 1.2717758 0.544699 -1.4198693 -1.0330279 1.0578208 -4.581159
-1.1477444 1.5337515 1.0658312 2.28396 1.369918 0.27744606 -2.8059466 1.8264322
2.1777651 1.8405385 0.7125151 0.31225997 -0.1446635 -1.5595607 0.0748594 -3.9550967
-5.268993
00000000: e1d2 59c0 f4ce 6ebe b4e3 52bf 181b 67c0
00000010: 76cd 94c0 10ab a9c0 be91 99c0 94be 95c0
00000020: c97a e9c0 cedc 98c0 59b3 8fc0 6851 9ac0
00000030: 08c2 c3c0 e186 64c0 0f74 a53f 81a5 8c3e
00000040: c2c5 aabe 1ad6 29bf 8dc9 a23f 6571 0b3f
00000050: 47be b5bf 423a 84bf ac66 873f db98 92c0
00000060: 4ae9 92bf f851 c43f 286d 883f 672c 1240
00000070: 7959 af3f 690d 8e3e a194 33c0 88c8 e93f
00000080: 8160 0b40 c496 eb3f 6467 363f 8ae0 9f3e
00000090: ab22 14be af9f c7bf e34f 993d 4e20 7dc0
000000a0: 979b a8c0
