Models_Q1/Model-b2-e5-h10.pth (torch, 5332 bytes, 5 tensors)

emb.weight f4 [41, 5]
1.0700234 0.48555252 0.6256078 -1.6025616 0.05349838 0.28786188 -0.21247908 -1.8810353
-0.20738536 1.7986581 2.094267 -1.1036158 -0.20346975 -0.59987944 -0.42674923 5.3741093
1.0680957 1.3503318 -1.9957192 1.5902871 -0.14767411 0.30065405 -4.5411806 -0.81521034
-0.38259745 0.50620025 -1.2469035 0.23659302 -1.8529528 -0.6350287 0.35235143 0.31319755
-0.61723346 -0.095584966 -1.8625963 2.764167 -1.5671366 -2.5577612 -1.0507718 5.4114656
-0.5845718 -1.3444229 0.59986776 0.017336955 0.55966425 -1.7603928 0.761233 -1.7619867
-0.648742 -4.936224 -2.8521996 2.288981 -1.7094178 0.49640658 4.4572945 1.354342
-0.06652071 -1.1386482 -1.0633216 -1.5040134 -0.8141727 0.3991764 -2.4685543 1.3066962
-5.492736 1.9743495 0.28676075 0.50939125 -1.6676 0.08874136 0.69540805 0.9923518
-1.7665902 -0.35496032 -0.8883997 -0.35948673 0.05284249 0.5113168 0.3107797 0.18584502
0.20262468 -1.2109765 -0.9237497 -0.54636264 0.6850246 0.5938486 -1.0802572 -0.31850165
0.025696965 -0.43253538 1.496283 -0.31329685 -0.38740665 1.7783871 -1.7442985 0.3725585
-0.70922834 0.45795518 0.78539425 -0.63957196 0.73444915 -1.3956239 -0.2611964 0.82730687
-0.17136781 0.70339334 -0.41923448 0.77501 -1.5882611 0.34630865 0.77361757 1.1905951
0.070350714 -0.698119 0.6253812 1.3829434 0.17071606 -0.5955379 0.9774054 2.101749
0.6460467 -1.1803083 -1.295205 0.51135784 -0.28610572 -0.81749403 -0.21337532 1.2028263
-0.13384452 -0.41012067 -0.4718106 -0.41042012 0.4847397 -0.5067176 -0.0788024 -0.9606326
-0.52508587 -0.1553254 -1.5513883 -0.4141054 1.7232084 0.40044713 -0.880677 0.9904178
0.29891053 0.54236937 -0.67227346 0.824242 0.9027513 1.1668159 1.1520325 -1.2019411
-1.0451307 -4.3709855 0.3037805 -0.15120384 -0.571146 0.22452174 -1.072854 0.24893136
0.5254068 -0.8936563 -0.6351365 -1.8848603 -0.49348593 1.4063584 -1.4690464 -0.07663903
-1.2871058 -0.04370149 -0.5034788 1.1545321 -1.8555743 -0.3224776 -1.3191307 0.19394955
-1.005325 0.3753002 0.29146633 0.5561642 0.94675946 -0.79285026 1.1000692 -0.22750655
0.07390862 -1.185563 1.6491144 -2.3066506 -3.5248284 -1.5164461 0.18051562 -0.8312492
-0.6683997 0.25966266 -0.7140025 1.1015753 -2.880537 1.54373 5.2246 0.62799674
-0.8912262 0.16440877 -1.3948609 -0.9907409 0.801239
00000000: 87f6 883f 579a f83e d527 203f bd20 cdbf
00000010: 1e21 5b3d a262 933e 1e94 59be c4c5 f0bf
00000020: d45c 54be 6e3a e63f 7808 0640 4843 8dbf
00000030: 605a 50be b391 19bf e07e dabe b4f8 ab40
00000040: 5cb7 883f acd7 ac3f ba73 ffbf 878e cb3f
00000050: e237 17be 54ef 993e 5a51 91c0 a0b1 50bf
00000060: d0e3 c3be 5796 013f 899a 9fbf 7145 723e
00000070: 8f2d edbf 3e91 22bf 6867 b43e 6e5b a03e
00000080: 0303 1ebf 0dc2 c3bd 8e69 eebf 1de8 3040
00000090: ef97 c8bf 5cb2 23c0 b17f 86bf ba2a ad40
000000a0: 7fa6 15bf 0d16 acbf ef90 193f 3b06 8e3c
000000b0: 2846 0f3f 8d54 e1bf 2ae0 423f c888 e1bf
000000c0: f513 26bf 8cf5 9dc0 708a 36c0 aa7e 1240
000000d0: 34ce dabf 0129 fe3e 28a2 8e40 145b ad3f
000000e0: 033c 88bd 39bf 91bf ec1a 88bf 8383 c0bf
000000f0: 9f6d 50bf d960 cc3e cbfc 1dc0 d241 a73f
00000100: 7ec4 afc0 7cb7 fc3f 4ed2 923e 7767 023f
00000110: eb73 d5bf 08be b53d 4306 323f c40a 7e3f
00000120: a11f e2bf 5cbd b5be 2a6e 63bf a50e b8be
00000130: 5e71 583d a8e5 023f 841e 9f3e 284e 3e3e
00000140: d87c 4f3e 4701 9bbf dc7a 6cbf 6cde 0bbf
00000150: c65d 2f3f 7606 183f de45 8abf a612 a3be
00000160: 7182 d23c 4775 ddbe 3486 bf3f 7268 a0be
00000170: 2a5a c6be 30a2 e33f 2c45 dfbf fdbf be3e
00000180: fd8f 35bf 1a79 ea3e 990f 493f fdba 23bf
00000190: dc04 3c3f cea3 b2bf 89bb 85be 62ca 533f
000001a0: 0b7b 2fbe 9611 343f e7a5 d6be 0e67 463f
000001b0: 244c cbbf 5e4f b13e cd0b 463f 6c65 983f
000001c0: 0914 903d edb7 32bf fb18 203f 4a04 b13f
000001d0: 31d0 2e3e 2c75 18bf 3e37 7a3f 0e83 0640
000001e0: 5163 253f 5814 97bf 47c9 a5bf 59e8 023f
000001f0: 737c 92be 4a47 51bf 0f7f 5abe 36f6 993f
00000200: 8a0e 09be 56fb d1be 2991 f1be 9622 d2be
00000210: cd2f f83e 3fb8 01bf 2763 a1bd 05ec 75bf
00000220: 076c 06bf 9f0d 1fbe e493 c6bf 9f05 d4be
00000230: 1892 dc3f 6807 cd3e 0c74 61bf 058c 7d3f
00000240: cd0a 993e b8d8 0a3f 1d1a 2cbf 8601 533f
00000250: b61a 673f 395a 953f cd75 933f 35d9 99bf
00000260: d8c6 85bf 1ddf 8bc0 1e89 9b3e 2ed5 1abe
00000270: a036 12bf 07e9 653e 4853 89bf dde7 7e3e
00000280: 0f81 063f a9c6 64bf 4e98 22bf 1a43 f1bf
00000290: 30aa fcbe 8d03 b43f b609 bcbf ecf4 9cbd
000002a0: e2bf a4bf 5500 33bd fde3 00bf b5c7 933f
000002b0: 7583 edbf c91b a5be 46d9 a8bf b69a 463e
000002c0: 7dae 80bf 5927 c03e 133b 953e c760 0e3f
000002d0: d45e 723f 3cf8 4abf 11cf 8c3f 7af7 68be
000002e0: 675d 973d 87c0 97bf 2e16 d33f 2aa0 13c0
000002f0: ca96 61c0 e81a c2bf 16d9 383e bfcc 54bf
00000300: 3e1c 2bbf 81f2 843e dec8 36bf 6b00 8d3f
00000310: b85a 38c0 f298 c53f ec2f a740 65c4 203f
00000320: 6627 64bf c65a 283e cd8a b2bf 32a1 7dbf
00000330: 001e 4d3f

lin1.weight f4 [10, 10]
-0.2457353 0.45610738 0.3995355 0.6049128 0.4472556 1.1697996 -0.06802055 -0.4319663
-0.3120062 0.9133635 0.33090806 -0.8273071 -0.2729933 -0.42872882 -0.32871687 -0.042845774
0.035995062 -0.62855756 0.432875 -1.118205 -0.0010914414 -0.10398947 0.014784571 -0.1789449
0.06531013 -0.36437905 -0.8474407 0.6761202 0.6269987 0.38540173 -0.19864196 0.6894713
-0.29179764 0.06532258 0.46227726 0.062023215 1.0767211 -0.77701867 -0.040428236 0.42119974
0.5241186 1.8595511 -0.06584057 0.13357504 -0.07618038 -0.047051154 1.266498 0.3152005
-0.062774785 -0.06049658 -0.62651205 0.05270842 0.7462066 0.39553952 0.17974158 -0.33056417
0.35479522 -0.7821517 -0.26939622 -0.27964798 -0.20740531 0.035328627 0.115625955 0.40446144
-0.07431841 0.8485207 0.46025425 0.1509291 0.7639631 -0.5350358 -0.00817925 -0.40018478
-0.17385687 0.16996673 0.18969914 0.19983542 0.30944717 -0.52010053 0.33956903 0.431604
-0.06658443 0.04307681 -0.21414347 0.026827877 0.5230827 0.975435 0.027128825 0.7492782
-0.19824621 -0.8145882 0.033987444 -0.12320251 -0.19280691 -0.11467076 0.16666797 0.57667613
-0.03982248 -0.65877736 0.4252134 -1.0194238
00000000: 09a2 7bbe e886 e93e eb8f cc3e 91db 1a3f
00000010: b0fe e43e febb 953f 5c4e 8bbd b02a ddbe
00000020: 47bf 9fbe 31d2 693f c86c a93e 66ca 53bf
00000030: c7c5 8bbe 5882 dbbe 944d a8be 0d7f 2fbd
00000040: 8f6f 133d 26e9 20bf cba1 dd3e 5721 8fbf
00000050: b20e 8fba 6ef8 d4bd fc3a 723c 553d 37be
00000060: 51c1 853d e48f babe e0f1 58bf 3716 2d3f
00000070: fd82 203f 6053 c53e cc68 4bbe 3181 303f
00000080: 8066 95be d8c7 853d 9baf ec3e 0e0c 7e3d
00000090: ffd1 893f b2ea 46bf 1498 25bd 7ea7 d73e
000000a0: a32c 063f c505 ee3f 6cd7 86bd e5c7 083e
000000b0: 7604 9cbd b6b8 40bd 9b1c a23f f661 a13e
000000c0: 1190 80bd 43cb 77bd 1863 20bf c9e4 573d
000000d0: 6507 3f3f 2884 ca3e 2d0e 383e b53f a9be
000000e0: b8a7 b53e 183b 48bf 4dee 89be 052e 8fbe
000000f0: 0f62 54be c0b4 103d 4dcd ec3d 9215 cf3e
00000100: 4034 98bd a738 593f 72a6 eb3e 288d 1a3e
00000110: 1693 433f 1bf8 08bf 4302 06bc 05e5 ccbe
00000120: 8907 32be c20b 2e3e 7e40 423e a8a1 4c3e
00000130: dc6f 9e3e 4f25 05bf fedb ad3e 33fb dc3e
00000140: 6b5d 88bd 4f71 303d 6d48 5bbe 23c6 db3c
00000150: bfe8 053f 1cb6 793f 453d de3c b2d0 3f3f
00000160: 0e01 4bbe da88 50bf 6b36 0b3d 9951 fcbd
00000170: 2d6f 45be 81d8 eabd 02ab 2a3e 0ca1 133f
00000180: e61c 23bd a2a5 28bf 92b5 d93e 7b7c 82bf

lin1.bias f4 [10]
-1.4912996 -1.388493 -0.2762838 -0.2550437 -0.38676557 -0.3305441 0.21722208 0.37985793
0.77879757 0.7217216
00000000: e8e2 bebf 23ba b1bf 1275 8dbe 1695 82be
00000010: 2306 c6be 143d a9be 776f 5e3e bd7c c23e
00000020: 475f 473f bfc2 383f

lin2.weight f4 [41, 10]
0.16951136 0.41645947 -2.1753688 -4.269292 1.1975831 0.44173735 0.8584428 1.2776066
0.6802018 1.0482022 -0.4427608 0.86026895 -2.3675241 -3.3140988 1.3171512 0.123921044
1.7716509 -1.3347332 0.89374876 0.2537701 1.0279078 -0.9126171 0.2593058 -1.2913268
0.51023334 -0.34706277 -0.8337336 1.2669775 -0.6678925 0.45901275 0.5252198 2.355652
-2.4189546 -2.92255 0.6693647 -0.66549253 1.7537239 -2.85199 -2.6077702 2.2315862
2.3996296 -0.17171684 0.36095545 1.3980805 -0.88797796 -0.28507903 0.2953899 -1.866691
-1.444282 -1.9006734 3.2915952 2.3472106 0.6789585 2.904342 3.2188554 -2.2455895
1.410648 -1.3462899 0.46755168 1.0772637 -0.4435578 0.30074155 -1.1770154 -4.1560597
0.9710187 -0.17753857 -0.0011749703 -0.081048176 0.05616089 0.8334026 -0.027488958 -2.1916463
2.5900164 2.477272 -0.13602105 1.290275 2.72329 -3.3060913 -0.59483856 1.8376151
1.3576465 1.0904654 1.3055013 0.5910894 -0.08772199 0.8655756 1.6311332 -3.2161753
-2.5705688 -0.054984983 -0.33416882 4.2745714 1.1259786 0.067725405 1.0141493 -1.7781653
4.506723 -7.693323 -4.2319927 1.6357509 3.466631 0.029278403 1.7157825 1.5190905
1.6812987 1.3634075 -0.1428585 -0.7543388 -2.3527946 0.06723193 1.6350827 0.7711909
-0.028291402 -3.501965 1.7212425 0.95491767 0.7869645 0.21542712 0.84335065 0.804315
-0.46498603 0.744236 -2.0072033 -1.1731917 -2.3766854 0.31736174 0.3455656 -3.0424113
-1.1070578 2.234845 -0.7161407 0.2535455 -0.9086909 -3.610034 3.0347116 1.545823
1.7186544 -1.3795664 -1.3717978 -0.45924485 0.8930456 0.16321614 1.9854362 0.7693594
-1.5941988 -1.1464931 -3.8695147 -0.08743736 0.24482861 -0.34412506 -0.13897577 -0.75025594
0.5143583 3.6611698 0.6142779 -0.31973723 -0.13336581 -1.0156084 -0.20691976 -1.8460547
-0.8121071 0.10865329 -3.447383 0.3828972 -0.24616046 0.8233639 0.2478065 -1.1583862
-1.2973082 -0.7899737 1.8529266 0.60022426 -1.7011572 0.1380486 1.7090553 -0.14591001
-1.3216969 -0.09560804 0.9786255 -1.4296328 -1.050289 -1.7621138 1.9057915 -0.033920202
-0.40654978 0.103899665 -1.5208268 0.53657264 0.8938689 0.82681143 -1.6569363 -2.4644017
-0.7686964 3.0081112 0.7315156 -2.1629941 3.0274851 -1.9942696 -2.1300266 -0.5182881
-2.1716404 -1.8825039 -2.7669632 1.8598992 0.69931215 1.7765162 2.3699355 -2.29438
-1.4356582 -1.6883216 1.2973586 -3.2571003 1.8609229 -0.09588232 -0.97995573 -2.0181787
-0.83575094 -0.3421864 -1.7111211 4.008732 0.15320781 -0.68029934 1.5130306 0.3959857
-1.1470699 0.06684668 -0.864785 -0.9183331 -0.46387604 1.2016113 -1.1693536 -1.4465322
0.14898674 3.3905969 0.4405973 -2.055691 -1.1937212 0.96300435 -1.3461875 -2.63754
-0.49975976 -0.9310563 -0.6562476 2.3509626 1.7012496 0.66685367 0.89503795 -0.3001023
-0.67432797 -0.6762338 0.59022933 -0.7198326 2.6569788 2.3972409 0.76654375 -0.6713647
00000000: 6394 2d3e 2d3a d53e 3e39 0bc0 0a9e 88c0
00000010: 674a 993f 662b e23e e8c2 5b3f 9d88 a33f
00000020: b521 2e3f 7d2b 863f 8bb1 e2be 963a 5c3f
00000030: 8485 17c0 321a 54c0 6998 a83f 51ca fd3d
00000040: 75c5 e23f 8ad8 aabf b8cc 643f 28ee 813e
00000050: 7c92 833f 46a1 69bf bbc3 843e 324a a5bf
00000060: a79e 023f 36b2 b1be 916f 55bf 522c a23f
00000070: 01fb 2abf b803 eb3e ce74 063f 01c3 1640
00000080: 27d0 1ac0 0f0b 3bc0 7c5b 2b3f b85d 2abf
00000090: 067a e03f 0187 36c0 b5e5 26c0 4fd2 0e40
000000a0: 8893 1940 8ad6 2fbe 27cf b83e 4df4 b23f
000000b0: 8652 63bf e1f5 91be 583d 973e bbef eebf
000000c0: 3cde b8bf 4449 f3bf 7fa9 5240 b338 1640
000000d0: 39d0 2d3f bde0 3940 ba01 4e40 bdb7 0fc0
000000e0: 1d90 b43f 3a53 acbf ef62 ef3e c7e3 893f
000000f0: 021a e3be ccfa 993e 71a8 96bf 71fe 84c0
00000100: ae94 783f accc 35be 7601 9aba 96fc a5bd
00000110: f608 663d df59 553f 8630 e1bc ef43 0cc0
00000120: d4c2 2540 a08b 1e40 1a49 0bbe bb27 a53f
00000130: 624a 2e40 0097 53c0 5747 18bf f936 eb3f
00000140: 5cc7 ad3f 5f94 8b3f ab1a a73f a351 173f
00000150: 96a7 b3bd 5d96 5d3f f9c8 d03f d1d5 4dc0
00000160: 3384 24c0 ef37 61bd 2d18 abbe 4ac9 8840
00000170: 1120 903f 9eb3 8a3d a5cf 813f ec9a e3bf
00000180: 1337 9040 b42f f6c0 7c6c 87c0 4960 d13f
00000190: 48dd 5d40 43d9 ef3c c39e db3f 8f71 c23f
000001a0: cc34 d73f 2384 ae3f 8049 12be 591c 41bf
000001b0: 3094 16c0 e5b0 893d 644a d13f c46c 453f
000001c0: 5fc3 e7bc 3220 60c0 ad51 dc3f 7c75 743f
000001d0: 8176 493f ed98 5c3e d4e5 573f 96e7 4d3f
000001e0: a612 eebe 4086 3e3f 0576 00c0 252b 96bf
000001f0: 9d1b 18c0 3d7d a23e f9ed b03e deb6 42c0
00000200: 12b4 8dbf b307 0f40 ff54 37bf b7d0 813e
00000210: f89f 68bf cc0a 67c0 b738 4240 87dd c53f
00000220: defc db3f a295 b0bf 1297 afbf 2422 ebbe
00000230: a39e 643f 2222 273e c622 fe3f bdf4 443f
00000240: b50e ccbf 49c0 92bf 21a6 77c0 5c12 b3bd
00000250: 5ab4 7a3e 2931 b0be aa4f 0ebe c610 40bf
00000260: fcac 033f 9b50 6a40 5141 1d3f 99b4 a3be
00000270: 0c91 08be 75ff 81bf c6e2 53be 854b ecbf
00000280: 40e6 4fbf 9e85 de3d eca1 5cc0 1a0b c43e
00000290: 7d11 7cbe fac7 523f fdc0 7d3e 0046 94bf
000002a0: 320e a6bf b73b 4abf b32c ed3f 4ca8 193f
000002b0: 85bf d9bf 9d5c 0d3e 53c2 da3f 6f69 15be
000002c0: 5d2d a9bf 26ce c3bd 3387 7a3f 35fe b6bf
000002d0: df6f 86bf f28c e1bf faf0 f33f e9ef 0abd
000002e0: 4b27 d0be 59c9 d43d 74aa c2bf d35c 093f
000002f0: 98d4 643f eaa9 533f 7d16 d4bf c2b8 1dc0
00000300: 4ac9 44bf e584 4040 9b44 3b3f 7f6e 0ac0
00000310: 51c2 4140 3a44 ffbf 5b52 08c0 87ae 04bf
00000320: 28fc 0ac0 e3f5 f0bf ed15 31c0 2d11 ee3f
00000330: 1f06 333f e264 e33f 06ad 1740 1fd7 12c0
00000340: a6c3 b7bf ec1a d8bf d90f a63f 5574 50c0
00000350: b932 ee3f f35d c4bd 61de 7abf d729 01c0
00000360: c6f3 55bf 0e33 afbe 0406 dbbf 8847 8040
00000370: 82e2 1c3e 1928 2ebf fdaa c13f a3be ca3e
00000380: 30d3 92bf eae6 883d 8d62 5dbf e117 6bbf
00000390: 2981 edbe 66ce 993f 61ad 95bf f827 b9bf
000003a0: fb8f 183e 8aff 5840 f895 e13e 7190 03c0
000003b0: dbcb 98bf 7487 763f df4f acbf 75cd 28c0
000003c0: 83e0 ffbe b559 6ebf d8ff 27bf 2c76 1640
000003d0: 8cc2 d93f ecb6 2a3f 3521 653f 02a7 99be
000003e0: c2a0 2cbf a91d 2dbf 4519 173f f346 38bf
000003f0: f10b 2a40 656c 1940 363c 443f 8fde 2bbf

lin2.bias f4 [41]
-2.16457 1.6535312 -0.8991819 -0.64871556 -3.580607 -5.841333 -2.3617048 -2.9704776
-6.2358584 -5.9109554 -3.6932495 -2.305961 -5.042026 -2.6236582 0.8656331 0.8233997
0.74909264 0.77576834 1.1543056 -1.1861421 0.34801242 -3.0269558 2.7392178 -5.609804
-0.5736541 1.764184 -0.93985754 -0.46434268 -0.21407859 0.9857753 -4.6268992 0.44166526
2.2081752 1.998884 -0.27348763 -0.6945392 -1.0646592 -4.443531 1.7070493 -3.8258433
-3.8495548
00000000: 5188 0ac0 e9a6 d33f c930 66bf 3912 26bf
00000010: aa28 65c0 33ec bac0 2c26 17c0 4e1c 3ec0
00000020: 278c c7c0 8c26 bdc0 335e 6cc0 dd94 13c0
00000030: 4758 a1c0 04ea 27c0 219a 5d3f 53ca 523f
00000040: 89c4 3f3f c198 463f 49c0 933f 81d3 97bf
00000050: af2e b23e a5b9 41c0 584f 2f40 8483 b3c0
00000060: ffda 12bf c8d0 e13f 819a 70bf 53be edbe
00000070: 6b37 5bbe c55b 7c3f 8f0f 94c0 f321 e23e
00000080: be52 0d40 6edb ff3f 9206 8cbe 52cd 31bf
00000090: c146 88bf 6831 8ec0 9780 da3f 9eda 74c0
000000a0: 1b5f 76c0
