Models_Q1/Model-b3-e1-h1.pth (torch, 2827 bytes, 4 tensors)

emb.weight f4 [41, 1]
0.5539838 2.592042 0.6131117 0.96009576 -1.2587255 0.3623194 -1.0629302 2.5067875
-0.10914916 3.0140002 -1.0858727 -1.0749437 -1.0957859 -1.1397344 -1.6110436 0.3489621
0.36757892 0.4553769 0.72234035 0.49863398 0.32594153 0.4461793 1.0532905 -1.2508441
0.7217288 0.5012681 0.43502444 0.7409449 0.87137675 0.44116735 0.44183582 -1.1533886
0.52923995 -0.8710016 0.8449323 0.28770387 -0.932583 -1.206963 0.47584802 0.20224518
0.89168364
00000000: e2d1 0d3f 04e4 2540 e3f4 1c3f d6c8 753f
00000010: eb1d a1bf ee81 b93e 190e 88bf 356f 2040
00000020: 9889 dfbd 61e5 4040 e0fd 8abf c197 89bf
00000030: b642 8cbf d1e2 91bf ad36 cebf 29ab b23e
00000040: 4e33 bc3e 2927 e93e 4ceb 383f f44c ff3e
00000050: cfe1 a63e 9d71 e43e 39d2 863f a91b a0bf
00000060: 38c3 383f 1b53 003f 86bb de3e 91ae 3d3f
00000070: 8c12 5f3f b0e0 e13e 4e38 e23e 3da2 93bf
00000080: 457c 073f f6f9 5ebf 7c4d 583f ec4d 933e
00000090: c2bd 6ebf c37d 9abf 5aa2 f33e 5c19 4f3e
000000a0: 6145 643f

lin1.weight f4 [1, 3]
0.013755632 -0.07563335 -1.59796
00000000: 4d5f 613c a8e5 9abd f489 ccbf

lin2.weight f4 [41, 1]
0.54766124 0.89745533 -0.44831812 1.5719551 -1.9440713 -4.5170765 1.617517 3.1693437
-1.0755615 2.192043 -1.9564515 2.6163707 1.310685 2.3642955 0.34060895 -2.9300177
-2.7228665 -1.1240832 2.9498599 -5.478142 -4.997899 7.5998335 1.4028852 -2.8100405
-4.4063473 -1.0330579 -3.5346086 -6.1133204 0.90752184 -1.4498546 -2.6922755 -2.6464093
-3.144928 -3.4766872 0.34961164 -4.068728 -1.6812847 -5.0025096 0.2629952 -6.2670717
2.6207874
00000000: 8733 0c3f a2bf 653f f489 e5be d335 c93f
00000010: 54d7 f8bf e48b 90c0 cc0a cf3f 87d6 4a40
00000020: 00ac 89bf 6f4a 0c40 016d fabf 9e72 2740
00000030: 87c4 a73f 9e50 1740 4c64 ae3e 6985 3bc0
00000040: 7243 2ec0 f5e1 8fbf 81ca 3c40 f04c afc0
00000050: caee 9fc0 d631 f340 be91 b33f b4d7 33c0
00000060: cc00 8dc0 3e3b 84bf 0737 62c0 52a0 c3c0
00000070: 5a53 683f d694 b9bf 3e4e 2cc0 c55e 29c0
00000080: 8046 49c0 0b82 5ec0 4c00 b33e 0533 82c0
00000090: 5634 d7bf 8f14 a0c0 4fa7 863e da8b c8c0
000000a0: fbba 2740

lin2.bias f4 [41]
-0.33932257 2.5015888 -0.8256807 -1.1360062 -4.524369 -4.8994756 -0.7790864 -4.5569525
-9.149345 -4.2179475 -3.8392556 -2.784033 -4.746304 -3.3974726 1.5657145 0.016164882
0.6449368 0.8058916 1.5951303 -0.80416596 -0.12018688 -1.6720219 1.3941964 -2.6264827
-1.4324156 0.84991103 0.5523619 0.79003924 1.4507962 0.3296611 -2.4923337 1.2100229
1.4437629 1.7154704 0.3791378 -0.57369024 0.471533 -1.8756008 -0.05735112 -4.576684
-4.3815536
00000000: b0bb adbe 081a 2040 cf5f 53bf a768 91bf
00000010: a1c7 90c0 81c8 9cc0 3572 47bf 8ed2 91c0
00000020: b863 12c1 6df9 86c0 5db6 75c0 992d 32c0
00000030: b9e1 97c0 3170 59c0 5569 c83f 376c 843c
00000040: 941a 253f e94e 4e3f 3b2d cc3f d2dd 4dbf
00000050: 8a24 f6bd d004 d6bf 0775 b23f 4b18 28c0
00000060: 6559 b7bf c593 593f 9767 0d3f 0340 4a3f
00000070: b1b3 b93f 57c9 a83e 6582 1fc0 08e2 9a3f
00000080: 39cd b83f 8994 db3f 5a1e c23e 5ddd 12bf
00000090: c66c f13e b013 f0bf 02e9 6abd 3274 92c0
000000a0: b035 8cc0
