Models_Q1/Model-b1-e9-h10.pth (torch, 5972 bytes, 5 tensors)

emb.weight f4 [41, 9]
00000000: f25d d43f 10e6 173f e2e9 b63f a38c 0b3a
00000010: cdea 43bf 89d7 b0bc 2d08 913f aeba 1b3f
00000020: 6016 5abe 9fcd dbbb 6998 3cbf 5bb6 cc3e
00000030: 1632 fbbe 439c 013e 8f15 c3bf 30db 6abf
00000040: 5bc3 75bf bafa 9e3e 58c2 0340 2eb4 4a3f
00000050: c9c9 5abf d1e9 10bf 98f7 fb3f b57e 7dbf
00000060: e91b a1bf 3385 da3f 1f7c a6be b09b 123e
00000070: f7db 563f 10fd 343f dc09 ca3e eb4d 3a3f
00000080: ada9 f4bf eef5 a43f ade8 8abf daaf e03f
00000090: 895f 8ac0 87bc 723f 8c88 61bf 0d7c af3e
000000a0: 83b9 2440 6fc5 87bf b242 c3bf d51c 1240
000000b0: ee81 e33d d41b 18c0 a943 803f b7ab 8bbf
000000c0: 253b d33f 0d8d e1bd 5769 f13f ddec 11bf
000000d0: 6798 323f 658b 44c0 b3b1 cdbd 5464 e73f
000000e0: 1657 f23e 5d05 40bf e1c0 1c3f a5b7 3c3d
000000f0: e671 0e40 1e02 443f 0647 433f 329c 25c0
00000100: 6cb0 49c0 4ee3 e4bf 9558 723f 168e 7e3f
00000110: 51ca 00c0 8135 c4bf 916d fa3f b077 ddbf
00000120: 894a 33bf f879 8bbf 5f8b 86bf 6455 cfbf
00000130: e4ff c0be af1f bcbe ad22 ad3f 6a80 be3e
00000140: 9fe7 19be 1e7e 2bc0 1fce 3040 aae7 54bd
00000150: 6b11 4c3f e423 c33e 06e6 0e40 6365 d73e
00000160: 47b9 efbf c71f c2be 645f a4bf 111f 0e40
00000170: 9e7f fd3f dfe1 ad3e d8c4 8f3e c5a1 2840
00000180: 047c 033f 975f 2abf dc87 7fbd 0881 15c0
00000190: 648d 4abe 817d 5dbf 34a1 cbbf f866 4d40
000001a0: 7b0b 43be 1ff0 623f caf6 2e40 1e08 ed3e
000001b0: 9765 07c0 db8d 4fbd cfdf 59bf c8d0 c2bf
000001c0: 4924 4040 66cd 0abe 9415 6a3f b0bd 2540
000001d0: 2163 083f 0e2d 6f40 30e2 363f 36c4 10be
000001e0: 8334 d9bf 09ae 8e3f 3789 acbf f0b8 a7bf
000001f0: 982e ae3e 87a6 953d 186d 923f 3ebe 44bf
00000200: 7dad 41bf 8ad5 803e eef2 9b3e 459c 6e3e
00000210: 5a9c 2c3e 4dbb 233e 3494 1d3f 720f 8a3f
00000220: 8c21 04bf cf8f b63f 1a77 f33e a125 adbe
00000230: 7569 a43f d185 5cbf 3008 89be c896 aabf
00000240: e470 c7be 2d20 a83f ea81 343d 9528 8c3e
00000250: c22b 0140 00da 97bd d966 01bf d261 8fbf
00000260: 718d cd3e 2b9a a63f 1a12 0abf b1d8 0cbf
00000270: 0e92 6ebf 8f57 3a40 feac 373f f8ce 90bf
00000280: b602 a03e d3e5 4f3f 3624 9bbe fc51 5c3f
00000290: 5cb8 ebbf b85c ee3f f24d bf3f de09 42bf
000002a0: a20e 0740 93d0 b43d 2fa2 a13e 250c 03bf
000002b0: 8479 5fbe 9749 dd3d 8993 09c0 7e77 7d3f
000002c0: 55ce 803f 1ebe 3e3f f68f 2d3d 7ac1 a83f
000002d0: 92d8 2b3f bd08 0540 c5df 5c3e 2948 5d3f
000002e0: 7f94 10bf 2255 553f 2028 173f 76c4 40bf
000002f0: 2971 09be 9407 2a3f 78e7 9e3f 3d47 923d
00000300: 2a5c bbbf 93b7 9abb 19f6 36bd 7bd4 c9bf
00000310: f6c5 0abe c36d e1bf 2feb 333f 9583 86bf
00000320: a850 803f ca92 0b3f 6853 133c 86fc 32be
00000330: 4be3 45bf 902e 693f 2984 a0be e76d 1a40
00000340: 9691 a4be aa2b 823c 5215 2240 6b70 1cc0
00000350: ed73 08c0 53ab 0d3d c641 9f3d b629 b53f
00000360: bcbd 2940 e51a 8ebf 92b3 5e3f 2d15 87be
00000370: 3599 df3e b1c6 dc3e a924 4fbc 0042 9abe
00000380: 17b8 a7be 1290 fb3e 9e45 8e3f f06e 74bf
00000390: 7742 443f e63c a93f d49c 423f 0b3f 743e
000003a0: 19a8 f33e 0e03 bdbf 6aca 1dbe 2e17 a03f
000003b0: 3b2d e2bf 81c3 a0bf 6c89 96be f3c9 043e
000003c0: a0d7 8fbf 5136 123f 3978 e93f c66d 8e3f
000003d0: 70d0 4cbf 04cc 51bf b236 eabe dd4d 81bf
000003e0: f86e a8be e6bc 5dbf 03d2 e63f 7cc1 81bf
000003f0: 1999 063f eb63 a6be bffe 32be dfbf db3f
1.659117 0.5933542 1.4290125 0.00053233857 -0.7653015 -0.02158715 1.133062 0.60831726
-0.21297598 -0.0067078616 -0.7367006 0.39982876 -0.4906165 0.12657265 -1.5240954 -0.91740704
-0.96001214 0.31050664 2.0587368 0.7918118 -0.8546415 -0.56606776 1.9684935 -0.99021465
-1.2586643 1.7071899 -0.32516572 0.14317203 0.8392939 0.7069864 0.39460647 0.72775143
-1.9114281 1.2887552 -1.0852257 1.7553666 -4.324162 0.9481892 -0.8809898 0.3427433
2.5738227 -1.0607127 -1.5254729 2.2830098 0.111087665 -2.3766985 1.0020648 -1.0911778
1.6502424 -0.110132314 1.8860272 -0.5700205 0.697638 -3.071008 -0.10043659 1.8077493
0.47332066 -0.75008184 0.6123181 0.046073575 2.2257018 0.7656573 0.7628025 -2.5876584
-3.151393 -1.7881868 0.94666415 0.99435556 -2.0123484 -1.5328828 1.9564687 -1.7302151
-0.70035607 -1.0896597 -1.0511283 -1.6197934 -0.3769523 -0.36742923 1.3526207 0.37207347
-0.15029763 -2.6795726 2.7625806 -0.051978745 0.7971408 0.3811332 2.2327895 0.4206954
-1.8728417 -0.3791487 -1.2841611 2.2206461 1.9804571 0.33961388 0.28079867 2.6348736
0.5136111 -0.6655211 -0.062385425 -2.3360004 -0.19780499 -0.8651963 -1.590857 3.2094097
-0.19047348 0.88647646 2.7338128 0.46295255 -2.1155756 -0.050672393 -0.8510713 -1.5219965
3.0022147 -0.13554916 0.91439176 2.5897026 0.5327626 3.737125 0.71438885 -0.14137349
-1.696915 1.1146861 -1.3479375 -1.3103313 0.34019923 0.07307153 1.1439543 -0.76852787
-0.7565535 0.25162917 0.30458778 0.233018 0.16856518 0.15989418 0.61554265 1.0785964
-0.5161369 1.4262637 0.47551805 -0.3381777 1.2844683 -0.8614169 -0.2676406 -1.3327265
-0.38953316 1.3134819 0.04406921 0.27374712 2.0182958 -0.07414627 -0.5054756 -1.1201727
0.40146974 1.3015798 -0.5393387 -0.55018145 -0.9319161 2.9115942 0.7174834 -1.1313162
0.31252068 0.8121006 -0.30301064 0.860626 -1.8415637 1.8622046 1.4945662 -0.75796306
2.110268 0.08828845 0.3156905 -0.51190406 -0.21823698 0.10805052 -2.1496298 0.99010456
1.0062968 0.74508846 0.04237362 1.3184044 0.67127335 2.0786583 0.21569736 0.8643823
-0.5647659 0.8333303 0.590456 -0.75299776 -0.13422073 0.66417813 1.2414389 0.07142494
-1.4637501 -0.004721591 -0.04466829 -1.5767969 -0.13552079 -1.7611622 0.70280737 -1.0508906
1.0024614 0.5452086 0.008992054 -0.17479143 -0.77299947 0.91086674 -0.3135083 2.412958
-0.32142323 0.015889961 2.5325513 -2.4443614 -2.1320755 0.034587216 0.07776217 1.4153354
2.6522055 -1.1101958 0.8699275 -0.26383343 0.43671575 0.4312034 -0.012643018 -0.3012848
-0.32757637 0.49133354 1.1114995 -0.9548178 0.7666392 1.322171 0.7602055 0.23852174
0.47589186 -1.4766557 -0.15409246 1.2507074 -1.7670053 -1.2559663 -0.2940172 0.12967663
-1.1237679 0.5711413 1.8239814 1.112725 -0.8000555 -0.8195193 -0.45744854 -1.0101887
-0.32897162 -0.8661636 1.803284 -1.0137172 0.5257736 -0.32498106 -0.1747999 1.716793

lin1.weight f4 [10, 9]
00000000: 6998 86be a3cf 61be d116 9bbe 67e1 073e
00000010: cb9a 58bf a63a 09bd cdf1 6b3e 3956 e63e
00000020: 7418 2cbe 4852 5b3e 0e45 04bf 18d2 afbe
00000030: 66d3 463e c338 24bd 6c9f 1a3f f16a 7c3e
00000040: b0e6 72be c560 48bf b6e0 07bf 9560 14bd
00000050: f1ec 9ebe 81ee 913e 8288 e6bd b542 ff3e
00000060: 8019 543f 15ad d23d 743b d23d e2bb b7be
00000070: 7059 e6be b378 26bf 6aa8 173f acec 3c3e
00000080: f6ce 79be 27ab 053f e6e4 81bf f705 003d
00000090: c9c3 1f3f f1f3 3dbe 3e0b 5bbf 6661 593e
000000a0: 6721 f93e b615 993e 9adf c3be 3dcf 0a3f
000000b0: 2b59 933e 495b 593e 6617 063f d3ae 8ebe
000000c0: 1a97 73bf b4fe 393e 3a90 063f d4ae ec3e
000000d0: 53a3 993b 8088 35bf ef64 063f d861 0dbe
000000e0: 4329 893f fb40 e03d c054 d23e df81 803e
000000f0: 52a6 303f df5f 273f 919d 2b3e 5f82 e23c
00000100: 949e cf3e 1677 f5bc 8407 03bf ec85 c73d
00000110: a13e 10bf 0ef8 403d 4172 243e 31b5 59bf
00000120: 62b6 f7be ce5c 77bf 5fce e33e bd3e 0bbd
00000130: 941c 4cbf f8a1 f23c 7ea7 7c3d f2bf cabd
00000140: 23ce d53e 7d35 22bf 19eb d23e ec35 da3e
00000150: 3601 81be e1b4 0c3e e410 363f 5055 58bf
00000160: c0a7 60bf 3f19 e2be
-0.26288155 -0.22051863 -0.30290845 0.13269578 -0.84611195 -0.033503197 0.23041458 0.44987658
-0.16806203 0.21418107 -0.5166787 -0.34339976 0.1941658 -0.040093195 0.6039951 0.2465017
-0.23720813 -0.7827266 -0.53077257 -0.03622492 -0.31040147 0.28502277 -0.112565055 0.4985558
0.8285141 0.10286919 0.10265246 -0.3588553 -0.4499011 -0.6502792 0.59241354 0.18449658
-0.24395356 0.5221428 -1.0147979 0.03125569 0.6240812 -0.18550088 -0.8556403 0.21228561
0.48658296 0.29899377 -0.38256532 0.5422247 0.28778967 0.21226229 0.52379453 -0.27867755
-0.9515244 0.18163568 0.5256382 0.46227133 0.004688659 -0.7091141 0.5249776 -0.13806856
1.0715717 0.10949894 0.41080284 0.25099084 0.69003785 0.6538066 0.16759326 0.027650056
0.40550673 -0.029964011 -0.5118334 0.097423404 -0.56345564 0.047111563 0.1605921 -0.850421
-0.48381335 -0.96625984 0.44493386 -0.03399538 -0.79731107 0.029618248 0.06168317 -0.09899892
0.41758832 -0.63362867 0.4119499 0.42619264 -0.25196236 0.13740875 0.71119523 -0.84505177
-0.87755966 -0.44159886

lin1.bias f4 [10]
00000000: 8a4d 21be 39bc c8be 7abd d2be 9e23 79be
00000010: 7b58 5e3f 9f98 bdbd fc6a 0f3f 1c0c d33e
00000020: dea4 033d c2a7 1b3e
-0.15752235 -0.39206102 -0.41160184 -0.24329993 0.8685376 -0.09257626 0.5602262 0.41220176
0.03213965 0.15200713

lin2.weight f4 [41, 10]
00000000: 6d51 c53f 2f48 483d fead c93f 6a52 863e
00000010: 44a5 093e 2842 2340 68c5 9d3f 5815 bfbf
00000020: ef9c 01c0 8991 56bf 2730 2cbf 0eba 1cbf
00000030: 7c9b 533f ca7d b9bf ab45 713e 57ad 1440
00000040: 7e07 9c3f 2ad2 a63e 3c45 c7bf 11a2 10c0
00000050: b759 263f b0b6 b7bf 570a 8f40 a0e4 febf
00000060: 8b4e 23c0 901a fbbf 6afd 8ec0 1ad0 ab3f
00000070: 3487 b63f 154f 00c0 debb b140 2ff8 1ebf
00000080: 81c6 1540 1191 0bc0 ecb8 6fbf df4e 76bf
00000090: 5c20 7a3e b35a 2bc0 34f0 903f a593 b3bd
000000a0: e445 c63f f002 b03f 7b66 673f 5371 fb3f
000000b0: 366a 3ec0 6e2e 18bf c103 19c0 b09c d2bf
000000c0: 3e4f e73f 2bc8 813f c9b1 fb3f f52d 933f
000000d0: 4adc bf3f 5a68 ec3f 5629 b2bf 6b5b c63f
000000e0: 167d 90bf 0be6 37c0 642b 2740 c723 6b3e
000000f0: 04d6 0140 3dd1 493f 6e94 db3f 8b85 973e
00000100: 32fd f1be a707 0e40 18a5 0fbf b705 a9be
00000110: 9737 0ec0 f32d 843c b7b6 033f 2a0b 3a40
00000120: 56cd 0c40 f8cd ecbf f1b8 b83e 2fc6 793f
00000130: 4dba 31bf 712e afc0 c0c1 6f40 1210 4040
00000140: b873 8d40 fcaf 7240 b9e7 3040 4666 2640
00000150: 471d 5dc0 93ee 88be 91bf 33c0 b830 99c0
00000160: dd54 0040 5fdb 3d40 ad99 46be 9206 ad40
00000170: 3f0f ce40 c28c 08c0 f7d9 ccc0 434a 1940
00000180: ddc2 8ec0 0f36 bfc0 71e1 7040 2ed9 0dc0
00000190: 9987 c03f 2f1e 9b3f 26f2 3f3f 2762 0140
000001a0: dde2 37c0 2c9b 34bf 1227 08c0 5cf8 bcbf
000001b0: 3b63 d43f 6d5b 813f f5b0 0b40 f9d2 3d40
000001c0: e3c2 1540 63c2 10bf cf30 3dbf 2854 5640
000001d0: 7003 a33f a1b9 debf da28 9fbf def5 663e
000001e0: 5420 6b40 7df4 d83e 7f3a 673f 6767 5e40
000001f0: 75c6 9abf 82a1 bf3f 357d 18c0 5057 b0bf
00000200: d506 80be 8d54 633f 19ce ef3e 6875 973f
00000210: 97eb a23f e6d4 2540 a621 26c0 9d49 9d3f
00000220: 314f d5bf 6f6d 3ebf 79ef 13c0 8bea d63e
00000230: 8f01 f7be 55ac f03d c71f 373e e595 95bf
00000240: 68df 0140 212c 99be 449a f3bf aa5a 2140
00000250: 8ccd 26bf 7071 b43f a1b9 4840 e813 7dbf
00000260: 01a8 52bf 3dd0 503f 8064 afbe 723e 42c0
00000270: 5942 71c0 f6e1 44c0 d411 603f 467a 21c0
00000280: dc27 2740 dc9b cbbf b58c be3e ee29 063f
00000290: b983 9ebe ce14 06c0 fbb3 523e aee7 423f
000002a0: 8be7 cb3e e511 b5bf ec7d cb3e 99c0 193f
000002b0: 2aa0 f03e 4ad1 a53f 0f2c 613f ed1a d8bd
000002c0: d420 023f b6f8 f53f 8c75 b63f af6b 66bf
000002d0: e9ab 48bf 249c e53e 421d 9abf ad47 9abf
000002e0: 7643 b23f 8baa 5a3f cad6 4b3e ac14 293f
000002f0: 09cf 8bbf 7154 a63f f2e5 ec3e cab1 493d
00000300: 439d 733f 12c5 3cbf 7d19 1540 264c 773f
00000310: 9a48 7dbf 21e8 b1be 7159 8340 8c16 aebe
00000320: d138 643f afb0 813f 9616 e4bf de5e fdbe
00000330: 4560 53bf 4641 10c0 af4d 5e3f 486b 903e
00000340: 6338 1abf ada8 28bf 219e a33f 260e 33bf
00000350: 658d 7c3e 288a ce3f 984a 70bf e46c 873f
00000360: e534 05bf 134b e33f 74ec cabe e342 6340
00000370: fe12 00c0 63eb 123f 18b2 86bf a203 023e
00000380: 7a34 80bf 3d63 c33f 7d19 9ebe 980e 113f
00000390: 7022 9d3e 5c68 573e da1b 9b3f f4aa 8f3f
000003a0: 0a34 123f b875 ef3f 21ef 33c0 91e7 8cbf
000003b0: 1b06 1fc0 67a2 a9bf 9822 ef3f b0a4 8e3f
000003c0: 5f31 713f c297 a53f 7590 d9bf c232 8b3f
000003d0: 13ab 943f c178 e0bf 6af0 8cbf 9a46 d2bf
000003e0: 96e4 4d3f 0028 05bf 9e84 48bf 3995 c43f
000003f0: a3d5 093e ce41 eb3f d712 db3f a5ee 13bf
1.5415474 0.048896965 1.5756223 0.26234752 0.1344195 2.5509129 1.2325869 -1.4928389
-2.0252035 -0.8381582 -0.67260975 -0.61221397 0.82659125 -1.4491513 0.23561732 2.3230798
1.2189786 0.32582217 -1.5568004 -2.2598917 0.64980644 -1.4352627 4.470012 -1.9913521
-2.551669 -1.9617481 -4.4684343 1.3422883 1.4260011 -2.0048268 5.554183 -0.6209745
2.3402407 -2.1807292 -0.93641543 -0.962141 0.24426407 -2.6774108 1.1323304 -0.08768395
1.5490079 1.3750896 0.9039075 1.9643959 -2.9752326 -0.59445846 -2.3908541 -1.6454067
1.8071058 1.0139211 1.9663631 1.14984 1.4989102 1.8469346 -1.3918865 1.5496649
-1.1288173 -2.8734157 2.6120234 0.22962867 2.0286875 0.788349 1.7154672 0.29594073
-0.47263485 2.219217 -0.5611129 -0.33012173 -2.222143 0.016135192 0.51450676 2.9069314
2.2000327 -1.8500357 0.360786 0.9756803 -0.694249 -5.474419 3.7462006 3.0009809
4.420376 3.7919912 2.7641432 2.5999923 -3.454912 -0.26744518 -2.8085673 -4.787197
2.0051796 2.9665143 -0.1939456 5.407052 6.439361 -2.1335912 -6.401607 2.3951576
-4.461287 -5.975349 3.7637599 -2.2163806 1.5041381 1.2118586 0.74978864 2.0216157
-2.8732216 -0.70549273 -2.1273847 -1.4763293 1.6592783 1.0106026 2.1826756 2.9660017
2.34002 -0.5654661 -0.739026 3.3488865 1.2735424 -1.74004 -1.2434342 0.22554728
3.6738482 0.4237403 0.9032363 3.4750612 -1.2091814 1.4971163 -2.382642 -1.3776646
-0.25005212 0.8880089 0.46836928 1.1832705 1.2728146 2.5911193 -2.5958037 1.228809
-1.6664792 -0.7438573 -2.3114913 0.41975817 -0.48243377 0.1175162 0.17883216 -1.1686369
2.0292606 -0.2991648 -1.9031453 2.5211587 -0.6515739 1.4097118 3.13633 -0.988585
-0.82287604 0.81567746 -0.34256363 -3.0350614 -3.7696745 -3.0762916 0.87527204 -2.523088
2.6118078 -1.590694 0.37216726 0.5240773 -0.3095987 -2.0950198 0.2057647 0.76134765
0.3982509 -1.4146086 0.39744508 0.60059506 0.46997195 1.2954495 0.87957853 -0.10552011
0.5083134 1.9216526 1.4254622 -0.9000806 -0.78387314 0.44845688 -1.2040179 -1.2053124
1.3926837 0.8541648 0.19906154 0.6604717 -1.0922557 1.299452 0.46269184 0.04924182
0.9516184 -0.73738205 2.3296807 0.9660057 -0.98938906 -0.34747413 4.104668 -0.34001577
0.89149195 1.0132045 -1.7819393 -0.4948644 -0.8256877 -2.253984 0.86837286 0.2820685
-0.6024229 -0.6588238 1.2782632 -0.69943464 0.24663313 1.6135912 -0.9386382 1.0580106
-0.52033836 1.7757286 -0.39633524 3.5509574 -2.0011592 0.5739042 -1.05231 0.12696698
-1.0016015 1.526466 -0.3087882 0.56662893 0.30690336 0.21035904 1.2117875 1.1224046
0.57110655 1.87078 -2.8114703 -1.1008168 -2.4847476 -1.3252686 1.8682432 1.1144009
0.9421596 1.2936938 -1.699721 1.0874865 1.1614708 -1.7536851 -1.1010869 -1.6427796
0.8042692 -0.5201416 -0.7832736 1.5358039 0.13460402 1.8379457 1.7115124 -0.5778602

lin2.bias f4 [41]
00000000: 26b6 47bf e406 6b3f 57a3 54bf dfdc 71bd
00000010: 29ce 0fc0 d930 28c0 c5d5 14be 0235 1dc0
00000020: 0cc6 6cc0 3a58 7cc0 e3c0 f0bf 2e76 ecbf
00000030: 742a 43c0 14fa 9cbf d6d4 d7bd 4ca4 953e
00000040: 8cb0 c13e 31d6 c63e dbce 4f3f 5cc6 34bf
00000050: 5cf8 ebbe d9aa 4abf dfd7 ae3f d304 edbf
00000060: 75b4 97bf 5a2a efbd f57c 53bf 8ff8 b63e
00000070: 1248 de3e 9062 c0bd 1ae3 04c0 8b71 023f
00000080: e64f 3c3f 9618 843f e249 cb3f 91d4 4a3e
00000090: 7ad8 83be 99e6 69bf 5cd0 3d40 0822 1bc0
000000a0: d992 13c0
-0.7801231 0.9180739 -0.83061737 -0.05904853 -2.246958 -2.6279814 -0.14534672 -2.4563603
-3.6995878 -3.942885 -1.8808864 -1.8473566 -3.0494661 -1.2263818 -0.10538642 0.2922691
0.37830007 0.3883529 0.8117501 -0.7061517 -0.4608792 -0.7916694 1.3659629 -1.8517097
-1.1851946 -0.11678 -0.82612544 0.3573651 0.4341436 -0.09393799 -2.0763612 0.509545
0.73559415 1.0320003 1.5881922 0.1980765 -0.25751096 -0.9136749 2.9658422 -2.423952
-2.3058379
